Eval_Models/ANN/best_model_2.pth (torch, 453765 bytes, 10 tensors)

normalize.weight f4 [784]
1.0059271 1.0391306 0.94677615 0.9952132 1.0268409 0.93680125 1.0988235 1.0919348
1.0824885 1.1091019 1.3043072 1.220705 1.1623896 1.2101208 1.2452773 1.2089763
1.1715806 1.2799561 1.0772308 1.1308478 1.1295834 1.068607 1.0056095 0.9516482
1.1266 1.0741129 0.93121576 1.0025452 1.0267627 1.0529568 1.0627666 0.97757095
0.96507573 1.0366721 1.069385 1.0907147 1.1390404 1.2745837 1.3182817 1.2179637
1.0057259 1.1210537 1.134417 1.0970726 1.1100795 1.3544124 1.2964689 1.1501452
1.1170204 1.0426929 1.0304527 0.97016877 1.0617104 1.0637997 1.0398742 0.9611097
1.0338835 1.0224645 0.9761506 1.0805336 1.0394276 0.9571184 1.1887965 1.1525048
1.1130123 1.040908 1.0024141 0.89961714 1.0655749 1.1557126 1.2455254 1.0756118
0.98224205 0.99885136 0.95148814 1.0441384 1.1379668 1.1792107 1.0759404 0.9856248
0.9919013 1.12242 1.0628194 1.0257647 0.9940717 0.9414952 0.9830346 1.0782398
1.0259795 1.0978091 1.1357898 1.207883 1.0946473 0.92933595 0.98275167 1.016958
0.9121152 1.1099961 1.1336159 1.0275812 0.9613893 0.92265356 0.86854464 1.0104388
1.1207681 1.1179861 1.1525644 1.0196192 0.97407055 1.086468 1.0112396 1.045248
1.1051232 0.8866521 0.9569244 0.9380142 1.0893551 1.0643444 1.1048363 1.0814114
0.9839503 1.0296714 0.91986907 1.0718526 0.97532266 1.1299089 1.20107 1.0206755
1.0210847 0.9529449 0.93395555 0.91497296 0.99486876 1.0688317 1.0921566 1.1554215
1.0248805 1.0631858 1.0765861 1.0123512 0.9523012 1.0023663 0.97098756 1.0073335
1.1335375 1.0552949 1.1035614 1.0573238 0.98408693 0.92229235 0.9430595 0.9560681
0.9779098 1.1119757 1.158727 0.95375186 0.9790871 0.9215429 0.9068604 0.8371905
0.97218776 1.0649697 1.0938635 1.1409769 1.1168313 1.0237107 1.0485506 1.0447917
1.0431784 0.962028 1.0790747 1.0010546 1.081742 1.1284487 1.0223254 1.0390412
0.9928075 0.90382624 1.0401819 0.9444743 0.90476394 1.0337766 1.1580534 0.93220615
0.9313808 0.94876385 1.1182678 1.049477 0.9395575 1.0111167 1.1314836 1.1430727
1.1193346 1.1672008 1.1582423 1.0726316 0.94653815 0.96694577 1.0815061 0.9680235
1.0935241 1.1184458 1.0140057 1.0252001 1.1085025 0.93916684 0.9494347 1.020585
0.9393384 1.0522058 1.1130525 0.99766785 0.93560565 1.03318 1.1236489 1.1703837
0.9901497 1.0443611 1.0346498 1.0698771 1.0606911 1.1830294 1.1329417 0.95646197
1.0026484 0.91075706 1.011543 0.9390224 1.1453887 1.0691518 0.9941718 1.0834205
1.2103492 0.9631783 0.9967226 0.9534291 0.86586004 1.0141829 1.0577902 1.0832831
0.9924658 1.0852863 1.0338428 1.114407 0.9832723 0.97656053 1.0472699 1.102047
1.0889281 1.1394885 1.0291913 1.0260397 1.0020664 1.0110111 1.0405949 0.9993778
00000000: 38c2 803f 3b02 853f ec5f 723f 4bc6 7e3f
00000010: 866f 833f 35d2 6f3f 40a6 8c3f 85c4 8b3f
00000020: fc8e 8a3f 0df7 8d3f 8af3 a63f 1040 9c3f
00000030: 2fc9 943f 3de5 9a3f 3f65 9f3f bcbf 9a3f
00000040: 5af6 953f 9ad5 a33f b3e2 893f 9fbf 903f
00000050: 3096 903f 1dc8 883f d0b7 803f 379f 733f
00000060: 6e34 903f 887c 893f 2864 6e3f 6753 803f
00000070: f66c 833f 4ac7 863f bc08 883f 1742 7a3f
00000080: 340f 773f acb1 843f 9ce1 883f 8a9c 8b3f
00000090: 13cc 913f 8f25 a33f 74bd a83f 3ce6 9b3f
000000a0: a0bb 803f b07e 8f3f 9434 913f e06c 8c3f
000000b0: 1617 8e3f 635d ad3f b1f2 a53f f537 933f
000000c0: 86fa 8e3f f676 853f e0e5 833f fb5c 783f
000000d0: 20e6 873f 972a 883f 991a 853f 490b 763f
000000e0: 4b56 843f 1ee0 823f 01e5 793f ed4e 8a3f
000000f0: f70b 853f b605 753f 7c2a 983f 4785 933f
00000100: 3077 8e3f 793c 853f 1b4f 803f 4f4d 663f
00000110: c264 883f 64ee 933f 606d 9f3f a6ad 893f
00000120: 3774 7b3f b9b4 7f3f ba94 733f 54a6 853f
00000130: e5a8 913f 60f0 963f 6ab8 893f e851 7c3f
00000140: 3eed 7d3f 75ab 8f3f 770a 883f 424c 833f
00000150: 7c7b 7e3f d405 713f 28a8 7b3f c303 8a3f
00000160: 4c53 833f 0285 8c3f 8f61 913f e99b 9a3f
00000170: 671d 8c3f f6e8 6d3f 9d95 7b3f ae2b 823f
00000180: 6280 693f 5a14 8e3f 531a 913f c887 833f
00000190: 9c1d 763f 0633 6c3f f158 5e3f 0f56 813f
000001a0: 5475 8f3f 2b1a 8f3f 3b87 933f e282 823f
000001b0: b05c 793f 6211 8b3f 4d70 813f b0ca 853f
000001c0: ad74 8d3f a2fb 623f fff8 743f b321 703f
000001d0: fd6f 8b3f 703c 883f 476b 8d3f b06b 8a3f
000001e0: 2be4 7b3f 46cc 833f 8a7c 6b3f 7732 893f
000001f0: bfae 793f dba0 903f a9bc 993f 7fa5 823f
00000200: e7b2 823f 32f4 733f b617 6f3f ab3b 6a3f
00000210: b8af 7e3f 7acf 883f cacb 8b3f dae4 933f
00000220: 492f 833f 7916 883f 93cd 893f b994 813f
00000230: 03ca 733f 8a4d 803f a492 783f 4ef0 803f
00000240: c217 913f e713 873f 8041 8d3f 6356 873f
00000250: 1fed 7b3f 5a1b 6c3f 596c 713f e1c0 743f
00000260: 4c58 7a3f 3855 8e3f 2b51 943f 1529 743f
00000270: 74a5 7a3f 3cea 6b3f 0128 683f 1e52 563f
00000280: 4ce1 783f ed50 883f b803 8c3f 880b 923f
00000290: 54f4 8e3f f408 833f e836 863f bcbb 853f
000002a0: df86 853f 7847 763f 1f1f 8a3f 8f22 803f
000002b0: 8676 8a3f 0271 903f 8fdb 823f 4dff 843f
000002c0: a228 7e3f 2861 673f ae24 853f 11c9 713f
000002d0: 9c9e 673f cb52 843f 183b 943f 10a5 6e3f
000002e0: f96e 6e3f 30e2 723f 6623 8f3f 4355 863f
000002f0: d786 703f 466c 813f 74d4 903f 3550 923f
00000300: 5b46 8f3f d666 953f 4941 943f fe4b 893f
00000310: 5350 723f c289 773f cb6e 8a3f 63d0 773f
00000320: 99f8 8b3f 3b29 8f3f f0ca 813f c239 833f
00000330: 69e3 8d3f 3d6d 703f 270e 733f 87a2 823f
00000340: 7b78 703f aeae 863f 8178 8e3f 2967 7f3f
00000350: da83 6f3f 3e3f 843f bad3 8f3f 22cf 953f
00000360: 737a 7d3f a0ad 853f 686f 843f bcf1 883f
00000370: bac4 873f 826d 973f 3c04 913f b1da 743f
00000380: c856 803f 6027 693f 3e7a 813f c663 703f
00000390: 199c 923f f7d9 883f 0b82 7e3f 86ad 8a3f
000003a0: b9ec 9a3f da92 763f 3629 7f3f ee13 743f
000003b0: 01a9 5d3f bfd0 813f ab65 873f 05a9 8a3f
000003c0: 3d12 7e3f a9ea 8a3f f654 843f e3a4 8e3f
000003d0: bcb7 7b3f dfff 793f f10c 863f e00f 8d3f
000003e0: ff61 8b3f c2da 913f 8abc 833f 4555 833f
000003f0: b643 803f d068 813f 3732 853f 39d7 7f3f

normalize.bias f4 [784]
0.01823561 -0.00380258 0.013473029 0.07483587 -0.00687909 0.055360075 0.018992316 0.069314376
0.0749783 0.056252122 0.02751285 0.04611774 -0.028138485 -0.03312623 -0.03813288 0.008202035
0.025133189 0.020963116 0.031629473 0.04321347 0.026502747 -0.016275702 0.039324522 0.006943721
-0.020667778 0.0057744994 -0.007463636 -0.026101585 -0.008138391 0.037789974 0.039509013 0.030964375
0.057510998 0.019371562 0.036753286 0.07687035 0.038077578 0.037084736 0.018455029 0.02925002
-0.00029238258 -0.003094644 0.044932734 -0.0071895067 0.05286514 0.023803502 0.054389145 0.053620704
0.030039188 0.032012064 -0.016470185 -0.005153265 0.015234743 -0.018299023 0.040627044 0.0036757253
0.0034278645 0.01633517 0.06146314 0.04211702 0.06610377 0.07805975 0.066894054 0.047319297
0.04680082 0.061420318 0.05891873 0.027462741 -0.0013830003 0.008937301 0.026871426 0.019181298
0.010400502 0.04167497 0.039049014 0.013338306 0.038509484 0.03708125 0.031183958 0.029086653
0.00965234 -0.0017725274 0.026100965 0.023646256 0.020947937 0.023879027 0.012053354 0.002213529
0.104662836 0.05877974 0.038897324 0.043781374 0.014712202 0.08119819 0.0478059 0.027907105
0.014444486 0.02768945 0.0107132895 0.01888879 0.007624552 0.05421839 0.061527226 0.0044697965
0.019772332 0.030561851 0.025297822 0.050298054 0.042194318 0.015490518 0.03628135 0.001784706
0.01991566 0.020626845 0.029729094 0.064214125 0.08013351 0.060906887 0.05140257 0.027082385
0.039535303 0.070625395 0.028683722 0.012060172 -0.003357915 0.017132593 0.007421609 -0.0042280145
0.0014105908 0.022016823 0.044612642 0.0307222 0.038321257 0.03053206 0.019535657 0.025288157
0.08253362 0.012654972 0.01021113 0.05676438 0.045177683 0.04369876 0.038576905 0.0738775
0.0648966 0.06537524 0.0743512 0.0547404 0.048099533 0.031707454 0.03709883 -0.011583343
0.033771843 -0.0070348596 -0.013542013 0.029076232 0.02013947 0.03295503 0.07967224 0.027675569
0.054685824 0.03832974 0.017157769 0.034633826 0.02169974 0.046179596 0.02789936 0.043505717
0.030199071 0.043772418 0.07442965 0.055072196 0.06646885 0.029874427 0.065454125 0.07769279
0.038242463 0.044420082 0.020889688 4.5934263e-05 0.029803993 0.0054909983 0.015399779 0.06423671
0.03170205 0.042760916 0.0050563663 0.03687322 0.064717494 0.0070869573 -0.002187377 -0.0006039648
0.028932933 0.053578436 0.043491676 0.023600798 0.04639668 0.018968046 0.031440962 0.06613742
0.06189094 0.029969437 0.06915942 0.057910666 0.0291499 0.01229766 0.028171219 0.015559956
0.02724456 0.023490822 0.01321987 0.035706524 0.037272006 0.025221774 0.0019296916 0.04521492
0.047862723 0.00930005 0.0064905463 0.00038477956 0.045593828 0.057176355 0.017968269 0.025610715
0.08139488 0.048708446 0.030399771 0.096433535 0.04566855 0.06857923 0.06163796 0.0716713
0.033422537 0.009867478 -0.0073491945 0.042543907 0.05953681 0.00976919 0.005899351 0.02717271
0.047566768 0.014152181 0.029023942 0.025196547 0.064681485 0.066604055 0.048950147 0.00040756376
0.03442897 0.026449418 0.042693395 0.018651025 0.015249564 0.017282914 0.049055267 0.053724673
00000000: d962 953c b534 79bb fbbd 5c3c 8c43 993d
00000010: fd69 e1bb 3fc1 623d c695 9b3c b2f4 8d3d
00000020: 398e 993d a068 663d a162 e13c f5e5 3c3d
00000030: ae82 e6bc 5faf 07bd 3931 1cbd d461 063c
00000040: 1ee4 cd3c d7ba ab3c e88d 013d 9c00 313d
00000050: 4a1c d93c 9f54 85bc c012 213d 2788 e33b
00000060: 794f a9bc 0338 bd3b 8491 f4bb fed2 d5bc
00000070: e356 05bc a9c9 1a3d 34d4 213d 00a9 fd3c
00000080: a790 6b3d 1cb1 9e3c 9d8a 163d 346e 9d3d
00000090: 3cf7 1b3d 2ae6 173d 002f 973c bd9d ef3c
000000a0: ed4a 99b9 83cf 4abb 630b 383d f495 ebbb
000000b0: 1e89 583d 90ff c23c 27c7 5e3d 62a1 5b3d
000000c0: be14 f63c 151f 033d 7bec 86bc b8dc a8bb
000000d0: 259b 793c d5e7 95bc 8b68 263d 70e4 703b
000000e0: 06a6 603b 56d1 853c c6c0 7b3d e582 2c3d
000000f0: 6a61 873d cadd 9f3d c0ff 883d e1d1 413d
00000100: 37b2 3f3d df93 7b3d c454 713d 8bf9 e03c
00000110: ca45 b5ba c26d 123c 7721 dc3c 1922 9d3c
00000120: de66 2a3c 60b3 2a3d dcf1 1f3d e988 5a3c
00000130: 1fbc 1d3d 82e2 173d 8075 ff3c 2247 ee3c
00000140: d924 1e3c 2654 e8ba b1d1 d53c cbb5 c13c
00000150: 029b ab3c f39d c33c 6e7b 453c db10 113b
00000160: 7859 d63d 06c3 703d cd52 1f3d 1954 333d
00000170: 730b 713c 3d4b a63d 1fd0 433d 719d e43c
00000180: 91a8 6c3c fcd4 e23c cb86 2f3c aabc 9a3c
00000190: 61d7 f93b 1a14 5e3d f903 7c3d 5f77 923b
000001a0: 96f9 a13c d95c fa3c 613d cf3c 5505 4e3d
000001b0: f3d3 2c3d f1cb 7d3c c19b 143d ccec e93a
000001c0: 2b26 a33c a1f9 a83c 6e8a f33c b282 833d
000001d0: 0a1d a43d 8079 793d 808b 523d e1db dd3c
000001e0: c5ef 213d 0ca4 903d 20fa ea3c 0798 453c
000001f0: 7710 5cbb a759 8c3c f830 f33b 288b 8abb
00000200: 93e3 b83a a05c b43c bfbb 363d 20ad fb3c
00000210: c0f6 1c3d 5f1e fa3c 3e09 a03c 1c29 cf3c
00000220: 6307 a93d cd56 4f3c 954c 273c c481 683d
00000230: 3c0c 393d 79fd 323d d102 1e3d 164d 973d
00000240: 82e8 843d 74e3 853d 7145 983d 7837 603d
00000250: 0404 453d addf 013d f1f4 173d 10c8 3dbc
00000260: 5854 0a3d ae84 e6bb 52df 5dbc 4731 ee3c
00000270: 88fb a43c dbfb 063d 332b a33d e0b7 e23c
00000280: 3efe 5f3d a5ff 1c3d 738e 8c3c 33dc 0d3d
00000290: a7c3 b13c d126 3d3d 338d e43c 0d33 323d
000002a0: 0b64 f73c b54a 333d 936e 983d 6293 613d
000002b0: d220 883d 37bb f43c d00c 863d 661d 9f3d
000002c0: 21a4 1c3d d5f1 353d da20 ab3c 8aa9 4038
000002d0: 8127 f43c d5ed b33b 5b4f 7c3c 898e 833d
000002e0: 02da 013d 1226 2f3d e0af a53b 6008 173d
000002f0: 9b8a 843d b539 e83b 195a 0fbb 6453 1eba
00000300: c204 ed3c 1075 5b3d 5424 323d 7656 c13c
00000310: 720a 3e3d e062 9b3c 3dc8 003d 0e73 873d
00000320: 5b81 7d3d 7782 f53c 74a3 8d3d bc33 6d3d
00000330: c5cb ee3c 207c 493c 54c7 e63c 30ef 7e3c
00000340: fc2f df3c d36f c03c 2798 583c 0141 123d
00000350: 88aa 183d e59d ce3c b5ed fc3a 4833 393d
00000360: b40b 443d 3d5f 183c a6ae d43b 3dbc c939
00000370: 98c0 3a3d c131 6a3d 3132 933c 90cd d13c
00000380: 5cb2 a63d 8282 473d f108 f93c f27e c53d
00000390: f20e 3b3d 4473 8c3d 1678 7c3d 67c8 923d
000003a0: 12e6 083d 34ab 213c 83d1 f0bb 8542 2e3d
000003b0: dfdc 733d f40e 203c 584f c13b 4e99 de3c
000003c0: 5fd5 423d 8dde 673c 9ec3 ed3c fd68 ce3c
000003d0: ba77 843d b567 883d f37f 483d 48ae d539
000003e0: 6405 0d3d 73ac d83c 45df 2e3d 09ca 983c
000003f0: 4fd9 793c e694 8d3c 2dee 483d 670e 5c3d

normalize.running_mean f4 [784]
-0.99999976 -0.9999948 -0.9998135 -0.9995718 -0.9988201 -0.99744594 -0.99446505 -0.98439187
-0.9486816 -0.88369983 -0.74722534 -0.6313895 -0.56848305 -0.5723441 -0.5721984 -0.5536593
-0.5769537 -0.6714269 -0.8018021 -0.916983 -0.9705861 -0.9835357 -0.99056417 -0.99503523
-0.9968289 -0.99827015 -0.9992375 -0.9999382 -0.9999349 -0.99984163 -0.9997485 -0.9988724
-0.99529934 -0.98468953 -0.94018024 -0.86377066 -0.7330245 -0.5653824 -0.3497021 -0.18769823
-0.09134305 -0.10169008 -0.12605456 -0.07558866 -0.09647922 -0.25640738 -0.41418785 -0.6304542
-0.7985548 -0.89363706 -0.9503419 -0.97152966 -0.9815986 -0.98884064 -0.9968807 -0.9997321
-0.99991614 -0.9998903 -0.998851 -0.9949246 -0.9820872 -0.92030305 -0.8167241 -0.73141575
-0.5881241 -0.40733245 -0.22574651 -0.18416998 -0.14557378 -0.1381015 -0.13022411 -0.11858491
-0.1458305 -0.17796837 -0.26665583 -0.4576804 -0.63693357 -0.74976695 -0.8548138 -0.93226856
-0.9573951 -0.97340727 -0.98902273 -0.9960394 -0.99966234 -0.9995231 -0.99765354 -0.9895895
-0.95316565 -0.8444095 -0.7244784 -0.6085581 -0.45665368 -0.30867574 -0.19060515 -0.18529615
-0.16452459 -0.1551511 -0.135284 -0.13547677 -0.14036907 -0.15079229 -0.17291445 -0.3303618
-0.48582086 -0.61514735 -0.74177426 -0.8541563 -0.92048365 -0.9546438 -0.97722423 -0.99512154
-0.9997947 -0.9981614 -0.9944691 -0.98097956 -0.91220695 -0.7754683 -0.6369247 -0.51466924
-0.400377 -0.27046138 -0.19058251 -0.17517741 -0.16212331 -0.1510868 -0.12886125 -0.11705322
-0.11481603 -0.12784964 -0.1470514 -0.25570634 -0.39687368 -0.48748103 -0.63901937 -0.7826032
-0.8826072 -0.9341666 -0.96676856 -0.99278814 -0.99871224 -0.99567926 -0.98793715 -0.96304774
-0.87776834 -0.71334624 -0.57530546 -0.47484317 -0.3760011 -0.24065547 -0.1849857 -0.17875034
-0.17198771 -0.14772826 -0.113391444 -0.10328596 -0.08413723 -0.08676245 -0.11295087 -0.1866198
-0.3179827 -0.4258546 -0.5355057 -0.706373 -0.83742714 -0.9013005 -0.9532897 -0.98735243
-0.997832 -0.99211794 -0.9768658 -0.9408305 -0.8340246 -0.6682501 -0.52858764 -0.43530858
-0.3601618 -0.24182415 -0.18444242 -0.16890138 -0.16139966 -0.14481135 -0.09773323 -0.07012045
-0.061389837 -0.044496205 -0.07658375 -0.1500583 -0.26632136 -0.36502314 -0.47157067 -0.63793623
-0.7773231 -0.85481703 -0.92773986 -0.9848129 -0.9967622 -0.9873538 -0.9707036 -0.9260553
-0.7959236 -0.62392133 -0.4951498 -0.39542088 -0.33295098 -0.24592672 -0.17363136 -0.15253808
-0.14567657 -0.1107357 -0.060512993 -0.017011967 0.0005424332 0.018125525 -0.024658818 -0.10106023
-0.20921527 -0.29389063 -0.3978224 -0.5589613 -0.7080115 -0.8087161 -0.8943275 -0.98383886
-0.9930556 -0.98358005 -0.96612644 -0.9047816 -0.76280713 -0.5936578 -0.46091154 -0.35797113
-0.3094207 -0.24211307 -0.15970413 -0.13598116 -0.122324675 -0.085897684 -0.056683112 0.046660777
0.069613524 0.08596992 0.014974973 -0.055270396 -0.14475653 -0.22410345 -0.32705858 -0.4776397
-0.64241135 -0.7554394 -0.8734046 -0.9762071 -0.9899592 -0.98065525 -0.95283115 -0.8778825
00000000: fcff 7fbf a9ff 7fbf c7f3 7fbf f0e3 7fbf
00000010: adb2 7fbf 9e58 7fbf 4395 7ebf 1b01 7cbf
00000020: ccdc 72bf 273a 62bf 294a 3fbf bea2 21bf
00000030: 1b88 11bf 2585 12bf 987b 12bf 9ebc 0dbf
00000040: 3db3 13bf a2e2 2bbf e742 4dbf 66bf 6abf
00000050: 5578 78bf ffc8 7bbf 9d95 7dbf a1ba 7ebf
00000060: 2e30 7fbf a28e 7fbf 07ce 7fbf f3fb 7fbf
00000070: bcfb 7fbf 9ff5 7fbf 85ef 7fbf 1ab6 7fbf
00000080: f0cb 7ebf 9d14 7cbf a7af 70bf 1320 5dbf
00000090: 7ea7 3bbf e7bc 10bf 270c b3be f733 40be
000000a0: 1112 bbbd e342 d0bd 7214 01be 3ace 9abd
000000b0: e696 c5bd d447 83be 6e10 d4be 7265 21bf
000000c0: 166e 4cbf 66c5 64bf 9b49 73bf 2bb6 78bf
000000d0: 0c4a 7bbf a924 7dbf 9333 7fbf 71ee 7fbf
000000e0: 81fa 7fbf d0f8 7fbf b3b4 7fbf 61b3 7ebf
000000f0: 116a 7bbf fb98 6bbf d514 51bf 103e 3bbf
00000100: 4d8f 16bf e18d d0be 182a 67be 0e97 3cbe
00000110: 4b11 15be 7b6a 0dbe 7859 05be a5dc f2bd
00000120: 9754 15be 573d 36be 1d87 88be 1655 eabe
00000130: 140e 23bf baf0 3fbf 14d5 5abf 27a9 6ebf
00000140: d817 75bf 3831 79bf 9830 7dbf 70fc 7ebf
00000150: dfe9 7fbf bfe0 7fbf 3966 7fbf bd55 7dbf
00000160: aa02 74bf 392b 58bf 6b77 39bf 77ca 1bbf
00000170: 83ce e9be bf0a 9ebe ff2d 43be 46be 3dbe
00000180: 2279 28be eedf 1ebe e487 0abe 6cba 0abe
00000190: e9bc 0fbe 4b69 1abe 7c10 31be 2f25 a9be
000001a0: 83bd f8be 4c7a 1dbf ebe4 3dbf fda9 5abf
000001b0: d1a4 6bbf 8963 74bf 5e2b 7abf 49c0 7ebf
000001c0: 8cf2 7fbf 8187 7fbf 8795 7ebf 7a21 7bbf
000001d0: 6586 69bf 1785 46bf 7f0d 23bf 5dc1 03bf
000001e0: 37fe ccbe ea79 8abe 1028 43be b561 33be
000001f0: a703 26be 80b6 1abe 34f4 03be 99b9 efbd
00000200: ab24 ebbd 04eb 02be a494 16be f1eb 82be
00000210: 0733 cbbe 1d97 f9be c696 23bf af58 48bf
00000220: 8cf2 61bf 8b25 6fbf 257e 77bf 5d27 7ebf
00000230: 9bab 7fbf d6e4 7ebf 73e9 7cbf 4c8a 76bf
00000240: 6db5 60bf dc9d 36bf 3847 13bf a51e f3be
00000250: 3783 c0be 636e 76be e46c 3dbe 540a 37be
00000260: 8c1d 30be 1446 17be c639 e8bd 9787 d3bd
00000270: 2450 acbd 83b0 b1bd c952 e7bd 4319 3fbe
00000280: a1ce a2be 9d09 dabe e716 09bf dcd4 34bf
00000290: a061 56bf a1bb 66bf cb0a 74bf 21c3 7cbf
000002a0: eb71 7fbf 71fb 7dbf e113 7abf 45da 70bf
000002b0: a382 55bf 7012 2bbf 8551 07bf c4e0 debe
000002c0: 2167 b8be c0a0 77be 79de 3cbe 7cf4 2cbe
000002d0: f445 25be 6d49 14be 5c28 c8bd 4f9b 8fbd
000002e0: e973 7bbd a741 36bd f1d7 9cbd e2a8 19be
000002f0: 465b 88be 50e4 babe b671 f1be ca4f 23bf
00000300: a6fe 46bf 4ad5 5abf 5c80 6dbf b31c 7cbf
00000310: cf2b 7fbf 38c3 7cbf 0880 78bf f611 6dbf
00000320: a6c1 4bbf 4fb9 1fbf 4684 fdbe 9b74 cabe
00000330: 8d78 aabe 37d4 7bbe 6bcc 31be f132 1cbe
00000340: 3d2c 15be 66c9 e2bd 79dc 77bd ae5c 8bbc
00000350: 1332 0e3a fb7b 943c 4a01 cabc aaf8 cebd
00000360: 873c 56be d578 96be 61af cbbe 1618 0fbf
00000370: 3e40 35bf 0508 4fbf a6f2 64bf dddc 7bbf
00000380: e438 7ebf e7cb 7bbf 1054 77bf c49f 67bf
00000390: 5447 43bf f5f9 17bf 99fc ebbe fe47 b7be
000003a0: 646c 9ebe 7dec 77be 7b89 23be a53e 0bbe
000003b0: 5c85 fabd 20eb afbd 8d2c 68bd 5f1f 3f3d
000003c0: 8991 8e3d ff10 b03d 9759 753c 3663 62bd
000003d0: 0e3b 14be 607b 65be 3974 a7be 318d f4be
000003e0: 1275 24bf 7a64 41bf 7297 5fbf b5e8 79bf
000003f0: f76d 7dbf 390c 7bbf beec 73bf e8bc 60bf

normalize.running_var f4 [784]
2.561046e-12 7.212298e-08 4.4229937e-06 0.00010489045 0.00035646916 0.001041458 0.004243782 0.010225088
0.040104337 0.09546897 0.19230686 0.27596524 0.3097054 0.30503428 0.30937663 0.3170269
0.295707 0.25863367 0.1595007 0.066430785 0.022153053 0.013704144 0.0065006698 0.0037627805
0.0022483596 0.0010624521 0.00046080936 1.3652462e-05 3.3316075e-05 0.0001243149 4.181949e-05 0.00043918876
0.0035083331 0.012838803 0.05937077 0.14470403 0.28537658 0.43512347 0.580133 0.621136
0.6587508 0.6588359 0.63452816 0.66716605 0.6533409 0.5895027 0.5481985 0.36673954
0.22337179 0.117927276 0.058689397 0.035112932 0.02024866 0.012897466 0.0027356478 5.3723237e-05
2.5669111e-05 4.9600098e-05 0.0010594351 0.005681557 0.022243218 0.0888698 0.21318474 0.29903394
0.39868155 0.47962055 0.5669773 0.5600218 0.57626957 0.5929967 0.5919321 0.5833557
0.55107135 0.5379603 0.53029317 0.46287605 0.37156433 0.28893936 0.1651334 0.085301995
0.056321207 0.035055973 0.013709337 0.0035624253 0.00018010708 0.00019063243 0.0026706988 0.012100241
0.052703187 0.17809924 0.30477732 0.37341496 0.47872996 0.5192397 0.5637021 0.5400835
0.5578699 0.57386124 0.5798334 0.55902505 0.5389597 0.5290273 0.5392275 0.50358486
0.45281014 0.38266754 0.28145316 0.16632472 0.102744356 0.05620646 0.028540533 0.0038976655
9.0410715e-05 0.0018563013 0.0062963315 0.022398286 0.097577356 0.2498958 0.37344998 0.45031354
0.5035034 0.52925354 0.5472716 0.5343542 0.54823214 0.550932 0.54827875 0.544865
0.51818156 0.5182051 0.5144382 0.5037537 0.49215725 0.47474283 0.35562435 0.24456152
0.14801283 0.08152252 0.04195906 0.0047577363 0.0007508065 0.0060545453 0.013441906 0.041643586
0.13614981 0.31789953 0.42395005 0.47233155 0.51304466 0.5254072 0.5414649 0.5194608
0.52298653 0.5354223 0.53859603 0.5244406 0.50129116 0.5003936 0.50963527 0.50780547
0.51787037 0.49798962 0.4425638 0.31066453 0.1910933 0.119571954 0.05811267 0.010029833
0.0016675881 0.009075797 0.028922675 0.07029256 0.19053863 0.35110644 0.4577803 0.5021184
0.51399857 0.5116827 0.52729404 0.5101232 0.5155434 0.521353 0.5226366 0.50704914
0.4808348 0.46607277 0.47875163 0.49485487 0.5296588 0.5119566 0.47017092 0.37289014
0.25129306 0.18138134 0.08092929 0.01396189 0.0029103172 0.015825417 0.039411087 0.08434301
0.2345888 0.3924735 0.47957754 0.53022456 0.528283 0.5067042 0.51905704 0.499238
0.5085027 0.51528794 0.49947518 0.48759827 0.44353434 0.42618635 0.45450065 0.48350763
0.5363854 0.54343957 0.5130817 0.4268328 0.32452095 0.23153102 0.12765408 0.010897613
0.0066053364 0.020315489 0.04024279 0.114365086 0.26381713 0.41271448 0.507549 0.56031245
0.54942787 0.51069117 0.5112031 0.49656832 0.50048155 0.4877751 0.46204856 0.44790924
0.40125793 0.38865542 0.44132265 0.48244727 0.5482364 0.5601754 0.5362534 0.4726956
0.38176364 0.2800874 0.143453 0.017047238 0.009308101 0.024289621 0.05632801 0.14864282
00000000: b437 342c 07e2 9a33 3a69 9436 a2f8 db38
00000010: 7be4 ba39 8881 883a 6c0f 8b3b 2187 273c
00000020: 7244 243d 3c85 c33d 17ec 443e 514b 8d3e
00000030: b591 9e3e 742d 9c3e 9d66 9e3e 5a51 a23e
00000040: e866 973e a26b 843e 2754 233e dd0c 883d
00000050: 527a b53c 5987 603c 9203 d53b fb98 763b
00000060: 3759 133b fa41 8b3a c998 f139 e10c 6537
00000070: ddbc 0b38 875a 0239 5667 2f38 eb42 e639
00000080: 10ec 653b d859 523c c42e 733d 4b2d 143e
00000090: e11c 923e 81c8 de3e 9983 143f c502 1f3f
000000a0: e4a3 283f 78a9 283f 7070 223f 65cb 2a3f
000000b0: 5941 273f a6e9 163f bd56 0c3f 49c5 bb3e
000000c0: 93bb 643e db83 f13d 4b64 703d 94d2 0f3d
000000d0: 85e0 a53c e54f 533c 8e48 333b e354 6138
000000e0: ff53 d737 b309 5038 bedc 8a3a 5b2c ba3b
000000f0: 6937 b63c 5f01 b63d 1a4d 5a3e fa1a 993e
00000100: fd1f cc3e d390 f53e 6d25 113f 975d 0f3f
00000110: 6786 133f a2ce 173f dd88 173f cd56 153f
00000120: 0313 0d3f c4b7 093f 4bc1 073f 17fe ec3e
00000130: ae3d be3e dcef 933e bb18 293e d0b2 ae3d
00000140: 11b1 663d da96 0f3d 219d 603c 9477 693b
00000150: 20db 3c39 81e4 4739 e406 2f3b 1740 463c
00000160: 4cdf 573d a65f 363e c60b 9c3e 3f30 bf3e
00000170: 181c f53e e5ec 043f c84e 103f ea42 0a3f
00000180: 90d0 0e3f 92e8 123f f66f 143f 441c 0f3f
00000190: 43f9 093f 556e 073f d00a 0a3f f0ea 003f
000001a0: bbd6 e73e 00ed c33e a11a 903e 0751 2a3e
000001b0: a26b d23d bf38 663d d6cd e93c fa6f 7f3b
000001c0: e29a bd38 234f f33a 7551 ce3b 9c7c b73c
000001d0: a3d6 c73d afe4 7f3e d634 bf3e 7f8f e63e
000001e0: 99e5 003f 297d 073f fe19 0c3f 70cb 083f
000001f0: f158 0c3f e109 0d3f ff5b 0c3f 467c 0b3f
00000200: 8ca7 043f 17a9 043f 39b2 033f 01f6 003f
00000210: 09fc fb3e 7e11 f33e 6514 b63e 566e 7a3e
00000220: ad90 173e 47f5 a63d 43dd 2b3d c9e6 9b3b
00000230: c5d1 443a 3565 c63b 713b 5c3c 7792 2a3d
00000240: db6a 0b3e bac3 a23e fb0f d93e 71d5 f13e
00000250: e556 033f 1681 063f 729d 0a3f 62fb 043f
00000260: 72e2 053f 7011 093f 6ee1 093f bd41 063f
00000270: 9e54 003f cc19 003f 7577 023f 8aff 013f
00000280: 2793 043f 7ff8 fe3e b997 e23e 6c0f 9f3e
00000290: f6ad 433e 24e2 f43d 8d07 6e3d 2b54 243c
000002a0: f992 da3a a7b2 143c 3fef ec3c 8cf5 8f3d
000002b0: 8f1c 433e 39c4 b33e 2e62 ea3e d58a 003f
000002c0: 6995 033f a3fd 023f befc 063f 6f97 023f
000002d0: a7fa 033f 6477 053f 83cb 053f f9cd 013f
000002e0: fb2f f63e 17a1 ee3e ef1e f53e 9e5d fd3e
000002f0: b897 073f 960f 033f 3eba f03e 75eb be3e
00000300: 7ca9 803e 08bc 393e 41be a53d 69c0 643c
00000310: 05bb 3e3b 4ea4 813c 856d 213d 07bc ac3d
00000320: 0c38 703e 49f2 c83e 308b f53e ccbc 073f
00000330: 8e3d 073f 5eb7 013f ece0 043f 209c ff3e
00000340: 3c2d 023f e9e9 033f 36bb ff3e 7ba6 f93e
00000350: ef16 e33e 1935 da3e 4fb4 e83e 508e f73e
00000360: 8e50 093f db1e 0b3f 5359 033f d489 da3e
00000370: 9c27 a63e 7816 6d3e c0b7 023e e78b 323c
00000380: 9471 d83b ab6c a63c a0d5 243d 3e38 ea3d
00000390: 0a13 873e 504f d33e bbee 013f a370 0f3f
000003a0: 4ea7 0c3f a8bc 023f 35de 023f 343e fe3e
000003b0: 8f1f 003f a8bd f93e a191 ec3e 5c54 e53e
000003c0: ae71 cd3e d8fd c63e 0bf5 e13e 5403 f73e
000003d0: 3959 0c3f a867 0f3f e747 093f 2805 f23e
000003e0: 8676 c33e 9e67 8f3e 58e5 123e a6a6 8b3c
000003f0: 0181 183c 07fb c63c 33b8 663d d335 183e

fc1.weight f4 [128, 784]
0.03908942 -0.09038455 -0.0016051398 0.060718402 0.0057780165 0.021456955 0.013142806 -0.011323787
-0.00083138666 0.007453252 -0.121861935 -0.11323347 0.100012176 -0.044000715 -0.083591856 0.042345636
-0.117859155 -0.22439463 0.012456497 0.0626724 0.037215855 -0.05788104 0.079909235 0.020392377
0.10598872 0.122265026 0.014142516 0.0035030174 0.06424344 -0.011849522 0.14884336 0.10462228
0.071165 0.07267232 0.07094367 0.12686111 -0.005901936 -0.19017693 -0.30780834 -0.23453838
0.009768152 -0.021430034 -0.0044656224 0.033892356 -0.15328628 -0.40405318 -0.21443458 -0.04504207
0.14183411 0.15917948 0.08036325 0.060625575 0.08940442 0.075529814 0.06612986 -0.042332403
-0.030727942 0.0058726594 0.094540484 0.16634986 0.0368956 0.0663475 0.16097406 0.10121299
-0.015628504 -0.009667334 0.07980924 0.068782166 0.017785985 0.14593597 0.12532677 0.028676346
0.017682517 0.17473076 -0.0323411 -0.018174578 0.027887885 0.11035413 0.14269723 0.06312024
0.076889314 0.08344545 -0.02801096 -0.019290242 -0.012694136 -0.07014465 0.11358241 0.11937085
0.013002378 0.1136102 0.1440474 0.19684038 0.15315849 0.0644994 -0.064766996 -0.043588944
0.015255204 0.07832486 -0.0126859 0.03900748 0.027617905 -0.03433428 -0.03636239 0.15718438
0.18342136 0.13910429 0.060885064 0.010569463 0.0549296 0.015126113 -0.013952366 -0.13240214
-0.10362138 -0.044202875 0.08250491 0.046113178 -0.0037164213 0.020789025 0.20028764 0.092444
0.06305877 -0.104730934 -0.0847187 -0.07149543 -0.014222865 0.02667903 -0.057817195 0.009226469
-0.06293478 -0.1335726 -0.02987437 0.014806698 0.059235405 0.16941892 0.10102306 -0.034106895
-0.007236775 0.037703913 -0.057033204 -0.09431696 -0.01045596 0.027655415 0.04032385 -0.0037895732
-0.037470825 0.053708714 0.19413227 0.032015968 -0.018624524 -0.05046969 -0.018294014 -0.09592772
-0.064422294 -0.0093461545 -0.08923181 -0.061566237 -0.11679165 -0.085817605 0.0006176873 0.004712986
0.0506541 0.09401258 0.069325686 -0.025989246 -0.088904314 -0.009256432 -0.10815241 -0.082133345
-0.050373465 0.0340657 0.021265633 -0.027623154 -0.0074235243 0.07154486 0.14176664 0.057673234
0.097008444 0.0036473614 -0.042143047 -0.010232315 0.0075455755 -0.0062092585 -0.081684336 -0.00739809
-0.036378153 0.037029367 0.04843497 -0.042087354 0.062194295 0.08963606 0.081750415 -0.0052811233
-0.03857267 -0.011970725 -0.03104683 -0.07148353 -0.001762772 0.034048546 0.0018638719 0.04545176
-0.034788337 0.058259513 0.09322271 0.10298783 0.06548112 -0.058893226 -0.031684734 -0.028907081
-0.03113566 -0.0032718831 -0.008663989 0.041129895 -0.030143283 0.0045113894 0.0044865217 0.029300481
0.12465159 0.058541037 0.06375112 0.07341952 -0.010379757 -0.048458252 -0.02925977 0.0005683981
-0.02032041 0.009411833 -0.010069668 0.029854754 0.012930545 0.105387464 0.072245196 0.081042044
0.12129554 0.039088238 -0.084173925 0.0038413384 0.009098922 -0.040563796 -0.0017170082 0.04596241
0.005833957 -0.0067174206 -0.007987712 0.09494006 0.11044636 0.05435606 0.06107704 0.02690961
-0.048874106 -0.07172966 -0.02958457 -0.05949415 -0.025711497 0.043650977 -0.004388292 0.016052412
00000000: 3a1c 203d 891b b9bd 8e63 d2ba dcb3 783d
00000010: 8455 bd3b 7fc6 af3c ec54 573c 6887 39bc
00000020: 6af1 59ba 693a f43b c092 f9bd f3e6 e7bd
00000030: 2fd3 cc3d 183a 34bd 3532 abbd 9e72 2d3d
00000040: 2460 f1bd b5c7 65be 5616 4c3c 635a 803d
00000050: a76f 183d ab14 6dbd 74a7 a33d ea0d a73c
00000060: 9d10 d93d 1666 fa3d 03b6 673c e192 653b
00000070: 1192 833d 7f24 42bc 656a 183e 3544 d63d
00000080: f5be 913d 3ad5 943d ea4a 913d e1e7 013e
00000090: 0765 c1bb bebd 42be 0e99 9dbe d42a 70be
000000a0: 990a 203c 0a8e afbc 5b54 92bb b6d2 0a3d
000000b0: 14f7 1cbe 0fe0 cebe bd94 5bbe 097e 38bd
000000c0: f63c 113e f2ff 223e 7d95 a43d 8652 783d
000000d0: aa19 b73d 60af 9a3d 186f 873d be64 2dbd
000000e0: 2ab9 fbbc 706f c03b 719e c13d 9e57 2a3e
000000f0: d71f 173d 33e1 873d 62d6 243e c248 cf3d
00000100: 5907 80bc bd63 1ebc 0773 a33d aadd 8c3d
00000110: eab3 913c 3d70 153e a955 003e a8ea ea3c
00000120: edda 903c 9fec 323e 1a78 04bd dae2 94bc
00000130: 2275 e43c 5901 e23d 391f 123e 2f45 813d
00000140: 2578 9d3d 73e5 aa3d 3e77 e5bc 9206 9ebc
00000150: 11fb 4fbc 00a8 8fbd e59d e83d b478 f43d
00000160: ed07 553c 77ac e83d 2981 133e 8690 493e
00000170: 94d5 1c3e 4318 843d 8fa4 84bd 528a 32bd
00000180: f7f0 793c c968 a03d 85d8 4fbc 4fc6 1f3d
00000190: f23e e23c 1aa2 0cbd bbf0 14bd f1f4 203e
000001a0: cfd2 3b3e 5b71 0e3e 9e62 793d 8a2b 2d3c
000001b0: dcfd 603d 84d3 773c 7798 64bc 6d94 07be
000001c0: 7237 d4bd 130e 35bd 56f8 a83d 2ce1 3c3d
000001d0: 348f 73bb bf4d aa3c 3418 4d3e 4853 bd3d
000001e0: f524 813d 2c7d d6bd ff80 adbd 326c 92bd
000001f0: 0507 69bc fb8d da3c b9d1 6cbd 9e2a 173c
00000200: f3e3 80bd 41c7 08be 18bb f4bc cb97 723c
00000210: d3a0 723d 277c 2d3e 2ee5 ce3d acb3 0bbd
00000220: 7822 edbb 6b6f 1a3d a69b 69bd 4029 c1bd
00000230: 7a4f 2bbc 9c8d e23c 9f2a 253d 7d5a 78bb
00000240: 027b 19bd abfd 5b3d 9cca 463e 2d23 033d
00000250: 7592 98bc 4eb9 4ebd 54dd 95bc c175 c4bd
00000260: d6ef 83bd 9d20 19bc 2bbf b6bd e12c 7cbd
00000270: 7630 efbd 24c1 afbd 4bec 213a 646f 9a3b
00000280: ac7a 4f3d ab89 c03d a0fa 8d3d 66e7 d4bc
00000290: 7713 b6bd 4aa8 17bc 037f ddbd 8735 a8bd
000002a0: 6854 4ebd 7a88 0b3d 4435 ae3c f449 e2bc
000002b0: 0941 f3bb 1d86 923d 462b 113e c53a 6c3d
000002c0: 5dac c63d 9208 6f3b 309e 2cbd 71a5 27bc
000002d0: e040 f73b 0977 cbbb 1e4a a7bd ad6b f2bb
000002e0: 4201 15bd 1bac 173d bf63 463d ca63 2cbd
000002f0: 72bf 7e3d 1c93 b73d c36c a73d 460d adbb
00000300: 60fe 1dbd dc20 44bc ec55 febc f565 92bd
00000310: d00c e7ba 7d76 0b3d 2a4d f43a a02b 3a3d
00000320: 377e 0ebd 87a1 6e3d 8ceb be3d 49eb d23d
00000330: f71a 863d 063a 71bd dac7 01bd 8bce ecbc
00000340: 3610 ffbc 176d 56bb 67f3 0dbc d277 283d
00000350: 0cef f6bc 47d4 933b ac03 933b 9007 f03c
00000360: 5549 ff3d bac8 6f3d f28f 823d f95c 963d
00000370: db0f 2abc 297c 46bd 2fb2 efbc 8d00 153a
00000380: fd76 a6bc 1734 1a3c 40fb 24bc f591 f43c
00000390: a3da 533c 62d5 d73d 4af5 933d 5ff9 a53d
000003a0: cc69 f83d fd1a 203d 6163 acbd f7be 7b3b
000003b0: a513 153c 3926 26bd 3c0d e1ba 1443 3c3d
000003c0: c72a bf3b cf1d dcbb e4de 02bc ef6f c23d
000003d0: b431 e23d 76a4 5e3d eb2b 7a3d 8b71 dc3c
000003e0: 3730 48bd 00e7 92bd 575b f2bc 23b0 73bd
000003f0: eba0 d2bc 5ecb 323d a9cb 8fbb 5980 833c

fc1.bias f4 [128]
0.038005173 -0.024687199 -0.013892898 0.033149026 -0.0018439121 -0.040537294 -0.07845973 0.04597004
-0.0007012617 -0.027278395 0.01473504 -0.0018784078 -0.068000525 -0.010923182 0.012605139 -0.008898046
-0.013059319 -0.04426902 -0.04446775 -0.026682723 0.09683282 -0.060507707 -0.06369443 -0.012145737
0.009109495 -0.09543354 0.007675001 -0.023035217 0.034269623 -0.040699836 -0.06268954 -0.04181812
-0.030575251 -0.07502197 -0.0287078 0.03425636 0.011325127 0.04374491 -0.024369169 -0.034470584
0.083010204 -0.04226585 0.046270885 0.011896371 -0.0323029 0.0044085826 0.00859845 -6.97365e-05
-0.07883426 0.118812874 0.030800467 -0.021730023 -0.08139114 -0.013923084 0.07291372 0.007740698
0.006089946 -0.03950578 0.018977575 -0.056298517 0.0032394677 -0.030911986 0.010480282 -0.026327686
-0.054609373 -0.03815887 0.034609493 0.00095477985 -0.0011913317 -0.01514974 0.014442339 0.014766789
0.046268452 0.06350601 -0.06843178 -0.023803398 -0.040080883 -0.017372746 0.008085262 -0.012060625
0.037948277 -0.024245232 -0.028617611 0.0064589633 -0.015475335 -0.0207941 0.014045571 -0.02731191
0.01392456 -0.026704382 -0.00043303633 -0.035472248 -0.0065717986 -0.10001435 0.04930581 0.06037614
0.041401524 -0.0027960301 0.004588561 -0.016621277 -0.02233524 -0.05009563 -0.0148527045 -0.038847774
0.010512991 -0.08648281 -0.09705659 0.005054938 0.00021633826 0.031566493 0.008196482 -0.02228325
0.05197989 -0.02102242 0.03190861 0.0035586972 -0.03817833 0.002881597 -0.05050928 -0.07302179
-0.021716774 -0.0045282566 0.05786027 -0.038632315 0.047163736 -0.036778573 -0.011741338 -0.026864894
00000000: 50ab 1b3d cf3c cabc 0a9f 63bc 46c7 073d
00000010: 6caf f1ba 6f0a 26bd 7faf a0bd 154b 3c3d
00000020: e0d4 37ba f176 dfbc 3d6b 713c e834 f6ba
00000030: dc43 8bbd 25f7 32bc c985 4e3c 1cc9 11bc
00000040: c1f6 55bc 6f53 35bd d123 36bd ba95 dabc
00000050: 4950 c63d eed6 77bd 3a72 82bd eafe 46bc
00000060: fe3f 153c a972 c3bd 937e fb3b 5ab4 bcbc
00000070: 4e5e 0c3d dfb4 26bd 6063 80bd 7a49 2bbd
00000080: f378 fabc 1ea5 99bd 9f2c ebbc 6650 0c3d
00000090: 078d 393c dd2d 333d daa1 c7bc 0731 0dbd
000000a0: 4101 aa3d f51e 2dbd 8a86 3d3d ffe8 423c
000000b0: 0c50 04bd df75 903b 83e0 0c3c 803f 92b8
000000c0: db73 a1bd 2a54 f33d 4351 fc3c 2903 b2bc
000000d0: 66b0 a6bd a61d 64bc ca53 953d aea5 fd3b
000000e0: 2b8e c73b d0d0 21bd dc76 9b3c 4699 66bd
000000f0: 404d 543b 223b fdbc 7db5 2b3c 29ad d7bc
00000100: 14ae 5fbd 7a4c 1cbd afc2 0d3d 314a 7a3a
00000110: 7526 9cba 9d36 78bc 8f9f 6c3c 67f0 713c
00000120: fd83 3d3d 700f 823d f625 8cbd 58ff c2bc
00000130: da2b 24bd 4a51 8ebc 0c78 043c ed99 45bc
00000140: a76f 1b3d f09d c6bc 7b6f eabc b6a5 d33b
00000150: 428c 7dbc 6358 aabc 651f 663c 3abd dfbc
00000160: d623 643c 26c3 dabc 2709 e3b9 594b 11bd
00000170: 3e58 d7bb 53d4 ccbd e4f4 493d f94c 773d
00000180: a594 293d 9a3d 37bb a45b 963b 5829 88bc
00000190: 65f8 b6bc 1331 4dbd c258 73bc d81e 1fbd
000001a0: ae3e 2c3c e61d b1bd 9bc5 c6bd e5a3 a53b
000001b0: dcd8 6239 de4b 013d 8a4a 063c 5d8b b6bc
000001c0: dde8 543d 3637 acbc 9ab2 023d 0839 693b
000001d0: e160 1cbd 2dd9 3c3b d2e2 4ebd 738c 95bd
000001e0: 60e7 b1bc c561 94bb e4fe 6c3d eb3c 1ebd
000001f0: c32e 413d 21a5 16bd be5e 40bc c413 dcbc

fc2.weight f4 [64, 128]
-0.03954355 0.11736487 0.11298078 0.07563007 -0.14608885 0.031815056 -0.004987092 0.044467445
-0.094519 0.05052986 0.05506331 -0.06952808 0.16484651 0.033686053 -0.18954065 -0.012841936
-0.098508276 -0.0132611245 -0.0766317 0.08435799 -0.05460254 -0.001385951 -0.004530557 0.0028354402
-0.10394841 0.041788857 -0.15497078 -0.09253473 -0.030946145 -0.23654465 0.13871762 0.1045188
-0.034698147 0.0029727062 0.0066440357 -0.071731955 -0.12399027 0.08617315 0.13315381 0.12898925
0.08815025 -0.1346828 0.1205629 -0.0951224 0.064027935 0.024986954 0.15232685 0.059390556
0.03926566 -0.10026993 -0.020337064 -0.0786686 -0.13540559 0.01607371 -0.10547028 -0.008793575
-0.001985726 0.13151135 -0.06299159 0.06582554 0.01485731 -0.017916642 0.016570592 -0.047576692
-0.09109699 0.041486934 -0.11163266 0.07427832 -0.0038987237 -0.08889726 -0.055314444 -0.0114153065
-0.014585756 0.061069287 0.14693259 0.14917655 0.03474112 0.15492478 -0.0031694053 -0.060751703
0.10284522 -0.031035012 -0.023333391 0.06694902 0.06037424 -0.06199544 0.015791092 0.10206175
0.030309778 0.08436966 0.028215092 0.021350319 -0.07045603 0.09299269 -0.11250639 -0.10965003
-0.16905345 0.04805165 0.0034034392 -0.021191008 -0.069496885 0.06690252 -0.07670006 -0.03731837
0.051017284 0.064468265 -0.056556623 -0.048187077 0.055362996 0.097345166 0.008649559 0.061392754
0.0062221666 -0.09602928 -0.030723015 -0.01658285 -0.044791345 -0.043905083 0.14773794 0.00048227637
-0.023446148 -0.022488637 -0.055968173 0.15163425 0.09520224 -0.06822502 0.110092 -0.047203172
-0.015394262 0.036062814 -0.052222665 0.053083066 -0.085262485 -0.08469773 -0.08411461 -0.119344555
-0.026510773 -0.008615835 -0.14704852 -0.055475853 -0.07857318 -0.030030398 -0.017396092 -0.07573333
-0.13080399 -0.061320584 0.00042065134 -0.063650586 -0.09880007 -0.047528062 -0.008913273 -0.102644496
-0.015977163 -0.09686264 -0.06124578 0.08463436 0.020169633 -0.039656162 0.007715032 -0.024995632
0.059187155 0.0561813 -0.021455754 -0.119804524 -0.12031249 -0.0001572653 -0.030898772 -0.010962296
0.0507676 -0.14878294 -0.019185023 0.05189549 -0.055269565 -0.07434883 9.937147e-06 -0.070343174
-0.116615005 -0.06766679 0.048593313 -0.027658153 0.05135629 -0.003153583 -0.038682643 0.045650244
0.02920671 -0.011454928 -0.16791202 -0.012410025 0.0766961 0.05009454 -0.037709072 -0.0855206
-0.11307444 0.12260796 -0.033520166 -0.06707082 -0.080014475 -0.042217325 -0.10427734 0.074761204
0.042926956 0.04427584 -0.044513293 -0.08962145 -0.020703515 -0.06735068 -0.016443493 -0.10349688
0.002681657 0.0810188 -0.0049061636 0.094214365 0.050634135 0.010267827 -0.04411124 -0.07504893
-0.033639044 -0.0041480325 -0.12170674 -0.008356831 -0.039797325 0.09893212 0.014202968 -0.009233237
0.019282104 0.030596519 0.038737994 -0.102867514 -0.119798094 -0.12423968 -0.008286849 0.004488716
0.007178868 -0.06065097 -0.06876597 -0.02802435 0.014571072 -0.0486412 -0.14514038 0.07470226
-0.022415442 -0.04795758 0.07980591 0.08580712 -0.07999037 0.031625982 0.044582736 0.015244917
0.004359531 -0.056520626 0.03031442 0.035965543 0.0019402389 -0.071871355 0.0310848 -0.035323773
00000000: 6bf8 21bd fe5c f03d 7862 e73d f0e3 9a3d
00000010: 5198 15be 8150 023d c36a a3bb 7f23 363d
00000020: 2d93 c1bd 66f8 4e3d 118a 613d bd64 8ebd
00000030: 86cd 283e 63fa 093d f216 42be fc66 52bc
00000040: b5be c9bd 3045 59bc 15f1 9cbd e2c3 ac3d
00000050: eaa6 5fbd cca8 b5ba 1175 94bb cbd2 393b
00000060: e7e2 d4bd cb2a 2b3d a9b0 1ebe d982 bdbd
00000070: c582 fdbc c338 72be fe0b 0e3e f40d d63d
00000080: a51f 0ebd bcd1 423b 36b6 d93b 34e8 92bd
00000090: 9cee fdbd 8c7b b03d 7959 083e c215 043e
000000a0: 1e88 b43d 4aea 09be afe9 f63d 88cf c2bd
000000b0: 1421 833d 71b1 cc3c 92fb 1b3e 8343 733d
000000c0: 07d5 203d 525a cdbd ea99 a6bc 011d a1bd
000000d0: c3a7 0abe 03ad 833c cd00 d8bd ed12 10bc
000000e0: f422 02bb e9aa 063e bc01 81bd 8acf 863d
000000f0: 136c 733c ecc5 92bc 0dbf 873c c7df 42bd
00000100: 0f91 babd 34ee 293d aa9f e4bd 3b1f 983d
00000110: bb81 7fbb c40f b6bd 6691 62bd 4407 3bbc
00000120: 18f9 6ebc ca23 7a3d 7f75 163e bdc1 183e
00000130: b44c 0e3d 9aa4 1e3e ccb5 4fbb c7d6 78bd
00000140: 84a0 d23d 233d febc ab25 bfbc 911c 893d
00000150: fb4a 773d eeee 7dbd 525c 813c c005 d13d
00000160: 364c f83c 00ca ac3d 5623 e73c dde6 ae3c
00000170: 404b 90bd f472 be3d c069 e6bd 3290 e0bd
00000180: 591c 2dbe cfd1 443d 3c0c 5f3b c498 adbc
00000190: 6254 8ebd 3004 893d ec14 9dbd 26db 18bd
000001a0: 80f7 503d f007 843d eba7 67bd d05f 45bd
000001b0: 4fc4 623d e75c c73d e1b6 0d3c f876 7b3d
000001c0: 51e3 cb3b 00ab c4bd d5ae fbbc c2d8 87bc
000001d0: 2177 37bd d1d5 33bd 9d48 173e 0ada fc39
000001e0: 2312 c0bc 173a b8bc e23e 65bd 0246 1b3e
000001f0: 64f9 c23d 8fb9 8bbd ea77 e13d 1d58 41bd
00000200: 3738 7cbc 9ab6 133d 6fe7 55bd a16d 593d
00000210: 199e aebd 0176 adbd 4844 acbd eb6a f4bd
00000220: 1f2d d9bc 6e29 0dbc e393 16be a63a 63bd
00000230: faea a0bd 4f02 f6bc 4082 8ebc 131a 9bbd
00000240: 7bf1 05be 4b2b 7bbd de8a dc39 3d5b 82bd
00000250: b157 cabd c9ac 42bd fa08 12bc 4737 d2bd
00000260: 8ae2 82bc eb5f c6bd dbdc 7abd c854 ad3d
00000270: c93a a53c 806e 22bd 61ce fc3b a4c3 ccbc
00000280: 3b6e 723d 5d1e 663d fac3 afbc 135c f5bd
00000290: 6566 f6bd 95e7 24b9 6c1f fdbc 349b 33bc
000002a0: b0f1 4f3d 8e5a 18be e929 9dbc 5e90 543d
000002b0: 5762 62bd 3344 98bd b9b7 2637 1510 90bd
000002c0: d9d3 eebd e394 8abd c809 473d 5a93 e2bc
000002d0: f95a 523d 58ac 4ebb b171 1ebd c0fb 3a3d
000002e0: e942 ef3c 73ad 3bbc 21f1 2bbe 6b53 4bbc
000002f0: d812 9d3d ef2f 4d3d d474 1abd 6d25 afbd
00000300: 9293 e7bd e219 fb3d 714c 09bd 6d5c 89bd
00000310: a1de a3bd 13ec 2cbd 5c8f d5bd 671c 993d
00000320: 2dd4 2f3d 955a 353d 9253 36bd 738b b7bd
00000330: 6b9a a9bc 27ef 89bd 81b4 86bc 2cf6 d3bd
00000340: bdbe 2f3b 2fed a53d e2c3 a0bb 76f3 c03d
00000350: bd65 4f3d 633a 283c fdad 34bd 41b3 99bd
00000360: 18c9 09bd 38ec 87bb 6241 f9bd 17eb 08bc
00000370: 8502 23bd ec9c ca3d 91b3 683c 0147 17bc
00000380: 81f5 9d3c 8da5 fa3c bbab 1e3d 34ac d2bd
00000390: b458 f5bd 6071 febd 90c5 07bc 1416 933b
000003a0: b63c eb3b 276d 78bd 2cd5 8cbd 5293 e5bc
000003b0: 81bb 6e3c ff3b 47bd ae9f 14be 80fd 983d
000003c0: 97a0 b7bc 2b6f 44bd 4871 a33d a5bb af3d
000003d0: fed1 a3bd 3f8a 013d 639c 363d d1c5 793c
000003e0: 66da 8e3b 2c82 67bd f255 f83c 9b50 133d
000003f0: 9d4f fe3a 4a31 93bd 8da5 fe3c a9af 10bd

fc2.bias f4 [64]
-0.055158578 -0.1109604 -0.0203884 0.03230625 -0.056996882 -0.03782922 0.110319085 0.049407247
0.01671586 0.0025196332 -0.04273362 0.04328033 0.00982043 -0.010222227 0.11840782 0.039661866
-0.036969595 -0.069378614 0.07018301 -0.0119737 -0.03766574 0.06039008 0.08815751 0.0095984815
-0.015039382 0.06026321 0.0113328025 -0.10867049 0.050213862 0.024486605 0.08511851 0.10341598
0.054854494 0.14036055 0.09964527 -0.067591734 0.0675062 -0.062028516 0.08260997 0.03491672
0.07412495 0.10762885 0.06657388 0.044380818 -0.09110414 0.027341548 -0.020218683 -0.05132155
0.104599506 -0.012615887 0.00073438755 -0.041479856 -0.015590977 0.07676626 0.113760985 0.05034735
0.012708298 0.08683793 0.022851119 -0.065566465 0.062285375 0.027245495 0.10801572 0.008724945
00000000: f6ed 61bd 353f e3bd 9305 a7bc 8f53 043d
00000010: 9075 69bd d0f2 1abd f9ee e13d 415f 4a3d
00000020: b3ef 883c 6e20 253b 7309 2fbd b746 313d
00000030: dee5 203c 217b 27bc cd7f f23d 7b74 223d
00000040: 6e6d 17bd 6016 8ebd 1cbc 8f3d 562d 44bc
00000050: 6447 1abd 975b 773d ed8b b43d f342 1d3c
00000060: bd67 76bc 8ed6 763d 38ad 393c a28e debd
00000070: 0dad 4d3d 2298 c83c 9d52 ae3d c2cb d33d
00000080: 1baf 603d adba 0f3e d212 cc3d 896d 8abd
00000090: b140 8a3d 9d11 7ebd 6a2f a93d d604 0f3d
000000a0: d2ce 973d 846c dc3d e357 883d a9c8 353d
000000b0: cf94 babd 62fb df3c a7a1 a5bc 8c36 52bd
000000c0: 4438 d63d deb2 4ebc ea83 403a c8e6 29bd
000000d0: 4c71 7fbc a137 9d3d 85fb e83d 0639 4e3d
000000e0: 7736 503c 16d8 b13d 4532 bb3c b647 86bd
000000f0: f31e 7f3d f231 df3c 5937 dd3d 12f3 0e3c

output_layer.weight f4 [10, 64]
-0.07696609 0.01854672 -0.17612018 0.02034094 -0.018632947 0.0344501 -0.10427142 0.036556903
-0.18945614 0.14849024 0.030605402 -0.037609298 0.13123596 0.046208005 0.0011939852 0.027170127
-0.022227881 -0.05852573 0.13262182 -0.109968916 -0.105404705 -0.12955895 -0.09522382 -0.27461278
0.13519432 0.087930255 0.14621624 -0.066261575 -0.12960452 0.032825835 -0.20955881 0.070276245
-0.14011863 0.08874188 -0.15041062 -0.10917404 -0.11137859 0.14070833 -0.058160726 -0.15412189
-0.15744278 -0.13461961 0.063459545 -0.23935813 0.02313774 0.061255977 -0.07999839 0.05929651
-0.13472115 0.14981134 -0.11971386 -0.13034637 0.08552943 0.1724976 -0.07930706 -0.20258507
-0.04265291 0.08956961 0.09940209 -0.12891354 -0.18819574 0.030618379 -0.048439298 0.11654918
-0.187231 0.025726939 -0.05385071 0.06978468 -0.24628022 -0.05622894 -0.056197803 0.01114701
-0.063194275 0.07864619 -0.10790502 0.055454068 -0.14509186 -0.10118282 -0.07381487 -0.19357778
-0.026491487 0.01961942 0.0693126 -0.111054644 0.009975085 -0.11344712 0.05861947 -0.020098444
-0.17935479 0.17017502 0.13283074 0.09175868 0.19126958 0.10755774 0.017807325 -0.10364314
-0.19244385 -0.054873943 0.04474563 -0.062547594 0.1101089 0.14942327 0.1916589 0.103869826
-0.14703518 0.10491961 0.15507373 -0.1972717 -0.109812655 0.17776394 0.04722533 -0.2112713
-0.017238976 -0.21915212 -0.18770833 0.09985567 -0.1328461 -0.18834624 -0.26375097 -0.16861643
-0.19850197 -0.027878374 0.16493739 -0.041922282 0.16225554 0.14463195 -0.19250529 -0.23641863
-0.05286226 -0.026369184 0.13308425 -0.14729378 0.020571847 -0.09817451 0.051488988 -0.10060764
-0.07798438 -0.14562307 -0.15544671 -0.12030909 0.035099115 0.07399339 0.16258664 0.052820493
0.04322701 0.0073869857 0.020407675 -0.15489759 -0.091327764 -0.21856935 0.11942291 -0.22728609
-0.25920537 -0.10763039 -0.14582323 0.040268093 -0.16287428 -0.039875995 -0.12707408 0.081192344
-0.20065305 0.114529006 -0.21047783 -0.057722993 0.09889351 -0.17873466 -0.08364897 0.11358638
-0.11760518 0.07721189 -0.1702343 -0.13470797 -0.12325791 0.16727296 -0.13761127 0.011438888
0.10936153 0.050201155 0.1845477 -0.009849458 -0.17734687 -0.22723025 -0.028999848 -0.11868719
0.052417584 0.15184376 -0.009673875 -0.1141139 -0.14569166 0.18470173 -0.02530064 -0.006532128
0.065291286 0.12569964 -0.18844917 0.048122503 0.027846301 0.054507177 0.06788304 -0.13614371
-0.16902542 -0.17044437 -0.011951462 -0.14473161 -0.062204227 0.0017262126 -0.24784023 0.051680256
0.06422872 0.056982115 0.076221354 -0.09730113 0.04628839 -0.09554629 -0.12183271 -0.1727748
0.14791094 -0.11451778 -0.056538604 -0.07581836 -0.18707663 -0.1078327 -0.14282152 0.153483
-0.13209079 -0.16449264 0.030759314 -0.20135519 0.10845006 -0.11805019 -0.1546992 -0.028567903
-0.13382389 0.13135213 0.0039162734 0.04069252 0.058358967 -0.05701726 0.07248696 -0.062421173
0.02769214 -0.06915862 -0.14044522 0.019764723 0.18800008 0.035612836 -0.026716717 0.16202703
0.08007742 -0.02753179 -0.15787219 -0.14522877 0.02502106 0.022374079 0.101121984 -0.19150648
00000000: 66a0 9dbd 4aef 973c d958 34be 0ba2 a63c
00000010: 1fa4 98bc 8c1b 0d3d 418c d5bd b1bc 153d
00000020: ca00 42be d30d 183e 2eb8 fa3c 350c 1abd
00000030: b862 063e 9b44 3d3d 7f7f 9c3a e393 de3c
00000040: 3f17 b6bc adb8 6fbd 04ce 073e 6237 e1bd
00000050: 6cde d7bd 1aab 04be b504 c3bd 0c9a 8cbe
00000060: 6170 0a3e c714 b43d b6b9 153e 26b4 87bd
00000070: 0cb7 04be 6274 063d 9696 56be feec 8f3d
00000080: 427b 0fbe 4ebe b53d 3e05 1abe a496 dfbd
00000090: 751a e4bd d815 103e f139 6ebd 21d2 1dbe
000000a0: ae38 21be b9d9 09be 14f7 813d 4c1a 75be
000000b0: 5c8b bd3c 8ce7 7a3d 32d6 a3bd e6e0 723d
000000c0: 57f4 09be 2568 193e 8a2c f5bd 8579 05be
000000d0: 0e2a af3d 36a3 303e bd6b a2bd 7672 4fbe
000000e0: d1b4 2ebd 4670 b73d 5393 cb3d e901 04be
000000f0: 62b6 40be 65d3 fa3c 4968 46bd 56b1 ee3d
00000100: 7cb9 3fbe 4dc1 d23c 9092 5cbd 45eb 8e3d
00000110: e230 7cbe 5150 66bd ab2f 66bd f3a1 363c
00000120: 006c 81bd 4111 a13d 4ffd dcbd ce23 633d
00000130: f692 14be f038 cfbd 402c 97bd 4139 46be
00000140: ad04 d9bc e8b8 a03c c4f3 8d3d 9e70 e3bd
00000150: 8a6e 233c f756 e8bd f81a 703d 7ea5 a4bc
00000160: c8a8 37be 5c42 2e3e c804 083e faeb bb3d
00000170: 2cdc 433e 3b47 dc3d abe0 913c db42 d4bd
00000180: 0010 45be 80c3 60bd 3247 373d f418 80bd
00000190: c680 e13d 6a02 193e 3b42 443e b4b9 d43d
000001a0: 6490 16be 18e0 d63d a6cb 1e3e 9801 4abe
000001b0: 75e5 e0bd c007 363e 596f 413d 8157 58be
000001c0: c138 8dbc 6a69 60be 9d36 40be 2181 cc3d
000001d0: cf08 08be d6dd 40be 5e0a 87be c9a9 2cbe
000001e0: 1a44 4bbe 3061 e4bc 59e5 283e b3b6 2bbd
000001f0: 5126 263e 661a 143e 1b20 45be ba17 72be
00000200: 1986 58bd 3004 d8bc 3d47 083e 2ed4 16be
00000210: 4a86 a83c b80f c9bd 1ee6 523d 610b cebd
00000220: 46b6 9fbd 371e 15be 6c2d 1fbe 9d64 f6bd
00000230: 17c4 0f3d d989 973d 1d7d 263e 4d5a 583d
00000240: ce0e 313d 870e f23b ff2d a73c 799d 1ebe
00000250: 0d0a bbbd a5d0 5fbe 0094 f43d afbd 68be
00000260: 91b6 84be 526d dcbd af52 15be 28f0 243d
00000270: 84c8 26be 0355 23bd b51f 02be 2c48 a63d
00000280: fe77 4dbe 2f8e ea3d 8087 57be f26e 6cbd
00000290: ae88 ca3d 3806 37be 2750 abbd fa9f e83d
000002a0: fcda f0bd 4421 9e3d e651 2ebe e3f0 09be
000002b0: a56e fcbd 9a49 2b3e f8e9 0cbe 2c6a 3b3c
000002c0: f0f8 df3d ba9f 4d3d 13fa 3c3e 9f5f 21bc
000002d0: 6b9a 35be 0caf 68be 1791 edbc 4512 f3bd
000002e0: d2b3 563d ee7c 1b3e 2c7f 1ebc 8cb4 e9bd
000002f0: 3230 15be 7322 3d3e 4a43 cfbc 760b d6bb
00000300: 70b7 853d 68b7 003e d2f8 40be 1a1c 453d
00000310: ed1d e43c eb42 5f3d 4306 8b3d 4269 0bbe
00000320: 0015 2dbe f888 2ebe 11d0 43bc 8634 14be
00000330: dcc9 7ebd 1542 e23a d4c9 7dbe adae 533d
00000340: 598a 833d 1466 693d f119 9c3d d145 c7bd
00000350: e598 3d3d c6ad c3bd 6e83 f9bd e1eb 30be
00000360: f775 173e 4c88 eabd 0695 67bd a846 9bbd
00000370: 0491 3fbe 64d7 dcbd ce3f 12be a62a 1d3e
00000380: cf42 07be c270 28be f5fa fb3c 0e30 4ebe
00000390: 111b de3d 4cc4 f1bd 7869 1ebe 3c07 eabc
000003a0: 2109 09be 2c81 063e 1554 803b 33ad 263d
000003b0: d009 6f3d ee8a 69bd 0b74 943d 58ad 7fbd
000003c0: a0da e23c 09a3 8dbd dfd0 0fbe a1e9 a13c
000003d0: 1883 403e c4de 113d 04dd dabc 6aea 253e
000003e0: a1ff a33d 598a e1bc 3fa9 21be dab6 14be
000003f0: f7f8 cc3c d849 b73c 0b19 cf3d 461a 44be

output_layer.bias f4 [10]
-0.10402449 0.08689317 0.09188117 -0.014709447 0.03045239 -0.06597013 -0.04640947 0.02356595
0.05818737 -0.12285873
00000000: cb0a d5bd 0cf5 b13d 322c bc3d e4ff 70bc
00000010: 4a77 f93c 591b 87bd db17 3ebd 610d c13c
00000020: e155 6e3d 5c9d fbbd
