Eval_Models/ANN/best_model_1.pth (torch, 453765 bytes, 10 tensors)

normalize.weight f4 [784]
0	0x3f74faa2	0.95694935
1	0x3f77d67c	0.9681165
2	0x3f909bb5	1.1297518
3	0x3f8361dd	1.026424
4	0x3f7e119d	0.99245626
5	0x3f8641c3	1.0488819
6	0x3f8f1227	1.1177415
7	0x3f88cdfa	1.0687859
8	0x3f8be31e	1.0928686
9	0x3f911796	1.1335323
10	0x3f9fee04	1.2494512
11	0x3fa0c2c3	1.2559437
12	0x3f998010	1.1992207
13	0x3f9a8052	1.207041
14	0x3f9e6979	1.2375938
15	0x3f97d3ff	1.1861571
16	0x3f91ada3	1.1381115
17	0x3f9e993d	1.2390515
18	0x3f964feb	1.1743139
19	0x3f978cac	1.1839805
20	0x3f93eac9	1.1556026
21	0x3f89a4d2	1.0753424
22	0x3f8a8d73	1.0824417
23	0x3f739f91	0.95165354
24	0x3f78ccb6	0.97187364
25	0x3f870d62	1.0550959
26	0x3f842d4b	1.0326322
27	0x3f6df5d1	0.9295321
28	0x3f7f2d74	0.9967873
29	0x3f7ae58f	0.9800653
30	0x3f6e4616	0.9307569
31	0x3f85db7d	1.0457608
32	0x3f899c32	1.0750792
33	0x3f879f27	1.0595444
34	0x3f87b27f	1.0601348
35	0x3f89582e	1.0730035
36	0x3f904282	1.1270297
37	0x3fa36d9c	1.2767825
38	0x3faae4a0	1.3351021
39	0x3f99d398	1.2017698
40	0x3f7e5f22	0.9936391
41	0x3f810c1e	1.0081823
42	0x3f88098d	1.0627915
43	0x3f7d2373	0.98882216
44	0x3f9babab	1.2161764
45	0x3fafeb03	1.3743595
46	0x3faaa638	1.3331976
47	0x3f9346cc	1.150598
48	0x3f8e6c1d	1.1126744
49	0x3f8b674e	1.0890901
50	0x3f86507b	1.0493311
51	0x3f872e53	1.0561012
52	0x3f7cc4a1	0.9873753
53	0x3f902980	1.1262665
54	0x3f73ee63	0.95285624
55	0x3f838b1d	1.0276829
56	0x3f7fef85	0.9997485
57	0x3f807772	1.0036452
58	0x3f72d1dd	0.94851476
59	0x3f8548cf	1.0412844
60	0x3f6a5c7b	0.91547364
61	0x3f88c7c7	1.0685967
62	0x3f905e01	1.1278688
63	0x3f971c2b	1.1805471
64	0x3f864d8b	1.0492414
65	0x3f82fa88	1.0232706
66	0x3f7a0fbb	0.9768025
67	0x3f5086d3	0.81455725
68	0x3f795809	0.97399956
69	0x3f8f936b	1.1216863
70	0x3fa136a6	1.2594802
71	0x3f92ce09	1.1469127
72	0x3f6af1cc	0.917752
73	0x3f6e6af8	0.9313197
74	0x3f5d3110	0.8640299
75	0x3f865062	1.0493281
76	0x3f92e2f4	1.1475511
77	0x3f918de8	1.1371431
78	0x3f86c070	1.0527477
79	0x3f7e0490	0.9922571
80	0x3f85bdd5	1.0448557
81	0x3f8ba987	1.0911111
82	0x3f7a2c63	0.9772398
83	0x3f838232	1.0274107
84	0x3f87b742	1.0602801
85	0x3f740a2f	0.9532804
86	0x3f83b902	1.0290835
87	0x3f7827de	0.9693583
88	0x3f822f61	1.0170709
89	0x3f858505	1.0431219
90	0x3f8df900	1.1091614
91	0x3f9b2c8b	1.2122968
92	0x3f9133cd	1.1343933
93	0x3f75058b	0.9571158
94	0x3f7392d2	0.95145905
95	0x3f71bc76	0.94428194
96	0x3f71d667	0.94467777
97	0x3f8f2aa8	1.1184893
98	0x3f9746fe	1.181854
99	0x3f8ac5a2	1.0841563
100	0x3f5dc9db	0.8663613
101	0x3f622c40	0.8834877
102	0x3f4dbabb	0.80363053
103	0x3f89bbf2	1.0760481
104	0x3f908840	1.129158
105	0x3f91e9b2	1.1399443
106	0x3f8e8fb9	1.1137611
107	0x3f89be70	1.0761242
108	0x3f799703	0.9749605
109	0x3f916200	1.1358032
110	0x3f74e94a	0.9566847
111	0x3f72c57d	0.94832593
112	0x3f7b2d89	0.98116356
113	0x3f7d7f4c	0.99022365
114	0x3f7d5040	0.98950577
115	0x3f8179ef	1.0115336
116	0x3f863b3d	1.0486828
117	0x3f8769b2	1.0579131
118	0x3f94d0e5	1.162625
119	0x3f91569b	1.1354555
120	0x3f7fb0a0	0.99878883
121	0x3f682977	0.9068827
122	0x3f77f0dc	0.968519
123	0x3f810a62	1.0081294
124	0x3f803398	1.0015745
125	0x3f8f1362	1.117779
126	0x3f9cd76a	1.2253239
127	0x3f863250	1.0484104
128	0x3f7c952b	0.9866511
129	0x3f76fc9b	0.96479195
130	0x3f63e77e	0.89025104
131	0x3f4a8a9b	0.79117745
132	0x3f882415	1.0636011
133	0x3f8e1e60	1.110302
134	0x3f8e706e	1.1128061
135	0x3f9329eb	1.1497167
136	0x3f8ae5b2	1.0851347
137	0x3f7f4199	0.9970947
138	0x3f831d54	1.0243325
139	0x3f70d01c	0.9406755
140	0x3f86526c	1.0493903
141	0x3f8685e8	1.0509615
142	0x3f71a24f	0.9438829
143	0x3f80048a	1.0001385
144	0x3f8ebdff	1.1151732
145	0x3f87619b	1.0576662
146	0x3f8896ac	1.0670981
147	0x3f852fee	1.0405252
148	0x3f59e6d4	0.8511784
149	0x3f62591e	0.8841723
150	0x3f6d63d4	0.9273045
151	0x3f76f99e	0.96474636
152	0x3f6bf9df	0.9217815
153	0x3f8ce6da	1.100795
154	0x3f94738d	1.1597763
155	0x3f7459b9	0.95449406
156	0x3f7eb2db	0.9949166
157	0x3f6a12c1	0.91434866
158	0x3f65d569	0.89778763
159	0x3f5c0497	0.85944504
160	0x3f8319c8	1.0242243
161	0x3f88091c	1.062778
162	0x3f8af123	1.0854839
163	0x3f8dbb94	1.1072869
164	0x3f956e5b	1.1674303
165	0x3f887a08	1.0662241
166	0x3f811d5e	1.0087087
167	0x3f757dd0	0.958951
168	0x3f815ea3	1.0107006
169	0x3f734599	0.9502807
170	0x3f7603fc	0.9609983
171	0x3f862c0b	1.0482191
172	0x3f893db1	1.0721952
173	0x3f90b87b	1.1306299
174	0x3f755254	0.9582875
175	0x3f80946c	1.0045295
176	0x3f64e8be	0.89417636
177	0x3f6f4e00	0.93478394
178	0x3f725699	0.9466339
179	0x3f679c77	0.9047312
180	0x3f71aa89	0.9440084
181	0x3f86da94	1.0535455
182	0x3f920b64	1.1409726
183	0x3f80d6f4	1.0065598
184	0x3f7e2e57	0.9928946
185	0x3f7db278	0.99100447
186	0x3f87eeac	1.0619712
187	0x3f777a70	0.966712
188	0x3f6a0d5a	0.9142662
189	0x3f84b6ba	1.0368264
190	0x3f8d3d13	1.1034263
191	0x3f8d0db1	1.1019803
192	0x3f8ca261	1.0987054
193	0x3f95bd59	1.1698409
194	0x3f96edd4	1.1791329
195	0x3f89b7ef	1.0759257
196	0x3f85ecab	1.046285
197	0x3f84fa8d	1.0388962
198	0x3f78e2ea	0.97221243
199	0x3f85cb6c	1.0452704
200	0x3f892f6e	1.0717599
201	0x3f8ca69e	1.0988348
202	0x3f73f596	0.9529661
203	0x3f79deef	0.97605795
204	0x3f8d9919	1.1062347
205	0x3f745430	0.9544096
206	0x3f601d54	0.8754475
207	0x3f77d967	0.96816105
208	0x3f7cadb8	0.98702574
209	0x3f85edd9	1.046321
210	0x3f8e7d6f	1.1132029
211	0x3f8199df	1.0125083
212	0x3f7bec4f	0.98407453
213	0x3f80cceb	1.0062536
214	0x3f8e67b8	1.1125402
215	0x3f8b442e	1.0880182
216	0x3f5ed523	0.8704397
217	0x3f82b66e	1.0211923
218	0x3f8722be	1.0557477
219	0x3f892637	1.0714787
220	0x3f86bbcb	1.052606
221	0x3f90e85a	1.1320908
222	0x3f975db8	1.1825476
223	0x3f8217ee	1.0163553
224	0x3f8e88d2	1.1135504
225	0x3f825b99	1.0184203
226	0x3f7ab238	0.9792819
227	0x3f838460	1.0274773
228	0x3f83a41c	1.0284457
229	0x3f89a8d4	1.0754647
230	0x3f7337e0	0.95007133
231	0x3f84fc9f	1.0389594
232	0x3f9e7c58	1.2381697
233	0x3f7fa520	0.99861336
234	0x3f830b15	1.0237757
235	0x3f763654	0.9617665
236	0x3f75c559	0.96004254
237	0x3f870bf1	1.0550519
238	0x3f8d8b18	1.1058073
239	0x3f8d4519	1.1036712
240	0x3f838122	1.0273783
241	0x3f8b10d4	1.086451
242	0x3f867612	1.0504782
243	0x3f85459a	1.0411866
244	0x3f6dc177	0.9287333
245	0x3f7656c7	0.9622616
246	0x3f82fa15	1.0232569
247	0x3f8b312b	1.087438
248	0x3f8729b7	1.0559605
249	0x3f8795b4	1.0592561
250	0x3f858154	1.0430093
251	0x3f7a9298	0.97879934
252	0x3f8d1c79	1.1024314
253	0x3f8593b0	1.0435696
254	0x3f817c4d	1.0116059
255	0x3f85fd4e	1.0467927

normalize.bias f4 [784]
0	0x3d1a90db	0.0377358
1	0x3c9a9204	0.018868454
2	0x3c05255e	0.008126585
3	0x3cbdee52	0.023184929
4	0x3d1f5842	0.03890253
5	0x3d775f75	0.06039377
6	0x3d62899a	0.05530701
7	0x3d9e6deb	0.07735809
8	0x3d9c461a	0.07630558
9	0x3d2ab014	0.041671827
10	0x3cad92c3	0.021188146
11	0x3cc88399	0.024476813
12	0x3ca82654	0.020526089
13	0xbc12c671	-0.008958445
14	0xbb25a482	-0.0025275056
15	0xbb8854d5	-0.0041605034
16	0x3c99a665	0.0187561
17	0x3c47aca4	0.012187157
18	0x3c2a1936	0.010381987
19	0x3b70c491	0.0036738256
20	0x3cfbe246	0.030747544
21	0xbb25dbd5	-0.0025308032
22	0xbcdfe2a3	-0.027329748
23	0x3d15e9d3	0.036599945
24	0x3d24f52a	0.04027287
25	0x3cdf0842	0.027225617
26	0x3c7eb3c7	0.015545792
27	0x3d0584cc	0.032597348
28	0xbc829193	-0.015938556
29	0xbb448ba4	-0.002999046
30	0x3c78b651	0.015180186
31	0x3d01ea5f	0.031717654
32	0x3c9625f6	0.018328648
33	0x3d68c04b	0.05682401
34	0x3d6f15ca	0.05837039
35	0x3d7fe190	0.062470973
36	0x3d64b1ea	0.055833735
37	0x3d3db057	0.04631075
38	0x3d379957	0.04482397
39	0x3d0ea765	0.03482761
40	0x3d1aac82	0.037762173
41	0x3d1c53c5	0.038165826
42	0x3d18e0c3	0.037323724
43	0x3c118fe7	0.008884407
44	0xbafbb602	-0.0019204023
45	0xbc19d65e	-0.009389488
46	0x3d35f479	0.0444226
47	0x3d071b6f	0.032985147
48	0x3cf70d15	0.030157605
49	0x3c055950	0.00813897
50	0xbc7fe039	-0.015617424
51	0xbc70b4be	-0.01469153
52	0x3b2c3e6c	0.0026282324
53	0xbb17fa3e	-0.0023189927
54	0x3b5c2210	0.0033589639
55	0x3cbe49af	0.023228494
56	0x3b67ae0b	0.003535154
57	0x3c667caf	0.014067813
58	0x3ca9f507	0.020746721
59	0x3b5f9359	0.0034114926
60	0x3d9692a8	0.07352191
61	0x3db2b06c	0.08725056
62	0x3d8d8030	0.069092155
63	0x3d5f8ab9	0.054575656
64	0x3d119bc9	0.03554896
65	0x3d23647e	0.03989076
66	0x3d33e346	0.043917917
67	0x3cbabe6e	0.022795882
68	0x3b5b5ef3	0.0033473342
69	0xbc04b948	-0.008100815
70	0x3a7bdc58	0.0009607724
71	0x3c3a0869	0.011354544
72	0x3c20d51c	0.009816434
73	0x3d113f3e	0.035460703
74	0x3d8b975e	0.068159804
75	0x3cb9e038	0.022689924
76	0x3c774b87	0.015093691
77	0x3ccbe896	0.024891179
78	0x3c2c1fd3	0.010505634
79	0x3d258d49	0.040417943
80	0x3b6e7b34	0.0036389353
81	0x3d12e0f1	0.035859052
82	0xb9ff8c62	-0.00048741983
83	0x3d516d64	0.051129714
84	0x3c5e6112	0.013572948
85	0x3d394423	0.045230996
86	0x3cfa1952	0.030529652
87	0x3d1afe92	0.037840433
88	0x3d81b8e4	0.06334093
89	0x3d8fd182	0.07022382
90	0x3d45b578	0.048268765
91	0x3d2f45ee	0.0427913
92	0x3d15254f	0.036412533
93	0x3d31ce21	0.04340947
94	0x3d583944	0.052788988
95	0x3d61bfa0	0.05511439
96	0x3c8a9f58	0.016921684
97	0x3b6ebc02	0.003642798
98	0x3cc36e96	0.023856442
99	0x3c768231	0.0150456885
100	0x3c6fa096	0.014625689
101	0x3d0729b0	0.03299874
102	0x3d3c8b12	0.046031065
103	0x3c147ed4	0.009063441
104	0x3c3c7aee	0.011503918
105	0x3c92d5f6	0.01792429
106	0x3d1db3f6	0.038501702
107	0x3d451e53	0.048124623
108	0x3d2a3646	0.041555665
109	0x3d55944d	0.052143384
110	0x3cddd5f3	0.027079558
111	0x3d49e759	0.049292896
112	0x3cc53f14	0.02407793
113	0x3cfa035d	0.030519182
114	0x3c4a1ee0	0.012336463
115	0x3d8e2b93	0.06941905
116	0x3d6b9343	0.057513487
117	0x3d86b3af	0.06577241
118	0x3d5ff35b	0.05467544
119	0x3d172bf8	0.036907166
120	0x3d09bb9e	0.03362619
121	0x3d53b584	0.05168678
122	0x3d07806e	0.033081464
123	0x3d23830e	0.039919905
124	0xbb88f8a7	-0.0041800323
125	0xbc14d805	-0.009084706
126	0x3bd2e46c	0.0064359214
127	0xbc19230e	-0.009346737
128	0x3c25d001	0.010120393
129	0x3d223099	0.039597128
130	0x3c90a9a1	0.01765901
131	0x3d5134b6	0.05107566
132	0x3cc3d1d6	0.023903769
133	0x3c618687	0.013764984
134	0x3caf8c20	0.021429121
135	0x3c7d70b9	0.01546877
136	0x3c64a78a	0.01395596
137	0x3d22eb72	0.03977532
138	0x3cd598fa	0.026073921
139	0x3cce72e2	0.025201265
140	0x3d66555b	0.056233745
141	0x3d054c74	0.032543615
142	0x3d4863c8	0.048923284
143	0x3d9f4046	0.07775931
144	0x3d78c2ab	0.060732525
145	0x3d61cb8e	0.055125766
146	0x3d841957	0.06450146
147	0x3da866f0	0.08222759
148	0x3dbb265f	0.09138178
149	0x3dc23a75	0.09483806
150	0x3cee2351	0.029069575
151	0x3d328215	0.043581087
152	0xbbc1e1ef	-0.005916826
153	0x3c843033	0.016136264
154	0x3c88ece9	0.01671453
155	0x3c823fbd	0.015899533
156	0x3cd792e7	0.026315166
157	0x3ce2f9f3	0.027707076
158	0x3d215384	0.039386287
159	0x3cbcb4ba	0.023035396
160	0x3cd7d38d	0.026345992
161	0x3cc0f5d7	0.023554726
162	0x3d1df083	0.038559448
163	0x3d05a9cb	0.03263263
164	0x3d701868	0.058617026
165	0x3d67c5c7	0.0565851
166	0x3d4cfc12	0.05004508
167	0x3cb66eab	0.022269567
168	0x3d20fedc	0.039305553
169	0x3d07a098	0.03311214
170	0x3d9ba4a3	0.07599761
171	0x3d8f26ed	0.069898464
172	0x3d55d176	0.05220171
173	0x3d827a29	0.063709565
174	0x3d513c9b	0.05108319
175	0x3d8b56da	0.06803675
176	0x3d964737	0.07337802
177	0x3d426c2a	0.047466435
178	0x3d4f7ddd	0.050657142
179	0x3d2b18d8	0.04177174
180	0x3d1e3548	0.03862503
181	0x3b214ab1	0.002461117
182	0xba0e0cae	-0.00054187595
183	0x3be65098	0.0070286505
184	0x3d089d10	0.03335291
185	0x3d0bc1cb	0.034120362
186	0x3c37a15a	0.011207903
187	0x3d01a93b	0.03165553
188	0x3d5923c4	0.053012624
189	0x3c005d30	0.007834718
190	0x3ce66f1c	0.028129153
191	0x3cd19b37	0.025586708
192	0x3d00d9fa	0.03145788
193	0x3ce208d4	0.0275921
194	0x3d1ac59f	0.037786122
195	0x3ca2f84c	0.019893788
196	0x3d458997	0.04822692
197	0x3d5ffcc1	0.054684404
198	0x3d86f8c7	0.06590419
199	0x3d822afb	0.06355854
200	0x3d8cad6a	0.068690136
201	0x3d5745cc	0.052556798
202	0x3d9a0413	0.07520308
203	0x3d89ae19	0.067226596
204	0x3d8d0e9a	0.06887551
205	0x3d26b84b	0.0407031
206	0x3d52b8d2	0.05144579
207	0x3d700469	0.058597956
208	0x3d1331a3	0.03593601
209	0x3c3aaff5	0.0113944905
210	0xbc490f13	-0.01227166
211	0x3ca8d42d	0.020608986
212	0x3c8cc6c4	0.017184623
213	0x3c7db81d	0.015485791
214	0x3cc723e1	0.0243091
215	0x3c70cb2d	0.014696878
216	0xbb9f8d4c	-0.004869139
217	0x3cb86a09	0.022511499
218	0x3bd4992d	0.0064879865
219	0x3bdc4d2d	0.0067230673
220	0x3b87d034	0.004144693
221	0x3d248674	0.040167287
222	0x3c88fa14	0.016720809
223	0x3d43fe4d	0.047849942
224	0x3d84ee87	0.06490808
225	0x3d4f46b2	0.05060453
226	0x3d886f08	0.066618025
227	0x3d85a583	0.065257095
228	0x3d50248f	0.050816115
229	0x3d3a9d11	0.045559946
230	0x3d8d6c74	0.069054514
231	0x3d256174	0.04037614
232	0x3d274535	0.040837485
233	0x3d326400	0.0435524
234	0x3d449490	0.047993243
235	0x3d8807e0	0.06642127
236	0x3ca54c60	0.02017802
237	0x3c96a3b3	0.018388605
238	0x3cb322b7	0.02186714
239	0x3c591f9d	0.013252166
240	0x3befe8cc	0.0073214527
241	0x3cbf59dc	0.023358278
242	0x3c143cb9	0.009047681
243	0x3cb84fef	0.022499053
244	0x3cef3c1a	0.029203463
245	0x3c88a90d	0.016682172
246	0x3d15e1cb	0.036592286
247	0x3ca88e5e	0.020575698
248	0x3cf7587e	0.030193564
249	0x3d1db69a	0.03850422
250	0x3d31d321	0.04341424
251	0x3b04bbb4	0.0020253481
252	0x3d980d0c	0.074243635
253	0x3db0e264	0.086369306
254	0x3db53c18	0.088493526
255	0x3da58d91	0.08083642

normalize.running_mean f4 [784]
0	0xbf7ffffc	-0.99999976
1	0xbf7ffff5	-0.99999934
2	0xbf7ff6ca	-0.99985945
3	0xbf7fc9c1	-0.9991723
4	0xbf7f298f	-0.9967279
5	0xbf7f0339	-0.9961429
6	0xbf7dfe1e	-0.9921588
7	0xbf7b4093	-0.9814541
8	0xbf73edd1	-0.95284754
9	0xbf61497c	-0.88002753
10	0xbf3621cd	-0.71145326
11	0xbf1a3d4f	-0.602498
12	0xbf115c6e	-0.5678166
13	0xbf1641f2	-0.58694375
14	0xbf16e5c2	-0.5894433
15	0xbf1058d3	-0.56385535
16	0xbf15d50b	-0.585282
17	0xbf2478f8	-0.64247084
18	0xbf442900	-0.7662506
19	0xbf6a345a	-0.9148613
20	0xbf76c495	-0.9639371
21	0xbf7a9191	-0.97878367
22	0xbf7caa1b	-0.9869706
23	0xbf7cd684	-0.98764825
24	0xbf7ec44d	-0.9951828
25	0xbf7f2eb7	-0.99680656
26	0xbf7fac53	-0.9987232
27	0xbf7ffe1f	-0.99997133
28	0xbf7ffec1	-0.999981
29	0xbf7ffecf	-0.9999818
30	0xbf7fef58	-0.99974585
31	0xbf7ef100	-0.99586487
32	0xbf7dd8db	-0.9915902
33	0xbf7bbc15	-0.98333865
34	0xbf71164d	-0.94174653
35	0xbf5caa92	-0.8619777
36	0xbf42e527	-0.7613091
37	0xbf154958	-0.5831504
38	0xbeaddc4a	-0.3395713
39	0xbe3e8b71	-0.1860788
40	0xbdd020f4	-0.10162535
41	0xbddbc739	-0.10731358
42	0xbe0acebc	-0.13555425
43	0xbda76a68	-0.08174592
44	0xbdf1835e	-0.117926344
45	0xbe8563bc	-0.26052654
46	0xbed2ae76	-0.41148728
47	0xbf25014a	-0.6445509
48	0xbf4c1391	-0.79717356
49	0xbf64d1c7	-0.89382595
50	0xbf7355e8	-0.9505296
51	0xbf77eade	-0.96842754
52	0xbf7c0b7e	-0.98455036
53	0xbf7dc1aa	-0.9912363
54	0xbf7efb03	-0.99601763
55	0xbf7f89c9	-0.9981962
56	0xbf7ffb93	-0.99993247
57	0xbf7ffa81	-0.99991614
58	0xbf7f7892	-0.9979335
59	0xbf7dba0e	-0.9911202
60	0xbf7aa5cf	-0.97909254
61	0xbf6e3069	-0.9304262
62	0xbf51c91e	-0.81947505
63	0xbf3bee3c	-0.7341039
64	0xbf1fe497	-0.62458175
65	0xbede5600	-0.43424988
66	0xbe83d2f4	-0.25746882
67	0xbe510676	-0.20412621
68	0xbe257a66	-0.16159973
69	0xbe233da6	-0.15941486
70	0xbe2787d9	-0.16360416
71	0xbe10559a	-0.14095154
72	0xbe2f1ba7	-0.17100392
73	0xbe6208f0	-0.22073722
74	0xbe961be8	-0.29318166
75	0xbf0350b1	-0.51295
76	0xbf27bfec	-0.65527225
77	0xbf3e3a19	-0.743074
78	0xbf589890	-0.8460779
79	0xbf6d76bf	-0.9275932
80	0xbf74ee32	-0.9567596
81	0xbf7a8653	-0.9786121
82	0xbf7d93ac	-0.99053454
83	0xbf7f2ff9	-0.99682575
84	0xbf7fbaa1	-0.9989415
85	0xbf7fbe35	-0.9989961
86	0xbf7f1f26	-0.99656904
87	0xbf7c0e7e	-0.98459613
88	0xbf748173	-0.95510024
89	0xbf5b1106	-0.8557285
90	0xbf3c1b6f	-0.7347936
91	0xbf231270	-0.6370001
92	0xbf06d54c	-0.52669215
93	0xbeab78b1	-0.33490518
94	0xbe5bf566	-0.21480331
95	0xbe4393cb	-0.19099347
96	0xbe2350e9	-0.15948834
97	0xbe21688b	-0.15762536
98	0xbe168791	-0.14700152
99	0xbe068054	-0.13134891
100	0xbe20f4a3	-0.15718322
101	0xbe3d6ae7	-0.18497811
102	0xbe514194	-0.20435172
103	0xbec29556	-0.3800456
104	0xbf0b9f3d	-0.54539853
105	0xbf259f37	-0.6469607
106	0xbf3eaaaf	-0.7447919
107	0xbf5c8899	-0.8614593
108	0xbf6d063b	-0.9258763
109	0xbf764c60	-0.9621029
110	0xbf7c3c16	-0.98529184
111	0xbf7f063c	-0.9961889
112	0xbf7fdebd	-0.99949247
113	0xbf7f286e	-0.99671066
114	0xbf7e39c9	-0.99306923
115	0xbf78dc89	-0.9721151
116	0xbf6b384b	-0.9188277
117	0xbf49443b	-0.78619736
118	0xbf263978	-0.6493144
119	0xbf0d7d92	-0.5526973
120	0xbeee7c6a	-0.46579295
121	0xbe9b0375	-0.30276075
122	0xbe4ed8f6	-0.20199952
123	0xbe479e66	-0.19494018
124	0xbe2e38df	-0.17013882
125	0xbe2419f0	-0.1602552
126	0xbe11d26f	-0.1424043
127	0xbe03add3	-0.12859277
128	0xbdf76548	-0.12079865
129	0xbe0e9d70	-0.13927245
130	0xbe21c5b1	-0.1579807
131	0xbe95d39e	-0.29263014
132	0xbee39c84	-0.4445535
133	0xbf099d0d	-0.53755265
134	0xbf27d3da	-0.65557635
135	0xbf49fc58	-0.7890067
136	0xbf619dac	-0.88131213
137	0xbf6f16ef	-0.9339437
138	0xbf78320e	-0.9695138
139	0xbf7e2147	-0.9926953
140	0xbf7fe00e	-0.99951255
141	0xbf7e48b9	-0.99329716
142	0xbf7b6f89	-0.98217064
143	0xbf745870	-0.95447445
144	0xbf624df1	-0.8840018
145	0xbf372291	-0.7153712
146	0xbf1476ec	-0.5799396
147	0xbf004467	-0.50104374
148	0xbeda9f23	-0.42699537
149	0xbe8acd21	-0.27109626
150	0xbe450899	-0.19241561
151	0xbe3e35f6	-0.18575272
152	0xbe31243d	-0.1729898
153	0xbe1a3d58	-0.15062463
154	0xbdf57691	-0.11985505
155	0xbdd39d38	-0.103327215
156	0xbda78d45	-0.08181242
157	0xbdc20d05	-0.094751395
158	0xbdf25d3c	-0.11834189
159	0xbe676dae	-0.22600433
160	0xbec1b519	-0.3783348
161	0xbee7e987	-0.45295355
162	0xbf0f18f9	-0.5589748
163	0xbf36db19	-0.71428066
164	0xbf50a931	-0.81508166
165	0xbf64899e	-0.8927249
166	0xbf72aa79	-0.9479137
167	0xbf7c994e	-0.98671424
168	0xbf7f4831	-0.9971953
169	0xbf7c0324	-0.9844229
170	0xbf777cd6	-0.9667486
171	0xbf6cc7cf	-0.92492384
172	0xbf54bbcf	-0.83099073
173	0xbf27d425	-0.6555808
174	0xbf072e4e	-0.5280503
175	0xbee74fc7	-0.45178053
176	0xbec36a03	-0.38166818
177	0xbe7ae131	-0.24499966
178	0xbe34b7c6	-0.17648229
179	0xbe28e2e2	-0.16492799
180	0xbe1a4e48	-0.15068924
181	0xbdf878f2	-0.121324435
182	0xbdaac6a3	-0.08338668
183	0xbd75cac9	-0.060007844
184	0xbd16eeee	-0.036848955
185	0xbd2e0de7	-0.042493727
186	0xbd9a6626	-0.075390145
187	0xbe1f05ca	-0.15529552
188	0xbe997a9d	-0.2997636
189	0xbec282f8	-0.37990546
190	0xbef2e6f6	-0.47441834
191	0xbf23283d	-0.63733274
192	0xbf3f243c	-0.74664664
193	0xbf5792a3	-0.84208125
194	0xbf6a2ad1	-0.9147158
195	0xbf7b4843	-0.9815714
196	0xbf7e3148	-0.9929395
197	0xbf798b84	-0.9747851
198	0xbf754948	-0.95814943
199	0xbf696f4a	-0.9118544
200	0xbf4cddc7	-0.80025905
201	0xbf1d15f1	-0.61361605
202	0xbefc06cb	-0.49223933
203	0xbeda3777	-0.4262044
204	0xbeba4eaa	-0.3638814
205	0xbe6b16e2	-0.22957948
206	0xbe2b7fe9	-0.16748013
207	0xbe1c81d0	-0.15283895
208	0xbe0ea7d7	-0.13931213
209	0xbdeed686	-0.11662011
210	0xbd9ce34d	-0.07660542
211	0xbc06c8de	-0.008226601
212	0x3bc146e0	0.0058983415
213	0x3b7cbcc1	0.0038564655
214	0xbd363fcb	-0.04449443
215	0xbdf268dd	-0.11836407
216	0xbe6c1d30	-0.23058009
217	0xbe9c432b	-0.30519995
218	0xbecced2e	-0.40024704
219	0xbf0f754c	-0.56038356
220	0xbf311023	-0.6916525
221	0xbf487343	-0.78300875
222	0xbf63741d	-0.8884905
223	0xbf78df49	-0.97215706
224	0xbf7d2099	-0.98877865
225	0xbf79090d	-0.97279435
226	0xbf72d795	-0.948602
227	0xbf647cee	-0.8925313
228	0xbf45b0b2	-0.7722274
229	0xbf167fc3	-0.587887
230	0xbef10336	-0.47072762
231	0xbecc52a1	-0.3990679
232	0xbeabb09a	-0.33533174
233	0xbe665fde	-0.22497508
234	0xbe270fb1	-0.1631458
235	0xbe12116d	-0.1426446
236	0xbdf99ee9	-0.12188513
237	0xbdce0956	-0.100603744
238	0xbdbb90db	-0.09158488
239	0x3d5cdeec	0.053923532
240	0x3d8a8613	0.06763854
241	0x3d9f3198	0.07773131
242	0x3c06baac	0.008223217
243	0xbdaff931	-0.08592451
244	0xbe336e79	-0.1752261
245	0xbe7598a7	-0.23984013
246	0xbeab1c97	-0.3342025
247	0xbefdd092	-0.4957319
248	0xbf23ce62	-0.6398679
249	0xbf3b232d	-0.7310055
250	0xbf5c21bd	-0.8598898
251	0xbf78a27b	-0.97122926
252	0xbf7d6e03	-0.9899599
253	0xbf785a18	-0.9701247
254	0xbf71c519	-0.9444137
255	0xbf61bbd3	-0.8817722

normalize.running_var f4 [784]
0	0x3297ffc4	1.7695022e-08
1	0x32ae84be	2.031663e-08
2	0x36081692	2.0278717e-06
3	0x392549a1	0.00015763055
4	0x3a92f0e2	0.0011210705
5	0x3ab09366	0.0013471663
6	0x3b85bb5b	0.0040811724
7	0x3c61e3c8	0.013787217
8	0x3d20a4fd	0.039219845
9	0x3dc16b31	0.09444273
10	0x3e642d67	0.22282945
11	0x3e92ee1b	0.28697285
12	0x3e9831bf	0.29725453
13	0x3e9198fb	0.28437027
14	0x3e8fb0c2	0.28064543
15	0x3e9b3cf6	0.30319947
16	0x3e9424c1	0.2893429
17	0x3e87bf56	0.26513165
18	0x3e3b471c	0.18288845
19	0x3d7eb5f6	0.06218525
20	0x3d062b8a	0.032756366
21	0x3c9b51e8	0.018959954
22	0x3c352641	0.011056484
23	0x3c46b498	0.012128018
24	0x3bc5b013	0.0060329526
25	0x3b7d0965	0.0038610336
26	0x3a9a4227	0.0011768983
27	0x358a9ddd	1.0327745e-06
28	0x3503b496	4.906409e-07
29	0x3521c1f5	6.025942e-07
30	0x385edc92	5.3134347e-05
31	0x3b6452a5	0.00348393
32	0x3bd822dc	0.0065959524
33	0x3c634e8b	0.013873707
34	0x3d53b78a	0.05168871
35	0x3e14f255	0.14545567
36	0x3e825779	0.2545736
37	0x3ed1aacc	0.4095062
38	0x3f12597f	0.5716781
39	0x3f206b85	0.6266406
40	0x3f269609	0.65072685
41	0x3f26f741	0.6522103
42	0x3f21a5f8	0.63143873
43	0x3f25bb82	0.6473924
44	0x3f223691	0.6336451
45	0x3f1744a5	0.5908912
46	0x3f06c07a	0.52637446
47	0x3eb52020	0.35376072
48	0x3e566c1a	0.20939675
49	0x3ddccbfc	0.107810944
50	0x3d6117e1	0.054954413
51	0x3d18f6ec	0.037344858
52	0x3c8e8761	0.017398538
53	0x3c3ea34f	0.0116356155
54	0x3b91e378	0.004452165
55	0x3b0b6000	0.0021266937
56	0x35f0c061	1.7937383e-06
57	0x36a87c7f	5.0212834e-06
58	0x3a9c18e8	0.0011909278
59	0x3c325a3d	0.010885772
60	0x3cb9b8cc	0.022671126
61	0x3d8acfa9	0.06777889
62	0x3e47d6e5	0.1951557
63	0x3e91ecb2	0.28500897
64	0x3ebee62b	0.3728498
65	0x3ef27b6a	0.47359782
66	0x3f0f0ec7	0.55881923
67	0x3f0c9a3d	0.5492285
68	0x3f117e83	0.56833667
69	0x3f14d57c	0.5813825
70	0x3f14cb9a	0.5812317
71	0x3f115f86	0.5678638
72	0x3f0a051e	0.5391406
73	0x3f08d6b8	0.53452635
74	0x3f07ae47	0.530003
75	0x3ed78413	0.42092952
76	0x3eb4a1a2	0.35279566
77	0x3e921651	0.2853265
78	0x3e2b2285	0.16712387
79	0x3dafa519	0.08576412
80	0x3d614b1c	0.05500327
81	0x3ccdaf9d	0.025108153
82	0x3c2aa0da	0.010414327
83	0x3b240a72	0.002503064
84	0x3a7afa36	0.00095740275
85	0x3a1c40da	0.00059605914
86	0x3b1084d9	0.002205184
87	0x3c9007a4	0.017581768
88	0x3d3534b8	0.04423973
89	0x3e213334	0.15742189
90	0x3e91f59d	0.285077
91	0x3eb8071c	0.35942924
92	0x3ed9d3d9	0.4254444
93	0x3f0114d9	0.50422436
94	0x3f0d1e7b	0.55124635
95	0x3f0a69c3	0.5406763
96	0x3f0e8cf4	0.5568383
97	0x3f0f3105	0.5593417
98	0x3f1092fa	0.5647427
99	0x3f0df3ec	0.5545032
100	0x3f069d46	0.5258373
101	0x3f04732d	0.51738244
102	0x3f06773f	0.52525705
103	0x3eeb6be1	0.45980743
104	0x3ed44ab6	0.4146325
105	0x3ebafc0a	0.36520416
106	0x3e8e28e4	0.27765572
107	0x3e1e3aa6	0.1545206
108	0x3dc69e85	0.09698204
109	0x3d2f6294	0.04281862
110	0x3c875075	0.016517857
111	0x3b35b49e	0.0027726064
112	0x3925c053	0.00015807273
113	0x3b7f1ec3	0.0038928248
114	0x3bdb0224	0.006683605
115	0x3d000d37	0.031262603
116	0x3db83a4e	0.08995496
117	0x3e67eeb5	0.22649653
118	0x3eb8e43c	0.3611163
119	0x3ed65138	0.4185884
120	0x3eeaef11	0.45885518
121	0x3f02b55e	0.51057994
122	0x3f0cdf42	0.55028164
123	0x3f07702a	0.52905524
124	0x3f0e3313	0.55546683
125	0x3f0cdfac	0.55028796
126	0x3f0c17cc	0.5472381
127	0x3f09604e	0.53662574
128	0x3f019a86	0.5062641
129	0x3f022cc9	0.50849587
130	0x3f04579a	0.5169617
131	0x3ef7a585	0.4836847
132	0x3ef19e39	0.47191027
133	0x3eded166	0.43519133
134	0x3eb46a19	0.35237196
135	0x3e6a91b7	0.22907148
136	0x3e0ef66c	0.1396119
137	0x3da6c965	0.08143882
138	0x3d0f59ec	0.034997866
139	0x3bad7108	0.0052930154
140	0x39aa01a6	0.00032426155
141	0x3bc28f64	0.0059375037
142	0x3c96a814	0.018390693
143	0x3d4b0358	0.049563736
144	0x3e015961	0.12631752
145	0x3e9635e3	0.29337987
146	0x3ed240d4	0.41065085
147	0x3ee7676f	0.451961
148	0x3eef4493	0.46732005
149	0x3f02b588	0.51058245
150	0x3f08952c	0.5335262
151	0x3f010a37	0.5040621
152	0x3f06317f	0.52419275
153	0x3f07157d	0.52767164
154	0x3f078393	0.5293514
155	0x3f03459c	0.5127809
156	0x3ef8994f	0.48554465
157	0x3ef4e363	0.47829732
158	0x3eff5d18	0.49875712
159	0x3ef75904	0.483101
160	0x3efc892d	0.49323407
161	0x3ef8dc11	0.48605397
162	0x3ed85adb	0.42256817
163	0x3e9f6610	0.31132555
164	0x3e5af156	0.21381125
165	0x3e06333a	0.13105479
166	0x3d6c9726	0.057761334
167	0x3c3e8a87	0.011629707
168	0x3af95314	0.0019021952
169	0x3c87f20f	0.016594915
170	0x3d1c05eb	0.03809158
171	0x3dbd0b9c	0.0923073
172	0x3e3eac7b	0.18620484
173	0x3eb616ae	0.35564178
174	0x3eebe9e7	0.4607689
175	0x3efaa55d	0.48954287
176	0x3efd76a0	0.49504566
177	0x3f038b1f	0.51384157
178	0x3f04c0a2	0.51856434
179	0x3f013eb5	0.5048631
180	0x3f02e627	0.51132435
181	0x3f0548a0	0.5206394
182	0x3f06c5ca	0.5264555
183	0x3f000ab0	0.5001631
184	0x3eef834c	0.4677986
185	0x3ee9c3fc	0.45657337
186	0x3ef7eafb	0.48421463
187	0x3ef82b98	0.4847076
188	0x3f03ac6d	0.51434976
189	0x3f03099e	0.5118655
190	0x3eefb3b9	0.46816805
191	0x3ebbe1b8	0.36695647
192	0x3e9792e5	0.2960426
193	0x3e41107d	0.18853946
194	0x3dd0c47e	0.10193728
195	0x3c511aa2	0.012762697
196	0x3ba4f474	0.005034024
197	0x3d02282f	0.031776603
198	0x3d3e8763	0.046515834
199	0x3dd9e736	0.10639803
200	0x3e5dfd4e	0.2167866
201	0x3ec98708	0.39360833
202	0x3ef916a2	0.4865008
203	0x3f01b62b	0.5066859
204	0x3effbcfd	0.49948874
205	0x3f036d81	0.51338965
206	0x3f03d0db	0.51490563
207	0x3efde8e5	0.49591747
208	0x3f02023c	0.5078466
209	0x3f004513	0.501054
210	0x3ef8a702	0.48564917
211	0x3ef8b76c	0.4857744
212	0x3ee771f9	0.45204142
213	0x3eddcf08	0.43322015
214	0x3ee89594	0.4542662
215	0x3ef09a8a	0.46992904
216	0x3f072a53	0.52798957
217	0x3f0ad9ea	0.5423876
218	0x3f01ecca	0.50751936
219	0x3eda0286	0.4258005
220	0x3eb14430	0.34622335
221	0x3e834296	0.2563674
222	0x3e091b03	0.1338921
223	0x3cc233a4	0.023706265
224	0x3c18237e	0.009285806
225	0x3d06f664	0.03294982
226	0x3d69948b	0.057026427
227	0x3e09dff1	0.13464333
228	0x3e813331	0.25234368
229	0x3ed2ead3	0.41194782
230	0x3f0164c7	0.505444
231	0x3f0a3582	0.53987896
232	0x3f062939	0.5240665
233	0x3f03ea9f	0.5152988
234	0x3f02a969	0.5103975
235	0x3efcb578	0.493572
236	0x3f016a05	0.505524
237	0x3efb04e3	0.49027166
238	0x3ee8adf6	0.45445222
239	0x3ee81d60	0.4533491
240	0x3ed14101	0.40869907
241	0x3ecb2d31	0.39682916
242	0x3ee36a61	0.44417098
243	0x3ef4771e	0.4774713
244	0x3f0b61f0	0.54446316
245	0x3f0d4892	0.5518886
246	0x3f093338	0.5359378
247	0x3ee9b1e1	0.45643523
248	0x3ec4527d	0.38344184
249	0x3e9e36b2	0.30901104
250	0x3e2c4571	0.16823365
251	0x3cc06e85	0.0234902
252	0x3c0ee1b1	0.008720801
253	0x3d1552a0	0.03645575
254	0x3d860957	0.0654475
255	0x3e1406d1	0.14455725

fc1.weight f4 [128, 784]
0	0xbdfb0559	-0.12256879
1	0x3d69db64	0.057093993
2	0x3d72600d	0.059173632
3	0xbc9f782b	-0.01946648
4	0xbe09ecb5	-0.13469203
5	0xba8c547c	-0.0010706331
6	0xbd009cd2	-0.031399556
7	0xbcfc9bf7	-0.030836089
8	0xbd54620a	-0.05185131
9	0x3d4e9260	0.050432563
10	0xbd1a1843	-0.037620794
11	0x3c365469	0.011128523
12	0xbacbc3b4	-0.0015545995
13	0xbe0a43b3	-0.13502388
14	0xbd9924bf	-0.07477712
15	0xbd744116	-0.059632383
16	0x3ddc2668	0.10749513
17	0x3d45bcaf	0.048275646
18	0x3d31b3d9	0.043384407
19	0xbd79ad56	-0.06095632
20	0xbd232f48	-0.039840013
21	0xbc8ebf5f	-0.017425237
22	0xbe097737	-0.13424383
23	0xbd1a6c72	-0.037701078
24	0xbdc326e0	-0.09528899
25	0xbccab873	-0.024746155
26	0xbd222a01	-0.03959084
27	0xbd7baeb1	-0.061445896
28	0xbcddfe32	-0.027098749
29	0xbcfa0f03	-0.030524736
30	0x3bcf3b57	0.0063242125
31	0xbd91df34	-0.07122651
32	0xbcb30a54	-0.02185551
33	0xbd87eab0	-0.0663656
34	0xbd3da738	-0.04630205
35	0xbd853bc4	-0.0650554
36	0xbc90f6d8	-0.01769583
37	0x3ce64850	0.028110653
38	0x3ab8d5f2	0.0014101847
39	0xbc2aba4b	-0.010420392
40	0xbc83a0c1	-0.016067864
41	0xbcfe18be	-0.031017657
42	0xbc8f6c80	-0.017507792
43	0x3caec326	0.021333288
44	0xbd2af9ac	-0.041742012
45	0xbd833996	-0.06407468
46	0x3d2a77b8	0.04161808
47	0xbc9b3615	-0.018946687
48	0x3bb2d50c	0.005457526
49	0xbd259347	-0.040423658
50	0xbc4bbf1f	-0.012435704
51	0x3cd0af32	0.025474165
52	0xbd65cc34	-0.056102946
53	0x3cd7fbd1	0.026365193
54	0xbe0ca7d1	-0.13735892
55	0xbd96c3ab	-0.073615395
56	0x3d49d892	0.049278803
57	0xbd9a9629	-0.07548172
58	0xbcf1f3c9	-0.029535191
59	0xbd1bcbdf	-0.038036224
60	0xbdbba9c8	-0.091632426
61	0xbdc0255e	-0.09382127
62	0xbdc9e0ea	-0.09857352
63	0xbb91a436	-0.0044446243
64	0xbb3dd4e6	-0.0028966009
65	0xbd092aef	-0.03348821
66	0x3c04107d	0.008060572
67	0x3d3b4d1a	0.045727827
68	0xbc381713	-0.01123597
69	0xbc66c526	-0.01408509
70	0xbded351a	-0.11582394
71	0x3a30b1c8	0.00067403587
72	0xbbe24d7a	-0.0069062086
73	0x3d2bd185	0.04194786
74	0xbd09badc	-0.03362547
75	0xbd74d4d5	-0.059773285
76	0x3d2e7885	0.042595405
77	0x3c03353f	0.0080083
78	0x3c6c38e4	0.014417861
79	0x3caa9934	0.020825006
80	0x3bb94bdf	0.0056547965
81	0x3aff9eaf	0.0019502247
82	0xbca9e877	-0.02074073
83	0x3d0fe49a	0.03513012
84	0xbccc4861	-0.024936857
85	0x3cacc0dd	0.021088058
86	0x3bc344fd	0.005959152
87	0x3cab45bd	0.020907277
88	0xbd7dcbf4	-0.061962083
89	0xbc2f46de	-0.010698048
90	0x3c3721c0	0.01117748
91	0x3c3fce65	0.011706923
92	0x3d2c531e	0.042071454
93	0x3cf79601	0.030222895
94	0x3c339082	0.010959746
95	0xbcfbdfd9	-0.030746387
96	0xbbd25351	-0.0064186235
97	0xbd9a9525	-0.07547978
98	0xbe1027f4	-0.14077741
99	0xbdb5a8f7	-0.08870118
100	0x3cf08105	0.029358396
101	0xbc264da7	-0.01015035
102	0xbd824452	-0.06360687
103	0xbccd2d40	-0.025045991
104	0xbc353195	-0.011059185
105	0xbbb086aa	-0.005387147
106	0x3d6f1f0d	0.05837922
107	0xbc5ec3e9	-0.013596513
108	0xbbaa4c12	-0.0051970566
109	0x3ce6de02	0.028182033
110	0x3d8bf7e2	0.06834389
111	0x3d3af479	0.045643304
112	0x3d916240	0.07098818
113	0x3d1e5f34	0.03866501
114	0x3d55b05e	0.05217015
115	0xbbb5d44f	-0.005548991
116	0xbd9fe36d	-0.0780705
117	0x3d0ae02b	0.03390519
118	0x3cb95618	0.02262406
119	0xbc66206a	-0.014045814
120	0x3d5a98dc	0.053368434
121	0xbd5c4901	-0.05378056
122	0xbbb473d8	-0.0055069737
123	0x3c08771e	0.008329181
124	0xbb92a272	-0.0044749314
125	0xbd7959f5	-0.060876805
126	0xbe1a38a7	-0.15060674
127	0xbd073fd4	-0.033019856
128	0xbc807e6f	-0.015685288
129	0x3c1802aa	0.009277979
130	0xbd01c272	-0.031679578
131	0x3c80940d	0.015695596
132	0x3d1af665	0.037832636
133	0xbc3803dd	-0.01123139
134	0x3d6804f5	0.056645352
135	0x3d91c0f9	0.07116885
136	0x3c94c8a8	0.018162087
137	0x3d3b56a5	0.045736928
138	0x3d709940	0.0587399
139	0xbd92cc17	-0.07167833
140	0x3deee412	0.11664595
141	0x3b1dc081	0.002407104
142	0x3cc387d2	0.023868475
143	0xbcdd6be1	-0.02702898
144	0x3d03b98d	0.032159377
145	0x3d2a64da	0.041600086
146	0x3b74158a	0.0037244284
147	0xbd0b4c7f	-0.0340085
148	0x3d198605	0.037481327
149	0xbd0133aa	-0.03154341
150	0xbbde3e84	-0.006782355
151	0xbcc16ee8	-0.023612455
152	0xbd3d5ec2	-0.046232946
153	0xbd8f4e83	-0.06997397
154	0xbe1dc0dc	-0.15405601
155	0xbd367d74	-0.044553235
156	0xbd98e85b	-0.07466193
157	0xbc5bbaf6	-0.013411274
158	0xbb27b21a	-0.0025588335
159	0xbd72e7ed	-0.059303213
160	0xbd2d8c3e	-0.042370073
161	0x3cc170f0	0.023613423
162	0x3cf83e67	0.030303193
163	0x3d58c00d	0.05291753
164	0x3dfab3e4	0.12241343
165	0x3d980e79	0.074246354
166	0x3d30a60e	0.043127112
167	0x3cd6a196	0.026200097
168	0x3daa16a3	0.08305099
169	0x3d2b59c9	0.041833673
170	0x3d45d77a	0.048301198
171	0x3d490fb3	0.049087238
172	0x3c0519fd	0.008123872
173	0x3dce5ae2	0.10075928
174	0x3d355a5e	0.044275634
175	0xbd0ec58b	-0.03485636
176	0xbccd8e61	-0.025092306
177	0xbd87022f	-0.06592213
178	0x3c0e923d	0.008701858
179	0xbd763d6e	-0.060117178
180	0x3ba87f6b	0.0051421425
181	0xbdafb92e	-0.08580242
182	0xbe436c95	-0.1908439
183	0xbd8dd027	-0.069244675
184	0xbdb9c574	-0.09070864
185	0xbcd4dcc6	-0.02598418
186	0x3b7d5588	0.0038655717
187	0xbb851d4c	-0.0040623304
188	0xbc872b01	-0.016499998
189	0x3d1731bd	0.03691267
190	0x3cfc352e	0.030787077
191	0x3d7bb634	0.06145306
192	0x3d520e0e	0.051282935
193	0x3d557c3d	0.052120436
194	0x3d7a8d3e	0.061169855
195	0xbcfb8bd3	-0.030706322
196	0x3dc70e9b	0.09719583
197	0x3d9746a8	0.073865235
198	0x3d3ac587	0.045598533
199	0x3c321967	0.010870314
200	0xbc7ea55b	-0.0155423535
201	0x3dc5e7ba	0.09663339
202	0x3c6acd4e	0.014331175
203	0xbca4a93f	-0.020100234
204	0x3d1bd592	0.038045473
205	0xbd6b0fbd	-0.057388056
206	0xbd2cb1de	-0.042161815
207	0x3d6c642c	0.05771272
208	0xbd2b7054	-0.04185517
209	0xbdf7e490	-0.12104142
210	0xbe32a038	-0.17443931
211	0xbdc4bcd2	-0.09606327
212	0xbca6738d	-0.02031877
213	0xbc9aa911	-0.018879445
214	0xbd426a03	-0.047464382
215	0x3cbf30ff	0.023338793
216	0xbd437385	-0.04771759
217	0xbcccfe6b	-0.02502366
218	0x3b5db468	0.0033829454
219	0xbb43c103	-0.0029869683
220	0x3d12fbd3	0.03588469
221	0x3d9d0a88	0.07668024
222	0x3d62a465	0.05533256
223	0x3d5446ff	0.05182552
224	0x3e533cfb	0.20628731
225	0x3dac03c3	0.08399155
226	0x3cebbe1f	0.02877718
227	0x3cfcdaa5	0.030865977
228	0x3ccc53fb	0.024942389
229	0x3d4f74dd	0.05064856
230	0xbd3812cb	-0.044939797
231	0xbd388d3a	-0.04505656
232	0x3d09807b	0.033569794
233	0xbdb68d12	-0.08913626
234	0xbd03f272	-0.032213636
235	0xbc2c4ad7	-0.01051589
236	0xbc338bac	-0.010958593
237	0xbddc9272	-0.1077012
238	0xbe54adac	-0.20769376
239	0xbd4d4d17	-0.050122347
240	0xbd88e6ec	-0.0668467
241	0xbd23bf8e	-0.039977603
242	0xbde061f4	-0.10956183
243	0xbc731a5c	-0.0148378275
244	0xbcbd5c88	-0.023115411
245	0x3c8c8c69	0.017156797
246	0xbc20f8ac	-0.009824913
247	0x3c11ac30	0.00889115
248	0x3d143b1b	0.03618918
249	0x3d4e1795	0.05031546
250	0x3cb75963	0.02238149
251	0x3c07fe65	0.0083003985
252	0x3de0c98e	0.109759435
253	0xbc9d077e	-0.019168612
254	0x3c6e1153	0.014530498
255	0xbc8a1f47	-0.016860617

fc1.bias f4 [128]
0	0x3d35dbf6	0.044399224
1	0x3c0cdb4b	0.008597205
2	0xba154758	-0.000569453
3	0x3c2421df	0.010017841
4	0x3cd52332	0.026017759
5	0xbd3e97c5	-0.046531457
6	0xbdb7405b	-0.08947822
7	0xbd08ea6d	-0.03342669
8	0xbd7fa42a	-0.06241242
9	0xbd02aaa0	-0.031901002
10	0xbd3296aa	-0.043600716
11	0x3d81494d	0.06312809
12	0x3cddcba4	0.027074642
13	0xbcedb29e	-0.029015835
14	0xbb13acc1	-0.002253339
15	0xbcb58cb5	-0.02216182
16	0xbc92f373	-0.017938351
17	0x3b6ef718	0.0036463197
18	0x3c8c428e	0.01712158
19	0xbd70731f	-0.058703538
20	0xbcc2ce40	-0.023779988
21	0x3c6363b9	0.013878756
22	0x3d8f519e	0.06997989
23	0xbd497cf4	-0.04919143
24	0xbd62ff7a	-0.055419423
25	0xbc837dfe	-0.016051289
26	0x3b1816fc	0.002320706
27	0x3c9187ed	0.01776501
28	0xbd4a5951	-0.049401585
29	0x3c69998e	0.014257802
30	0x3a6dc536	0.0009070219
31	0x3c89a66c	0.016802989
32	0x3bb9c7e7	0.005669582
33	0x3cb28506	0.021791946
34	0x3b36d1a7	0.0027895959
35	0xbd0f21b0	-0.034944236
36	0x3d01e390	0.03171116
37	0xbcb338a5	-0.021877596
38	0x3c7b1b31	0.015326307
39	0xbb7c3149	-0.0038481525
40	0xbd134279	-0.035952065
41	0xbcdb2e84	-0.026755579
42	0xbc1dc67a	-0.00962984
43	0x3d958a98	0.07301825
44	0x3c4a06bb	0.012330706
45	0xbda21b60	-0.079153776
46	0xbc442739	-0.011972242
47	0xbc8a43ab	-0.01687797
48	0x3c7e563c	0.01552349
49	0xba97d00a	-0.0011582386
50	0xbcaeb2ad	-0.021325434
51	0xbcfff30d	-0.031243825
52	0xbb87737b	-0.0041336394
53	0x3a95790a	0.001140387
54	0xbd875441	-0.06607867
55	0xbcb77027	-0.022392346
56	0xbcf62e62	-0.030051414
57	0x3ce78073	0.028259492
58	0x3aded427	0.0017000482
59	0xbc80dbe2	-0.015729848
60	0xbd247875	-0.04015394
61	0xbd9e5eed	-0.077329494
62	0xbdb6595a	-0.08903761
63	0x3bed4425	0.0072407895
64	0xbbcf9fd6	-0.0063361926
65	0x3d8304c0	0.0639739
66	0xbd12d53a	-0.03584788
67	0x3d364477	0.044498887
68	0x3d574e8f	0.052565154
69	0xbd0289b9	-0.031869624
70	0xbcd76694	-0.02629403
71	0xbd5a80ec	-0.053345606
72	0xbc00ab28	-0.007853307
73	0xbdca2a6e	-0.09871374
74	0xbd2aeb91	-0.04172856
75	0xbbeb58b2	-0.007182204
76	0x3c50e532	0.012749957
77	0x3d0d8ff3	0.03456111
78	0xb9924712	-0.00027900242
79	0xbd0a4820	-0.03376019
80	0xbbf720f3	-0.0075417696
81	0x3d254ba6	0.040355347
82	0x3daeb109	0.085298605
83	0xbd1fc51e	-0.039006345
84	0x3cbc2f0d	0.022971654
85	0x3c35954c	0.011082958
86	0xbcc425c3	-0.023943787
87	0xbd202728	-0.039099842
88	0x3cac279b	0.02101498
89	0xbcd695a4	-0.026194401
90	0xbd4548f2	-0.04816527
91	0xbd9c86ce	-0.076428995
92	0x3cc90d70	0.02454254
93	0xbcaf76ea	-0.021419007
94	0xbc0b7021	-0.00851062
95	0x3c5a2109	0.01331354
96	0xbd8ab5fc	-0.06772992
97	0x3d21959b	0.039449316
98	0x3ce972d4	0.028497137
99	0x3c85d95c	0.016338997
100	0x3bf5be2a	0.007499476
101	0x3d5c4635	0.053777892
102	0xbd881155	-0.06643931
103	0x3d0294a5	0.03188004
104	0xbcf59ff3	-0.029983496
105	0x3af20bbb	0.0018466631
106	0x3d44ad4e	0.04801684
107	0xbcbddf75	-0.023177842
108	0xbd9c0014	-0.076172024
109	0xbc745d8b	-0.0149148805
110	0xbd7a725d	-0.06114422
111	0xbc71220c	-0.01471759
112	0xbc539736	-0.012914469
113	0xbd54f19d	-0.051988233
114	0x39e0d997	0.00042886726
115	0xbcca8c4b	-0.0247251
116	0xbd81cae6	-0.06337528
117	0x3c96f113	0.0184255
118	0xbd10cf3e	-0.03535389
119	0xbd082d3d	-0.033246268
120	0xbc06396e	-0.008192403
121	0x3ca8358c	0.020533346
122	0xbcf71d1b	-0.030165246
123	0xbd4ecff2	-0.05049128
124	0x3c422321	0.011849196
125	0xbcf136c3	-0.029445058
126	0xbd874c2b	-0.06606325
127	0x3c659035	0.014011432

fc2.weight f4 [64, 128]
0	0xbb0e267f	-0.0021690426
1	0xbdc3672f	-0.09541165
2	0x3cfb5879	0.030681835
3	0x3d99cd09	0.075098105
4	0xbd982bbd	-0.074302174
5	0x3d558a0b	0.0521336
6	0x3d8db886	0.06919961
7	0x3bde2dd5	0.006780366
8	0x3e05e6e6	0.13076362
9	0x3e3c83c2	0.18409637
10	0x3e2b899d	0.16751714
11	0xbe0fe9b8	-0.14054
12	0x3d56b253	0.052416157
13	0x3dc06a78	0.09395307
14	0xbc9e4700	-0.019320965
15	0xbd274db0	-0.040845573
16	0xbc4d1a3d	-0.012518463
17	0x3e4876df	0.19576596
18	0xbd6839ef	-0.056695875
19	0xbd48e8e8	-0.04905024
20	0xbdb073ad	-0.086158134
21	0x3e018f7d	0.12652393
22	0xbd80e19c	-0.062930316
23	0x3b18ea31	0.0023332948
24	0x3dd5f6d7	0.104474716
25	0xbd575d3f	-0.05257916
26	0x3e073270	0.13202834
27	0x3bb13b53	0.0054086833
28	0xbdb1b585	-0.086772
29	0x3d90ba13	0.07066741
30	0x3dbce264	0.09222868
31	0x3cda73e2	0.026666585
32	0xbcb799d6	-0.022412222
33	0x3d7c75ed	0.0616359
34	0x3d44cdc2	0.04804779
35	0xbd0d3e2a	-0.034483112
36	0xbe0b51bb	-0.13605396
37	0x3d0b7752	0.03404934
38	0x3e095095	0.13409646
39	0xbb4e93b6	-0.0031521148
40	0xbd2c7406	-0.042102836
41	0x3d92ea35	0.07173578
42	0xbe371c6d	-0.17881937
43	0x3d8e06a9	0.06934864
44	0x3daaa82d	0.08332858
45	0xbdbc8682	-0.09205343
46	0x3c890b4f	0.016729025
47	0xbbe84684	-0.0070884842
48	0xbe071309	-0.13190855
49	0xbd630a0e	-0.05542951
50	0xbd28232a	-0.04104916
51	0x3dcab49d	0.098977305
52	0x3e0df773	0.13863926
53	0x3d9ab763	0.075545095
54	0x3d2bf88b	0.041985076
55	0x3d1a0325	0.037600655
56	0x3de7d1d6	0.1131932
57	0x3c4d73a0	0.012539774
58	0xbe05d100	-0.13068008
59	0x3e127516	0.14302477
60	0x3d732843	0.05936457
61	0x3dddfbc5	0.10839037
62	0x3d1c8db7	0.038221087
63	0xbda5de78	-0.08099073
64	0x3c38a9b2	0.011270927
65	0x3dd1b6d3	0.10239949
66	0x3d1bece7	0.038067725
67	0x3b1b16f4	0.0023664804
68	0xbe1a7748	-0.15084565
69	0x3d9a3ecd	0.075315095
70	0xbd3ea63d	-0.046545256
71	0x3e2960ec	0.16540879
72	0xbc152fd3	-0.00910564
73	0xba434348	-0.00074486854
74	0x3d2af53c	0.04173778
75	0x3d554c77	0.052074876
76	0x3d09468b	0.03351454
77	0x3df248e1	0.11830307
78	0xbb98ebed	-0.0046667964
79	0x3d94ecf6	0.07271759
80	0xbc3d8f56	-0.0115698185
81	0xbd34eda5	-0.044171948
82	0x3dd85a97	0.10564154
83	0x3cf60045	0.030029425
84	0x3b14849d	0.0022662051
85	0xbc20243e	-0.009774266
86	0x3c761b0c	0.015021097
87	0x3ca67a6f	0.020322053
88	0xbd9094e5	-0.070596494
89	0xbd87e6f0	-0.06635845
90	0xbd6eb68b	-0.058279555
91	0xbd012a3e	-0.031534426
92	0x3c88b675	0.016688565
93	0x3d86330f	0.065527074
94	0xbdb39f8b	-0.08770665
95	0xbd3094e0	-0.04311073
96	0xbdb03689	-0.08604152
97	0xbdac55fe	-0.08414839
98	0x3e25c5a5	0.16188677
99	0xbc54c5f7	-0.012986652
100	0xbe229543	-0.15877251
101	0x3e29fe4d	0.16600914
102	0xbe184a21	-0.14872028
103	0x3e3d0085	0.1845723
104	0x3e7763c4	0.24159151
105	0xbd0fba97	-0.035090055
106	0xbe8906bd	-0.26762953
107	0x3d960546	0.073252246
108	0xbd04e4b4	-0.03244467
109	0x3d8a56cd	0.06754837
110	0x3d561491	0.052265707
111	0xbd6de12a	-0.05807606
112	0x3d18add9	0.03727517
113	0xbd096e53	-0.03355248
114	0x3e2baf4b	0.16766088
115	0xbd1e9235	-0.038713653
116	0x3dc9218c	0.09820852
117	0x3bca234d	0.006168759
118	0x3df76716	0.12080209
119	0xbe01afe7	-0.12664758
120	0xbe571c73	-0.21006946
121	0x3dddb9f0	0.108264804
122	0x3d93003e	0.071777806
123	0xbcf70deb	-0.030158004
124	0x3e50ba5b	0.20383589
125	0x3e10ce24	0.14141136
126	0x3e50d9d4	0.20395595
127	0x3e4fb0a3	0.20282225
128	0xbd67c048	-0.056579858
129	0xbc505bff	-0.012717246
130	0xbe1badbb	-0.15202992
131	0x3d11856f	0.035527643
132	0xbd84234b	-0.06452044
133	0xbe1347f3	-0.14382915
134	0xbbcd51e2	-0.0062658647
135	0xbd3daaeb	-0.04630558
136	0x3e2209d2	0.15824059
137	0x3dc453fd	0.09586332
138	0x3c8c914b	0.017159125
139	0xbc15496a	-0.009111742
140	0x3e2b47b4	0.16726571
141	0xbd04170a	-0.032248534
142	0xbd98f43d	-0.0746846
143	0x3cc2f2c2	0.023797397
144	0xbdad61fc	-0.08465955
145	0xbe2bcaed	-0.16776629
146	0x3cf071e6	0.029351186
147	0xbd25bce7	-0.040463354
148	0xbd3f27d3	-0.04666884
149	0x3dc060d7	0.09393471
150	0x3c352041	0.011055053
151	0xbc23fb89	-0.010008701
152	0xbd1ed431	-0.03877658
153	0xbd8b054a	-0.06788118
154	0x3da63e4e	0.081173524
155	0x3d7e75fb	0.062124234
156	0xbd7e0bff	-0.06202316
157	0xbcb95910	-0.022625476
158	0xbcb7664f	-0.022387652
159	0x3d2c120e	0.042009406
160	0xbbe2a6e2	-0.0069168666
161	0xbda6164f	-0.08109724
162	0x3c86960a	0.016428966
163	0xbc94cb8b	-0.018163463
164	0xbde4073b	-0.111341916
165	0xbcd05152	-0.025429402
166	0xbd6b6850	-0.057472527
167	0x3db23791	0.08702005
168	0x3dd42870	0.10359275
169	0x3ddb8c95	0.10720173
170	0xbdfe4fce	-0.12417565
171	0xbd739aca	-0.05947379
172	0x3c499353	0.012303191
173	0xbddb2845	-0.1070104
174	0xbe228abf	-0.1587324
175	0x3cab2cd5	0.020895401
176	0x3dce197f	0.10063457
177	0xbd0a66d2	-0.033789463
178	0x3d564622	0.052312978
179	0x3e20e287	0.15711413
180	0xbdb5ad62	-0.08870961
181	0x3d017bb2	0.031612106
182	0xbe30067f	-0.17189978
183	0x3d2f3a92	0.042780466
184	0x3b9ed520	0.004847184
185	0xbde9df3a	-0.1141953
186	0xbd490033	-0.049072456
187	0xbe303be2	-0.17210343
188	0xbced9af8	-0.029004559
189	0x3da3b771	0.07993973
190	0x3e0bbd73	0.13646488
191	0xbb6e1aae	-0.003633182
192	0xbc85a65c	-0.016314678
193	0x3cb7d6b1	0.02244124
194	0x3c83266d	0.016009534
195	0x3da52766	0.08064155
196	0xbd9ba119	-0.07599086
197	0xbdc04aff	-0.09389304
198	0xbd287a54	-0.041132286
199	0x3cb776a1	0.022395434
200	0xbd775692	-0.060385294
201	0xbdcb84b4	-0.099374205
202	0x3de33d5c	0.11095688
203	0xbc0149a7	-0.007891095
204	0x3cde739e	0.02715474
205	0x3d87877b	0.06617638
206	0x3bf23aac	0.007392248
207	0xbdf8e8be	-0.12153767
208	0x3dbc5f52	0.091978684
209	0xbd31327a	-0.04326103
210	0xbd3a6b44	-0.045512453
211	0x3dae5021	0.08511377
212	0xbe3c51f5	-0.18390639
213	0x3db9efb5	0.090789236
214	0x3d4fdacb	0.050745767
215	0xbe0297d7	-0.12753235
216	0x3d5338f6	0.051567994
217	0xbd79c5dd	-0.060979713
218	0xbdf3eb82	-0.11910154
219	0xbdcbd025	-0.0995181
220	0x3df7ac88	0.120934546
221	0x3e3cc15c	0.18433136
222	0xbd4ba229	-0.049715195
223	0xbd16e19c	-0.03683625
224	0xbe2eb6c8	-0.17061913
225	0x3ced5767	0.02897234
226	0xbe39aec9	-0.18133081
227	0x3d6224c7	0.055210855
228	0x3b8a567a	0.0042217346
229	0xbd503a5a	-0.0508369
230	0xbdfeb38c	-0.124365896
231	0xbde1749a	-0.11008568
232	0x3ce5eda2	0.028067414
233	0xbcb5f945	-0.022213588
234	0xbd16461b	-0.03668795
235	0x3dbf1ab1	0.09331263
236	0x3e182353	0.14857225
237	0xbd001392	-0.031268664
238	0xbe25b50e	-0.16182348
239	0xbd0fb0a4	-0.035080567
240	0xbc73e5b3	-0.0148863075
241	0xbd263980	-0.04058218
242	0x3dad9ec7	0.0847755
243	0xbd0fd058	-0.0351108
244	0x3d94fbb9	0.07274575
245	0x3e03d109	0.1287271
246	0xbd28cbcc	-0.04120998
247	0xbd6b3ef8	-0.0574331
248	0xbd154b5f	-0.036448833
249	0x3dfb120b	0.12259301
250	0x3cc938db	0.024563244
251	0xbe121a74	-0.14267904
252	0x3e41fca7	0.18944035
253	0xbc886c2a	-0.01665314
254	0x3d051ae5	0.03249635
255	0x3df603d7	0.12012451

fc2.bias f4 [64]
0	0x3d33f545	0.04393508
1	0x3d3d8997	0.046273794
2	0xbbc49a35	-0.005999828
3	0x3dbc6a5e	0.091999754
4	0x3c058677	0.008149735
5	0x3db4f4b1	0.08835734
6	0x3cc21a81	0.023694279
7	0xbcdddf5c	-0.027084045
8	0x3cf168f4	0.02946899
9	0xbcd60b03	-0.026128298
10	0xbd840ef5	-0.06448165
11	0x3d5c477f	0.05377912
12	0x3d52f6e4	0.051504984
13	0x3c88bb47	0.016690863
14	0xbb230d45	-0.0024879735
15	0x3d8b918b	0.068148695
16	0x3d40db78	0.0470843
17	0x3b4dd2d3	0.0031406179
18	0x3c8ce515	0.017199079
19	0x3d325b98	0.04354438
20	0x3c97666a	0.018481452
21	0xbabd0004	-0.001441956
22	0x3dc85082	0.09780981
23	0x3d9a7faf	0.07543885
24	0x3c040df5	0.008059968
25	0x3daec6e5	0.0853403
26	0x3b950337	0.0045475024
27	0xbdb1f5a4	-0.0868943
28	0xbc3f7293	-0.0116850315
29	0x3cbcbf66	0.023040485
30	0x3dece27d	0.11566637
31	0x3dea82a3	0.11450698
32	0xbcbd81d2	-0.023133192
33	0x3d178f62	0.037001975
34	0x3d3bc732	0.045844264
35	0xbc51992e	-0.012792869
36	0x3cf3cfd9	0.029762195
37	0x3dd58bc3	0.10427048
38	0xbd4ed9be	-0.050500624
39	0x3d921772	0.07133378
40	0x3dbb7808	0.091537535
41	0xbd0b1c4f	-0.033962544
42	0x3de97fc9	0.11401326
43	0x3c244014	0.010025043
44	0x3bb46bff	0.005506038
45	0xbd612ec0	-0.054976225
46	0xbd14aeee	-0.03629964
47	0x3bbe264d	0.0058029057
48	0xbc86f17e	-0.016472574
49	0x3be6769a	0.0070331814
50	0xbcb3d9d3	-0.021954453
51	0xbd254fdc	-0.040359363
52	0x3bfd9fe3	0.0077400072
53	0xbc615bcc	-0.013754796
54	0x3db5bf49	0.088743754
55	0x3d9c70c4	0.07638696
56	0x3e1221e3	0.1427074
57	0xbd1ca216	-0.038240515
58	0x3d1509e4	0.036386386
59	0x3bbd1562	0.0057703713
60	0x3dba2376	0.09088795
61	0x3d616a98	0.055033296
62	0xbc123c46	-0.008925503
63	0x3d42986e	0.04750865
