Eval_Models/ANN/best_model_0.pth (torch, 453765 bytes, 10 tensors)

normalize.weight f4 [784]
000000 bf aa 82 3f 83 ba 75 3f ee 81 88 3f fd af 83 3f
       1.0208358 0.9598772 1.0664651 1.0288082
000010 87 db 81 3f 75 11 86 3f 44 54 87 3f cb e6 82 3f
       1.014512 1.0474077 1.0572591 1.0226682
000020 de d6 7d 3f a5 80 8e 3f be 87 a0 3f fe e7 9a 3f
       0.99155986 1.1133009 1.2541425 1.2102048
000030 d5 0a a0 3f c3 be 9a 3f be c0 9f 3f b4 0c 9d 3f
       1.2503306 1.2089466 1.2480695 1.2269502
000040 55 cf 9d 3f 4a 28 a0 3f c3 1a 8f 3f 52 87 8d 3f
       1.2328898 1.2512295 1.1180042 1.1056921
000050 82 ba 99 3f 94 e8 8e 3f 61 0f 82 3f 79 69 83 3f
       1.2010043 1.1164727 1.0160943 1.0266563
000060 1e 55 7c 3f 6f 25 92 3f 68 27 8a 3f f4 e2 85 3f
       0.9856738 1.1417674 1.0793276 1.0459886
000070 ef 71 94 3f 38 7b 8e 3f e5 b2 82 3f 9f 80 82 3f
       1.159727 1.1131353 1.0210844 1.0195502
000080 14 45 79 3f a9 a5 76 3f 84 74 86 3f 53 85 83 3f
       0.9737103 0.9634653 1.0504308 1.0275062
000090 c6 e3 8a 3f af ca 9e 3f 89 5c af 3f b3 4e 9d 3f
       1.0850761 1.2405604 1.3700114 1.2289642
0000a0 3e 4a 80 3f 2c 42 81 3f 3e 58 88 3f 72 71 83 3f
       1.0022657 1.0098319 1.0651929 1.0268996
0000b0 a6 bd 9b 3f c4 0b b1 3f 02 f8 a7 3f 19 af 91 3f
       1.2167251 1.3831716 1.3122561 1.138156
0000c0 dc b6 86 3f 58 fe 78 3f ce 56 72 3f e7 d0 87 3f
       1.0524554 0.972631 0.94663703 1.0610627
0000d0 3a 7d 8b 3f 07 3c 84 3f 66 45 76 3f 2f 2c 75 3f
       1.0897591 1.0330819 0.96199644 0.95770544
0000e0 57 8a 71 3f 33 eb 82 3f b9 96 84 3f dc e3 83 3f
       0.94351715 1.0228027 1.0358497 1.0303912
0000f0 0a 28 71 3f 84 b1 84 3f 22 24 8a 3f 56 a2 97 3f
       0.9420172 1.0366673 1.0792277 1.1846416
000100 12 0a 8b 3f ab 94 81 3f 9f f1 89 3f 42 cb 67 3f
       1.0862448 1.0123495 1.0776862 0.9054452
000110 4c ef 84 3f 01 49 99 3f 5c ae 9f 3f b2 80 91 3f
       1.0385528 1.1975404 1.2475085 1.13674
000120 7d 10 5d 3f 65 6c 76 3f 0c 27 75 3f 7b b3 86 3f
       0.86353284 0.96259147 0.95762706 1.0523523
000130 94 69 94 3f df 76 94 3f fb 22 86 3f 0e dd 84 3f
       1.159472 1.1598777 1.0479425 1.037996
000140 53 26 85 3f bf c2 86 3f 82 b3 84 3f 93 36 89 3f
       1.0402321 1.0528182 1.0367281 1.071978
000150 16 ea 71 3f 96 e2 7d 3f 31 c1 82 3f 63 7c 88 3f
       0.9449781 0.9917387 1.0215207 1.066296
000160 af 9f 81 3f 43 42 89 3f 20 52 93 3f 83 c5 9d 3f
       1.0126857 1.0723346 1.1509438 1.2325901
000170 51 87 8f 3f f8 1a 68 3f 3b cc 7e 3f 21 3e 72 3f
       1.121317 0.9066615 0.9953038 0.9462605
000180 0d 19 64 3f 5b 85 93 3f 9a 70 9d 3f db 5c 86 3f
       0.89100724 1.1525072 1.2299988 1.0497087
000190 ab be 58 3f 63 cc 70 3f 6f a8 57 3f 9f 50 83 3f
       0.84665936 0.9406187 0.84241384 1.0258979
0001a0 0b 29 8b 3f 78 63 93 3f 5e 2b 95 3f c4 b1 77 3f
       1.08719 1.151473 1.165386 0.96755624
0001b0 99 86 77 3f 4e f6 8f 3f da db 81 3f 10 aa 66 3f
       0.96689755 1.1247041 1.0145218 0.90103245
0001c0 07 4f 73 3f 65 d7 89 3f db 50 79 3f db 93 64 3f
       0.9504246 1.0768858 0.97389 0.8928811
0001d0 2c c0 89 3f 3f d0 85 3f 29 f6 90 3f 88 93 90 3f
       1.0761771 1.0454177 1.1325122 1.1295023
0001e0 3f 25 65 3f 8c ce 70 3f 37 6a 6d 3f 26 09 88 3f
       0.8950996 0.94065166 0.92740196 1.0627792
0001f0 70 be 78 3f b3 3d 8c 3f d7 41 97 3f 44 fb 88 3f
       0.97165585 1.0956329 1.1816968 1.070168
000200 f4 14 89 3f 9f 18 77 3f c5 f7 5e 3f 36 49 53 3f
       1.0709519 0.96521944 0.87096816 0.82533586
000210 54 dc 7f 3f a0 64 8f 3f e8 28 8b 3f 64 31 98 3f
       0.9994557 1.1202583 1.0871859 1.1890073
000220 b7 0a 74 3f 2d 67 85 3f 19 d2 64 3f 3e e1 81 3f
       0.9532885 1.0422112 0.89383084 1.0146863
000230 17 ba 70 3f 79 32 7e 3f c6 e2 70 3f 7c b7 71 3f
       0.9403395 0.99295765 0.9409603 0.944206
000240 37 d9 8d 3f 9c 20 8f 3f 4d c6 85 3f ad 2d 85 3f
       1.1081914 1.1181827 1.0451142 1.0404564
000250 a7 c8 4b 3f ba 05 4b 3f d6 8f 6b 3f cb f6 77 3f
       0.79603046 0.79305613 0.9201635 0.9686095
000260 77 b8 79 3f ce 4f 86 3f 2f 6e 8e 3f 44 b4 77 3f
       0.97547096 1.0493104 1.1127375 0.9675944
000270 5e 89 85 3f c1 b3 77 3f ef bf 60 3f f1 91 52 3f
       1.0432546 0.9675866 0.8779287 0.8225394
000280 97 5e 80 3f 2a 8c 81 3f 2d c1 89 3f 7b eb 8f 3f
       1.0028867 1.01209 1.0762078 1.1243738
000290 71 8d 8a 3f 2b dd 8e 3f d5 4e 7e 3f 8a 59 68 3f
       1.0824414 1.1161245 0.9933904 0.90761626
0002a0 5a bb 81 3f e4 89 77 3f 13 6a 7a 3f 1d 63 80 3f
       1.01353 0.9669478 0.97818106 1.0030247
0002b0 a8 94 85 3f 04 36 97 3f 75 69 7e 3f e8 1e 86 3f
       1.0435991 1.1813359 0.99379665 1.0478182
0002c0 bb 7b 7c 3f 94 d2 5b 3f 32 ca 77 3f f6 ad 64 3f
       0.986263 0.8586819 0.967929 0.89327943
0002d0 60 af 65 3f 49 16 86 3f c3 b9 91 3f cc e6 7b 3f
       0.89720726 1.0475551 1.1384815 0.98399043
0002e0 9f 3d 71 3f ca 14 77 3f 3e c4 8a 3f 27 cb 7e 3f
       0.9423465 0.96516097 1.0841138 0.99528736
0002f0 d7 8f 76 3f 39 b5 7e 3f 67 7c 8e 3f 05 80 90 3f
       0.9631323 0.99495274 1.1131715 1.1289068
000300 c3 87 91 3f 3e 88 98 3f 12 5a 8d 3f 6f 3f 82 3f
       1.1369556 1.1916578 1.1043112 1.0175608
000310 66 9b 89 3f b7 7f 70 3f 36 e4 8b 3f 3a 4f 83 3f
       1.0750549 0.9394488 1.092902 1.0258553
000320 20 1b 80 3f 48 a1 8e 3f ce ce 80 3f a4 39 83 3f
       1.0008278 1.1142969 1.0063112 1.0251966
000330 2d ea 96 3f 7a 8d 57 3f 9c 98 7d 3f 2a 5f 6f 3f
       1.1790215 0.8420025 0.9906099 0.93504584
000340 c2 80 6c 3f db d1 88 3f 01 51 94 3f 5e 80 7e 3f
       0.9238397 1.0689043 1.158722 0.9941462
000350 0e 14 80 3f c5 19 8a 3f 76 99 93 3f d5 17 94 3f
       1.000612 1.0789114 1.1531208 1.1569773
000360 0c 2a 7c 3f 72 d4 7b 3f 8c 3d 8a 3f 2b 90 90 3f
       0.9850166 0.9837104 1.0800033 1.1293997
000370 a6 53 91 3f 01 f5 93 3f 8c a8 8f 3f e6 88 89 3f
       1.1353652 1.1559144 1.1223311 1.0744903
000380 9b 56 82 3f 71 fa 87 3f 72 08 89 3f f7 66 6e 3f
       1.018268 1.0623304 1.0705702 0.9312586
000390 16 19 81 3f 4a 30 8b 3f c7 9f 73 3f e8 5d 8b 3f
       1.0085781 1.0874112 0.95165676 1.0888033
0003a0 90 8d 9d 3f 0f fe 7a 3f f3 35 88 3f b2 49 6e 3f
       1.2308826 0.9804391 1.0641464 0.930812
0003b0 c8 b2 68 3f 81 8a 8d 3f ea 94 92 3f 19 fb 8c 3f
       0.908978 1.1057893 1.1451695 1.1014129
0003c0 50 5a 77 3f 32 50 91 3f e4 5d 8a 3f 81 02 8d 3f
       0.9662218 1.1352599 1.0809903 1.1016389
0003d0 bd b6 86 3f ad bd 81 3f 58 e3 86 3f 0c 35 90 3f
       1.0524517 1.013601 1.053813 1.1266189
0003e0 07 21 8e 3f 9e ac 8f 3f 51 fd 84 3f 9c bb 77 3f
       1.1103829 1.1224554 1.0389806 0.96770644
0003f0 80 f8 85 3f 5a 61 86 3f 49 10 7f 3f be ab 75 3f
       1.0466461 1.0498459 0.99634224 0.9596518

normalize.bias f4 [784]
000000 c0 90 42 3d 3a c1 14 3d 8a c5 c3 ba ec 36 58 3c
       0.047501326 0.036317088 -0.001493619 0.013196688
000010 5c 6b 02 bb e5 f1 0c 3d d3 26 86 3c 3c 1e 50 3d
       -0.0019900417 0.034410376 0.016375935 0.050810084
000020 5c 14 18 3d bb 3f fe 3c 43 46 e6 3c f1 97 22 3c
       0.03712879 0.031036248 0.028109675 0.009923921
000030 b1 aa 51 3c a6 f2 3b bc d7 8f da bb 6e f4 3e bb
       0.012797044 -0.011471426 -0.006669979 -0.002913739
000040 ef fb 83 3c 01 aa 1a 3d 3e ac c1 3c 81 98 cb 3b
       0.016111342 0.037759785 0.023641702 0.0062132482
000050 ed 41 27 bd 06 df cc bc 81 86 28 bd 0b 35 4a bd
       -0.040834356 -0.02500869 -0.041143898 -0.049366992
000060 79 72 62 bc e8 bd 09 bd 09 e8 80 bb 71 c0 92 3c
       -0.013821238 -0.033628374 -0.0039339107 0.017914029
000070 02 16 9d bb df c3 8b b9 bb aa 91 bc 69 71 49 3d
       -0.0047938833 -0.0002665808 -0.017781606 0.049180422
000080 f3 4b 03 3d 23 26 c4 3d 67 8e 34 3d a7 f1 4c 3d
       0.032054853 0.095775865 0.044081118 0.050035145
000090 0d a1 b2 3c 9a d0 eb 3c 86 0b 44 3c 63 60 87 bc
       0.02180531 0.028785992 0.011965638 -0.016525453
0000a0 ca 61 ac bb 2c 15 cd 3c 94 44 f3 ba 73 20 81 bc
       -0.005260681 0.02503451 -0.0018559867 -0.015762543
0000b0 44 90 44 3c 24 d9 ea 3c 00 e7 84 ba ca a4 c2 3c
       0.011997286 0.028667994 -0.0010139644 0.023760218
0000c0 b1 64 e2 3c f5 60 91 3c cf 08 04 3c 75 9e 0c bd
       0.027635904 0.017746428 0.008058741 -0.034330804
0000d0 53 ea 3b 3d 59 77 98 3c 7a b8 26 3d ae 7c d0 3b
       0.045877766 0.018611597 0.040703274 0.006362519
0000e0 4e ed 18 3d c3 36 06 3d 76 ee 67 3c 65 c4 15 3d
       0.037335686 0.03276707 0.014155975 0.03656425
0000f0 d6 2a d9 3d ba 0d c6 3d db 1f 52 3d 71 c2 2d 3d
       0.106038734 0.09670587 0.05129991 0.042421762
000100 d8 27 ab 3c 35 9f 86 3d 7f ef 21 3d ac 11 90 bb
       0.020893022 0.06573335 0.039535042 -0.004396638
000110 b8 68 90 ba ff 78 94 3c 73 93 82 bc 50 04 a4 3a
       -0.0011017537 0.018124102 -0.01593945 0.0012513492
000120 fa 0a 47 bb 1f 1e bc 3c 65 96 fc 3c c8 2d fb 3c
       -0.0030371533 0.022963582 0.030833432 0.030661479
000130 63 e7 f8 3c f9 50 08 3d a5 ba 63 3d a9 71 9b 3c
       0.030383771 0.033280347 0.05559792 0.018975096
000140 1d e3 73 3d f0 03 e9 3c c6 5a fa 3c 16 2f 62 3c
       0.059542764 0.02844426 0.030560862 0.0138051715
000150 7c d8 13 3c b5 a5 00 3d a0 ee c9 3c c3 2f 10 3c
       0.009023782 0.03140803 0.024649918 0.00880045
000160 5a a1 cf 3d 86 e3 9f 3d 6c 62 36 3d 19 40 5b 3d
       0.10138197 0.078070685 0.044527456 0.053527925
000170 e8 42 06 3d e4 08 a3 3d c2 9b ad 3d 1e 49 04 3d
       0.03277865 0.0796068 0.08476974 0.032296292
000180 b2 c2 11 bc c8 c9 bb bc 1e cb 5c bc c1 46 a8 bc
       -0.008896517 -0.022923365 -0.013476161 -0.02054155
000190 92 e4 9e 3a 5c 43 34 3c d1 0c 0c 3d aa f7 1f 3c
       0.0012122563 0.011002388 0.03419191 0.009763638
0001a0 4c 87 f6 3c 7d 93 27 3d 59 94 0a 3d 38 72 72 3d
       0.030093811 0.04091214 0.03383288 0.05919096
0001b0 b2 dd 92 3c 9e 0c 03 3c 7f 60 2e 3d a2 55 6d 3d
       0.017927978 0.007998614 0.042572495 0.057942994
0001c0 49 e9 6a bc 21 ef dd 3b d8 1f b8 3b 47 b2 9f 3d
       -0.014337846 0.006772891 0.0056190304 0.077976756
0001d0 0e cf a7 3d 42 c8 81 3d c5 f9 61 3d 01 f9 88 3d
       0.081937894 0.06337024 0.05516984 0.06688119
0001e0 f0 e0 ae 3d d5 45 32 3d b5 d7 9b 3c b9 eb 3b 3d
       0.08538997 0.04352363 0.019023756 0.0458791
0001f0 93 ea b5 3b 0c de a4 bc 6c c4 f9 3b f0 ff 98 bc
       0.005551645 -0.020125411 0.0076222923 -0.018676728
000200 a7 1f b5 bc 3c e4 0c ba 6d 47 c2 3c 30 c4 07 3c
       -0.02210982 -0.0005374586 0.0237157 0.008286521
000210 7f f2 56 3d 83 46 57 3d ca e4 2a 3d 6f a8 70 3d
       0.052477356 0.05255748 0.041722097 0.05875438
000220 07 bc 1f 3d ed 15 06 bd dd 3f cb 3d d9 ee 12 3d
       0.038997676 -0.032735754 0.0992429 0.035872314
000230 08 85 3f 3d 76 89 91 3b 22 24 7a 3d 88 48 53 3d
       0.046757728 0.0044414354 0.061069615 0.051582843
000240 da cd 7d 3d dd 7e 4f 3d b5 16 8e 3d d0 7c a2 3d
       0.061963893 0.050658096 0.06937925 0.07933962
000250 78 17 d8 3d 32 c5 87 3c 42 e7 c5 3c d3 46 72 ba
       0.10551351 0.016573522 0.024158124 -0.0009242121
000260 e5 2f 26 bc 1d ba ae bc 3e 3f 6c bc ae 75 a4 3c
       -0.010143255 -0.02132898 -0.014419375 0.020075645
000270 da ee eb bb 40 8e b7 3c 02 20 82 3c c1 d2 72 3d
       -0.007200104 0.022406697 0.015884403 0.05928302
000280 56 b3 46 3d c1 37 4d 3d 28 39 28 3d f8 70 ca 3c
       0.04851087 0.050102 0.041070133 0.02471207
000290 26 2d 7e 3c ad a2 b8 3a 58 28 be 3c 4c 12 69 3d
       0.015513694 0.0014086567 0.023212597 0.056902215
0002a0 55 9f 4f 3d a6 12 71 3d e5 b9 a0 3d 59 ef 38 3d
       0.05068906 0.058855675 0.078479566 0.045150135
0002b0 7b 41 7b 3d 97 79 0b 3d b7 7e 9f 3d ca bc e7 3d
       0.061341744 0.034051504 0.07787841 0.113153055
0002c0 e0 d6 1f 3d e5 07 e6 3c 7f 0c b0 3c b3 15 6f bb
       0.03902328 0.028079936 0.021490334 -0.003648144
0002d0 1f 92 16 3c 28 9c 13 bc de 24 fa bc 2a 3c de bc
       0.009190111 -0.0090093985 -0.030535158 -0.027128298
0002e0 27 bd 42 bb 02 cd a6 3c bf 5e cd 3c 0a cf 53 3d
       -0.0029714794 0.020361427 0.025069593 0.05171112
0002f0 7e 7f 6a 3d 7d 9c 95 3d f5 20 3c 3d c7 12 ea 3c
       0.057250492 0.073052384 0.045929868 0.028573407
000300 00 93 ce 3c d5 a2 6a 3c 9c c0 b0 3c fb ed 9d bb
       0.02521658 0.014321049 0.021576218 -0.0048196292
000310 0b bb 92 3c 97 ba 60 3d c6 3f 9e 3d 05 d9 99 3d
       0.017911455 0.054865446 0.077270076 0.07512096
000320 a4 35 94 3d 7d 7f e2 3c bc 58 8f 3d b3 16 b1 3d
       0.07236794 0.027648682 0.069993466 0.08646908
000330 04 b3 35 3d 60 0a f9 3c 73 67 f6 3c db e4 2b 3c
       0.044360176 0.030400455 0.030078625 0.010491575
000340 af ec cd bc 13 8a da bb 89 77 4f bd a4 30 23 3c
       -0.025137274 -0.0066692918 -0.050651107 0.009960327
000350 5e 7c e9 bb e6 1e b1 3c 2d 8a 77 3c f3 42 51 3d
       -0.0071254214 0.021621179 0.015108627 0.05108924
000360 f2 22 72 3d 98 0c 7d 3d c5 cd 00 3d 45 de 91 3c
       0.059115358 0.06177959 0.031446237 0.017806182
000370 b4 4b 0a 3d c6 82 b7 3a 0c 7c 1d 3b 2e a7 de 3b
       0.033763602 0.0014000766 0.0024030237 0.0067948317
000380 38 22 2d 3d 9f 90 6b 3d df ba 16 3d 35 a9 a4 3d
       0.04226896 0.05751097 0.036799308 0.08040086
000390 17 0c 4f 3d 37 f4 83 3d 1c 25 d0 3d be da ba 3d
       0.05054864 0.06443065 0.10163328 0.09123753
0003a0 4f ca 33 3d f0 59 9e 3b d4 64 1d 3d 9f a0 15 3d
       0.04389411 0.0048324987 0.038426235 0.036530133
0003b0 cd 43 04 3d 2b 92 74 3c 29 9c 28 3b e7 87 a5 bc
       0.032291222 0.014927427 0.0025727844 -0.020206405
0003c0 6e 62 69 3b 0a 2d 45 3d 2b 0c de 3c fb 8d 1e 3c
       0.0035611647 0.048138656 0.027105412 0.0096774055
0003d0 cd 8b 67 3d a7 f4 9f 3d 02 6a 24 3d e3 1a bd 3c
       0.05652981 0.078103356 0.04014016 0.02308411
0003e0 a3 65 4f 3b 3d cc 83 bc 2f dd 49 3d 23 14 a5 3d
       0.0031646274 -0.0160886 0.049283203 0.080604814
0003f0 bb dd 62 3d 44 c7 c6 3d b3 6b 90 3d c1 9b d1 3d
       0.05538724 0.09705976 0.07051792 0.10234786

normalize.running_mean f4 [784]
000000 f7 ff 7f bf d9 f9 7f bf 0b ef 7f bf 99 bf 7f bf
       -0.99999946 -0.9999061 -0.99974126 -0.9990173
000010 25 23 7f bf 83 db 7e bf 3b 6b 7e bf 38 37 7b bf
       -0.99663 -0.995537 -0.9938237 -0.9813113
000020 12 0b 75 bf 80 ea 61 bf 3d c6 3f bf 1d 0f 2a bf
       -0.95720017 -0.88248444 -0.7491186 -0.6642931
000030 cc b4 1c bf ba 22 1f bf 99 09 20 bf 54 07 1a bf
       -0.61213374 -0.62162364 -0.62514645 -0.6016743
000040 f7 5a 21 bf 32 6e 33 bf c0 76 4d bf a6 d7 6b bf
       -0.63029426 -0.7009002 -0.80259323 -0.9212593
000050 51 48 77 bf 98 2b 7c bf f9 86 7c bf e7 ac 7d bf
       -0.9659472 -0.9850402 -0.9864345 -0.99091953
000060 0d ce 7e bf d9 48 7f bf dd 31 7f bf 91 e5 7f bf
       -0.9953316 -0.9972053 -0.9968546 -0.99959666
000070 d8 ff 7f bf 64 f8 7f bf e5 a5 7f bf 0c 31 7f bf
       -0.9999976 -0.9998839 -0.9986251 -0.99684215
000080 dc c1 7e bf c0 c0 7c bf a5 d1 71 bf cf 62 5b bf
       -0.99514556 -0.98731613 -0.9446052 -0.85697645
000090 a5 21 3c bf 68 bd 14 bf 4b b9 c7 be 55 7a 6d be
       -0.7348884 -0.5810151 -0.39008555 -0.23191197
0000a0 ce 9f 03 be ef 90 23 be b4 4e 3d be e4 a8 0b be
       -0.1285393 -0.15973257 -0.18487054 -0.13638645
0000b0 1e 28 35 be 3b c5 a0 be 3b ca ea be b4 b2 24 bf
       -0.17691085 -0.31400475 -0.45857415 -0.6433518
0000c0 22 2a 4b bf fb 94 66 bf a5 ff 74 bf ef 42 7a bf
       -0.79361165 -0.90071076 -0.9570258 -0.9775838
0000d0 98 58 7c bf c3 e2 7d bf 6e bd 7e bf 1e f0 7f bf
       -0.98572683 -0.99174136 -0.99507797 -0.99975765
0000e0 d9 fc 7f bf 74 e2 7f bf dc 66 7f bf e9 a3 7e bf
       -0.9999519 -0.99954915 -0.99766326 -0.9946886
0000f0 fb c8 7c bf 3e b7 6f bf 85 e9 50 bf 99 52 36 bf
       -0.9874417 -0.9363898 -0.8160632 -0.71219784
000100 56 8d 19 bf ac 25 e7 be ef a8 8e be 2f e3 4f be
       -0.59981287 -0.4514593 -0.2786326 -0.20301507
000110 9e d4 30 be 79 8c 2f be fb 3b 30 be 13 42 2b be
       -0.17268607 -0.1714343 -0.1721038 -0.16724424
000120 67 bd 3f be b9 54 74 be b6 13 a6 be 60 03 fc be
       -0.18724595 -0.23860444 -0.32436913 -0.49221325
000130 12 d4 24 bf 6b 2e 40 bf a3 c8 5d bf 0a 30 72 bf
       -0.64386094 -0.7507083 -0.8663427 -0.9460455
000140 d8 b7 79 bf 17 66 7c bf 9c c3 7d bf f5 6c 7f bf
       -0.9754615 -0.98593277 -0.991266 -0.9977563
000150 dd fb 7f bf dc c6 7f bf 1e 17 7f bf 89 7f 7d bf
       -0.9999369 -0.9991281 -0.9964465 -0.9902273
000160 19 3f 76 bf 1f 76 5b bf 45 01 39 bf e5 c8 1a bf
       -0.9619003 -0.85727113 -0.7226756 -0.6046279
000170 78 59 fb be 95 08 b9 be aa 76 66 be ab b5 4d be
       -0.49091697 -0.3613936 -0.22506204 -0.20088832
000180 69 1d 4b be 26 a0 3e be 92 55 3d be 76 1d 34 be
       -0.19835438 -0.1861578 -0.18489674 -0.17589363
000190 1c ac 42 be 8a df 50 be e6 14 6c be 8f b2 bb be
       -0.19010967 -0.20397773 -0.23054847 -0.36659667
0001a0 92 52 02 bf 2e 66 22 bf 86 a0 42 bf 6c cc 60 bf
       -0.5090724 -0.63437164 -0.7602619 -0.87811923
0001b0 34 1a 72 bf 59 59 79 bf 13 4f 7c bf 15 09 7f bf
       -0.9457123 -0.9740196 -0.9855816 -0.99623233
0001c0 63 dc 7f bf 91 24 7f bf a3 32 7d bf cd fe 7a bf
       -0.9994566 -0.9966517 -0.9890539 -0.98045045
0001d0 a2 57 6c bf a6 a2 48 bf 30 e4 21 bf 08 74 05 bf
       -0.9232122 -0.7837318 -0.6323881 -0.52130175
0001e0 83 63 dd be c4 38 a3 be 3c 6d 5a be 64 ed 58 be
       -0.43239984 -0.31879246 -0.21330732 -0.21184307
0001f0 df 99 57 be 5a 35 43 be 78 ef 33 be 57 f8 2b be
       -0.21054791 -0.19063321 -0.17571819 -0.16793953
000200 3b d8 1d be 10 8a 1b be c4 4d 38 be d2 20 90 be
       -0.15414517 -0.15189385 -0.17998415 -0.2815004
000210 b1 11 d7 be bd 40 06 bf b8 93 28 bf 7b 07 4f bf
       -0.42005685 -0.5244253 -0.658504 -0.8087079
000220 9c 14 68 bf 92 32 73 bf 30 b9 79 bf 42 ee 7e bf
       -0.9065645 -0.9499904 -0.975482 -0.995823
000230 c6 ab 7f bf ed 20 7e bf e3 c3 7b bf 2b 94 76 bf
       -0.9987148 -0.9926899 -0.98345774 -0.96319836
000240 48 e0 61 bf 10 32 36 bf 49 66 11 bf 68 ab f2 be
       -0.8823285 -0.7117014 -0.567967 -0.47396398
000250 aa df c5 be 84 5c 88 be b2 72 4d be cf a1 4e be
       -0.38647205 -0.26633084 -0.20063284 -0.20178913
000260 fb a6 4a be 44 d6 3d be d5 c7 23 be db 01 17 be
       -0.1979026 -0.18538767 -0.15994199 -0.14746802
000270 8e 8c 08 be 55 df 01 be 20 5c 09 be ea 8e 59 be
       -0.13334867 -0.1268285 -0.13414049 -0.21245924
000280 39 ea af be dc 01 de be a3 ac 11 bf aa c3 3b bf
       -0.34358385 -0.43360794 -0.5690405 -0.73345435
000290 ac 37 59 bf 04 a0 69 bf 5d 3c 74 bf 9c a3 7d bf
       -0.84850574 -0.9125979 -0.9540461 -0.99077773
0002a0 32 7b 7f bf 64 9b 7d bf 5f 33 7a bf fa 1f 71 bf
       -0.99797356 -0.9906523 -0.97734636 -0.9418942
0002b0 16 1d 56 bf 50 c1 27 bf 4d cb 07 bf 74 09 db be
       -0.8363813 -0.65529346 -0.5304459 -0.4278065
0002c0 da 11 b7 be 3b fd 79 be 97 11 45 be ab 31 51 be
       -0.35755807 -0.24413006 -0.19244991 -0.20429103
0002d0 c2 02 4b be 29 fe 37 be 54 a5 12 be cd 44 f2 bd
       -0.19825271 -0.17968048 -0.1432088 -0.11829529
0002e0 54 6d c2 bd 5e 38 9c bd 5b 5b ca bd 5f 34 21 be
       -0.09493509 -0.07627939 -0.09880706 -0.15742634
0002f0 58 f6 88 be c9 13 b9 be a5 c0 f7 be 3e a8 26 bf
       -0.26750445 -0.36147907 -0.48389164 -0.6510047
000300 5c 28 48 bf 73 af 5e bf 14 d9 6d bf 1b 6b 7c bf
       -0.78186584 -0.86986464 -0.9290936 -0.9860093
000310 18 4e 7f bf 26 d4 7c bf 4e 40 76 bf 0c 3b 6a bf
       -0.99728537 -0.9876121 -0.9619187 -0.9149635
000320 e3 9b 4b bf 4e 82 1a bf d1 bf f7 be 35 12 c4 be
       -0.7953474 -0.6035508 -0.48388532 -0.3829514
000330 15 22 ac be f2 7a 74 be df 66 3e be 00 5a 42 be
       -0.33619753 -0.23875025 -0.1859393 -0.18979645
000340 b5 0c 32 be 2b 90 1b be 35 40 fc bd 9b e6 7c bd
       -0.1738766 -0.15191714 -0.12316934 -0.06174336
000350 0f cd ba bc 3e 55 a5 bc 29 34 65 bd 8a 9f ec bd
       -0.022802858 -0.020182248 -0.055957947 -0.11553867
000360 d2 5b 61 be 7b a1 99 be bf d2 ce be e2 3d 13 bf
       -0.22007683 -0.30006012 -0.40395162 -0.575163
000370 c6 9a 39 bf 13 98 53 bf f1 a0 67 bf 0e 87 7a bf
       -0.7250179 -0.8265392 -0.9047995 -0.9786233
000380 26 1e 7f bf fb f4 7a bf 43 28 73 bf e7 2e 64 bf
       -0.9965538 -0.9803006 -0.9498331 -0.8913407
000390 7e d9 41 bf d6 c9 11 bf 3b 88 e4 be 53 1a ad be
       -0.7572249 -0.569486 -0.44635186 -0.33809146
0003a0 50 b4 9c be 9b 7f 75 be 05 63 38 be 10 57 30 be
       -0.30606318 -0.23974459 -0.18006523 -0.17220712
0003b0 31 77 19 be 7a d2 e4 bd a4 7d c8 bd 18 bc 1d 3c
       -0.14986874 -0.11172958 -0.09789589 0.009627365
0003c0 42 25 68 3d 66 21 39 3d 02 f1 85 bc 15 d1 83 bd
       0.056676157 0.045197867 -0.016350273 -0.064363636
0003d0 84 a7 14 be 8f fe 57 be ed 03 aa be 6c 1f 02 bf
       -0.14517027 -0.210932 -0.3320612 -0.50829196
0003e0 a7 d1 25 bf 2f 55 44 bf a8 8a 5e bf 26 c1 77 bf
       -0.6477303 -0.7669248 -0.8693032 -0.96779096
0003f0 33 b5 7e bf 07 2f 79 bf 85 b7 70 bf 5b ab 60 bf
       -0.9949524 -0.97337383 -0.9403003 -0.8776147

normalize.running_var f4 [784]
000000 c8 4e 82 32 63 8b d4 36 25 3d a2 37 66 25 d1 39
       1.5169817e-08 6.334319e-06 1.9340378e-05 0.0003989145
000010 46 2a 4d 3b 16 75 8b 3b 07 0d a0 3b 84 5e 72 3c
       0.0031305715 0.004255901 0.0048843655 0.014793042
000020 30 b8 f9 3c 5f b5 c2 3d 0c b6 49 3e 61 e5 7f 3e
       0.030483335 0.0950725 0.19698352 0.24989845
000030 27 20 93 3e d7 2f 8d 3e 12 4d 8d 3e ca 67 93 3e
       0.28735468 0.2757556 0.27597862 0.28790122
000040 ce ed 8b 3e d4 c8 70 3e dd 99 23 3e 3c 0f 6d 3d
       0.27329868 0.2351411 0.15976663 0.057875857
000050 9b 04 e1 3c f7 55 4a 3c da 93 66 3c 37 f4 d4 3b
       0.027468016 0.012349597 0.0140733365 0.0064988392
000060 a0 e7 75 3b 76 93 11 3b 8d 54 59 3b d1 92 03 39
       0.0037522092 0.0022213138 0.0033161968 0.00012547827
000070 ad 4f d3 33 45 fe 17 37 e3 fc 7d 3a 2d 72 46 3b
       9.839946e-08 9.059503e-06 0.0009688867 0.0030280456
000080 53 8b 7b 3b f4 5d 18 3c 6d 43 50 3d 50 a4 1e 3e
       0.0038382604 0.009299744 0.050845552 0.15492368
000090 ec 38 92 3e 5b ec e0 3e 3f 0c 12 3f aa 76 1c 3f
       0.28559053 0.43930325 0.57049936 0.61118567
0000a0 e7 b1 2b 3f ba 29 27 3f 77 2f 24 3f c7 56 2a 3f
       0.6706833 0.65298045 0.64134926 0.6653866
0000b0 d0 be 22 3f 6e 47 16 3f a6 61 07 3f d8 1b bd 3e
       0.63572407 0.58702743 0.52883375 0.36935306
0000c0 9c 40 63 3e fe 5f d6 3d 9c 36 3e 3d e1 5d d8 3c
       0.22192615 0.10467528 0.0464388 0.026411952
0000d0 f8 66 92 3c cc af 19 3c a9 dc 9c 3b 7f 84 c1 38
       0.017871365 0.009380292 0.004787047 9.2276365e-05
0000e0 3a 66 f3 35 19 fb ae 38 22 15 31 3b c4 02 a6 3b
       1.8134663e-06 8.343737e-05 0.0027020653 0.0050662477
0000f0 07 45 35 3c 37 0a 83 3d 60 05 57 3e 3d a9 a6 3e
       0.011063821 0.06398433 0.20998144 0.32550994
000100 88 ce d6 3e a8 0b f7 3e e4 fd 0e 3f 25 77 0f 3f
       0.41954446 0.4825108 0.55856156 0.56041175
000110 3d e7 14 3f 84 a2 18 3f ef ba 1b 3f 28 54 19 3f
       0.5816534 0.5962298 0.60832113 0.5989404
000120 4f bc 0e 3f 61 58 0c 3f 3c 09 08 3f 65 8d eb 3e
       0.55756086 0.54822356 0.5313909 0.46006313
000130 ac e8 c4 3e 54 18 8f 3e 18 3c 1a 3e ea 88 70 3d
       0.38458765 0.27948248 0.15061986 0.05872432
000140 e6 09 da 3c b3 7c 78 3c 26 32 30 3c 83 75 cf 3a
       0.026616048 0.015166449 0.010754144 0.0015827868
000150 10 1a cf 36 1b 90 a5 39 e4 2b 5b 3b 38 e5 1b 3c
       6.172115e-06 0.0003157862 0.003344291 0.009515099
000160 fd d7 16 3d d6 12 1f 3e b7 ce 9d 3e ae 7d c7 3e
       0.036827076 0.15534529 0.30821773 0.38963073
000170 0e 34 f4 3e f5 32 03 3f 2a 0e 11 3f c1 2b 0d 3f
       0.47695965 0.5124963 0.5666224 0.5514489
000180 22 39 11 3f 81 53 14 3f e3 f2 13 3f 5d 08 11 3f
       0.567278 0.57939917 0.5779249 0.56653386
000190 7e d4 0b 3f 3a 21 08 3f ff cc 0a 3f af 9f fd 3e
       0.5462111 0.531757 0.5421905 0.4953589
0001a0 fd 3c e8 3e 32 87 bf 3e 07 8e 89 3e 3f e7 0f 3e
       0.4535903 0.37407833 0.2686617 0.14053057
0001b0 a9 e3 8a 3d 7f ea f2 3c 74 d7 91 3c 15 fc 53 3b
       0.06781704 0.029652832 0.017802931 0.0032346298
0001c0 04 a5 d6 39 97 ba 58 3b 87 17 55 3c 3f 5a a3 3c
       0.00040940207 0.00330702 0.013006098 0.019940494
0001d0 d9 0a a9 3d fc e9 6f 3e 03 be c5 3e f5 7f eb 3e
       0.08254022 0.23429102 0.3862153 0.4599606
0001e0 dd 13 04 3f 3a f3 03 3f ee 60 0f 3f 1d de 09 3f
       0.5159281 0.5154301 0.5600728 0.5385454
0001f0 25 61 0c 3f 5a a8 0e 3f b7 0a 0f 3f 63 67 0b 3f
       0.5483573 0.55725634 0.55875725 0.5445463
000200 b7 5e 09 3f 5a 40 06 3f 5c a8 08 3f 5c 57 04 3f
       0.5366015 0.5244194 0.53381896 0.516958
000210 a2 fb 00 3f 29 93 e7 3e 96 56 b5 3e 51 df 60 3e
       0.5038396 0.45229462 0.35417622 0.21960188
000220 7c 53 dc 3d aa be 7c 3d 11 79 d0 3c 01 ce 1e 3b
       0.10758111 0.06170527 0.025448354 0.0024231675
000230 a9 2f c8 3a 82 08 07 3c d4 21 91 3c c6 cd 18 3d
       0.0015272993 0.0082417745 0.017716326 0.037305616
000240 b3 01 08 3e bd 22 9b 3e 66 8f e3 3e 8a 59 fc 3e
       0.13281898 0.3029994 0.44445342 0.49287063
000250 99 90 07 3f f0 44 06 3f 9b 30 0c 3f d9 7d 08 3f
       0.52955014 0.5244894 0.54761666 0.5331703
000260 6e b1 09 3f 97 73 09 3f d8 26 0b 3f a1 3b 0a 3f
       0.5378636 0.53692 0.54356146 0.53997236
000270 5d 6e 05 3f 51 2b 04 3f 64 a0 03 3f 12 02 03 3f
       0.52121526 0.51628596 0.5141661 0.51175034
000280 f7 4a 09 3f 6a 6c 00 3f 90 18 d6 3e dc a8 92 3e
       0.5363001 0.50165427 0.41815615 0.28644454
000290 10 d5 33 3e 5b da e2 3d 5a 62 53 3d d2 cb d8 3b
       0.17561746 0.11076804 0.051607467 0.006616094
0002a0 2c 79 c8 3a 1d 19 2d 3c d0 60 e1 3c 97 ca 86 3d
       0.0015294901 0.0105650695 0.027511984 0.0658161
0002b0 a7 2a 41 3e a7 0e b4 3e f7 a9 ee 3e f2 0c 06 3f
       0.18863927 0.3516743 0.46614048 0.523635
0002c0 62 8f 07 3f 3a 88 06 3f 94 8e 06 3f 25 7a 04 3f
       0.5295316 0.52551615 0.52561307 0.5174888
0002d0 81 37 06 3f bc 0f 06 3f bd 1c 07 3f 8b d6 04 3f
       0.5242844 0.5236776 0.52778226 0.51889867
0002e0 81 98 f8 3e a9 4e fb 3e b9 89 fd 3e d5 3d 02 3f
       0.4855385 0.4908345 0.49519137 0.508756
0002f0 48 ed 0b 3f 64 d2 07 3f f3 3c ee 3e 4d 81 ba 3e
       0.5465894 0.53055406 0.46530876 0.36426774
000300 05 76 79 3e 94 3a 1e 3e d1 3b b1 3d c9 05 29 3c
       0.24361427 0.15452033 0.08653987 0.010316321
000310 2d ea c7 3a 7d 79 5b 3c af 47 36 3d 1a 9d c5 3d
       0.0015252285 0.013395664 0.044501957 0.09649105
000320 0e 8a 6e 3e 67 4c d0 3e 16 6e fb 3e 31 4a 0d 3f
       0.23294851 0.4068329 0.49107426 0.5519133
000330 1a 6c 0a 3f 0b 32 05 3f 3e d0 07 3f 37 ed 02 3f
       0.540712 0.52029485 0.5305213 0.5114321
000340 61 36 07 3f 99 a5 04 3f 7f a6 01 3f e4 32 02 3f
       0.5281735 0.5181518 0.5064468 0.508589
000350 3b 65 ef 3e d1 1f ef 3e f4 6d f4 3e 84 35 fb 3e
       0.4675692 0.46703961 0.47740138 0.49064267
000360 a9 71 0d 3f 1f 20 0c 3f 56 b6 03 3f 4c 33 d8 3e
       0.55251557 0.5473651 0.514501 0.42226636
000370 7d d7 9d 3e 55 4f 4f 3e ef 8e e9 3d 49 9e 83 3c
       0.30828467 0.20245107 0.114042155 0.016066687
000380 dd 3c 08 3b 56 ef aa 3c ef f0 7c 3d 29 14 02 3e
       0.002078823 0.020866077 0.06175321 0.12703003
000390 51 0a 8c 3e 78 2f e0 3e 6f e6 04 3f eb f1 13 3f
       0.2735162 0.43786216 0.51914114 0.5779101
0003a0 18 f2 0e 3f fa 94 05 3f a0 50 05 3f 95 bb 03 3f
       0.55838156 0.52180445 0.5207615 0.514581
0003b0 da d8 04 3f 6f 88 02 3f f6 af f3 3e 58 9a eb 3e
       0.5189339 0.5098943 0.47595185 0.46016192
0003c0 75 a3 d6 3e da a1 d4 3e e8 f5 ee 3e 0d e6 fd 3e
       0.41921583 0.41529733 0.46671987 0.49589577
0003d0 01 3c 0f 3f b5 a9 13 3f 97 89 07 3f 0b c3 e6 3e
       0.55950934 0.5768083 0.5294432 0.4507068
0003e0 ff 32 bf 3e b7 0b 84 3e f5 46 23 3e 02 5d c4 3c
       0.37343594 0.25790188 0.15945037 0.02397013
0003f0 a6 80 5b 3b b2 cd f0 3c 49 f6 9b 3d d1 3e 13 3e
       0.0033493428 0.029394958 0.076153345 0.14379431

fc1.weight f4 [128, 784]
000000 e1 65 61 3c 23 6a f9 bd e8 df 3f bc 40 79 40 3d
       0.0137572 -0.12178447 -0.011711098 0.046990633
000010 68 34 f8 bb 2f 39 48 3d 6d 89 86 3d 04 85 14 3d
       -0.0075746067 0.04888266 0.06569181 0.036259666
000020 8c 46 88 3d a7 f0 9c 3a e4 c0 0e 3e 78 0e ee 3d
       0.06654081 0.0011973575 0.1394077 0.116238534
000030 4b 4e c7 bb 25 0b af 3d ed 7c 9c 3d 17 b8 66 3c
       -0.0060823313 0.085470475 0.07641015 0.014081976
000040 8a c3 ff 3d 6a 63 11 3d 13 81 d7 3d 43 e7 d2 3d
       0.12488468 0.0354952 0.10522666 0.10298016
000050 5f ea f5 3d ed 6d 12 3d 2f 63 77 3d 95 2d a4 3c
       0.12007593 0.035749365 0.060397323 0.020041266
000060 c1 29 75 3d 44 c3 c9 bd dd 7a 9e 3d c3 e9 59 bc
       0.059854273 -0.09851697 0.07738278 -0.013300362
000070 8f c6 20 3c 89 8e 13 be a8 01 9f 3c 6f 03 45 bd
       0.009812965 -0.14409842 0.01940997 -0.048098978
000080 15 b7 19 bc 51 f5 4a 3d ee d2 d8 3c 2f 5e 7c 3d
       -0.009382029 0.04955036 0.026467767 0.061613258
000090 18 1c 98 bd 4b 84 3e bc 3b 2c 65 3d 40 9a 2d 3d
       -0.074272335 -0.011628221 0.055950385 0.042383432
0000a0 51 d0 e0 3c 9b d3 fb 3c 2d cb 96 3c 93 f7 ca bb
       0.027443083 0.03074055 0.018407429 -0.006194064
0000b0 8c 5b 8f 3d 8f fd 68 3d 7f 1e ee bc da ee fd 3c
       0.06999883 0.056882437 -0.029067276 0.030997682
0000c0 47 67 2a 3c 07 da a0 3c 82 5e 1d 3b fe 00 e5 3c
       0.0104006 0.019635214 0.002401263 0.027954575
0000d0 38 58 2f 3d 56 8d 7c bc 29 37 63 bb eb af f6 3c
       0.04280874 -0.0154145565 -0.003467033 0.030113181
0000e0 33 3c 0e bd 15 dd d0 bd 03 c6 15 bd 30 49 56 bc
       -0.03472538 -0.10198418 -0.03656579 -0.013078973
0000f0 25 c4 db bc 3a a9 a5 3d f8 f0 94 3d 13 f3 b7 ba
       -0.026826927 0.08088918 0.07272524 -0.0014034234
000100 94 ba 8f bd 27 6d a3 bb 35 3d 24 3c 35 6d 69 bc
       -0.07018009 -0.004987377 0.0100243585 -0.014247228
000110 91 bb 68 bd dc c6 46 39 3e c4 1e bc e3 6f 29 3d
       -0.056819502 0.00018956832 -0.0096903425 0.04136647
000120 39 6e 80 3d b7 cf 66 3b f4 1b d8 bc 5a c6 24 bd
       0.06271023 0.0035219023 -0.026380517 -0.040228225
000130 86 05 3f bd b1 eb d9 b8 6a 2a c9 3c 5d 9e 17 bb
       -0.046636127 -0.00010391267 0.024556357 -0.0023135163
000140 54 5f 27 bd b2 78 41 bc 59 12 72 bb ec 6e 27 bc
       -0.040862396 -0.011808561 -0.0036937206 -0.010219317
000150 89 83 95 bb 87 cd b1 bc 2c 59 af bd 3b 33 2b bc
       -0.0045627994 -0.021704448 -0.0856193 -0.010449226
000160 b4 ec 9a 3d 98 81 a9 3d 37 42 2d 3d 01 69 43 3c
       0.07564679 0.08276671 0.042299476 0.01192689
000170 bc df 91 bc fb 73 a8 bb 27 27 0a 3c 31 28 ab bc
       -0.01780688 -0.005140779 0.008432186 -0.020893188
000180 4c e5 32 bd 56 ba eb bc 04 3d 20 3d ca ab 32 3c
       -0.043675706 -0.028775375 0.03912069 0.0109052155
000190 4a 5b 24 3c c8 b3 00 bd f2 e7 cb bc 22 01 c7 3c
       0.010031531 -0.031421453 -0.024890874 0.024292532
0001a0 33 d0 7d bc 22 a7 01 3d dc 7d 85 3b 40 85 c7 3c
       -0.015491533 0.03165353 0.0040738415 0.02435553
0001b0 59 92 41 3d c8 1d d4 bc 57 cc e0 3c 79 4b 46 bd
       0.04725871 -0.025893107 0.027441187 -0.04841182
0001c0 c4 d2 97 3c c3 eb 82 bd e3 3a b7 ba ed c7 0c 3d
       0.018533118 -0.06392624 -0.0013979342 0.03437035
0001d0 04 e5 b6 3d 92 ae 1f 3d 6a 2c 57 3d a3 16 45 3c
       0.089304 0.038984843 0.05253259 0.012029323
0001e0 f4 0a 59 bd b8 9d 2f 3d d4 e3 91 bd 44 a1 66 bd
       -0.05298896 0.04287502 -0.07123533 -0.05630614
0001f0 63 e5 89 bc d4 8d 9b 3b 5f 98 3b bd c6 50 7a bd
       -0.016833013 0.004747132 -0.04579961 -0.061112188
000200 a8 31 e6 3c d2 be 91 bd a2 b6 6e bd 7f 75 2d 3d
       0.02809985 -0.07116474 -0.05827964 0.04234838
000210 dd d5 f1 bc d9 f4 44 3c 36 02 64 ba 51 23 38 3d
       -0.029520923 0.012021267 -0.0008697839 0.044955555
000220 a4 34 30 3d 8c b4 8c ba 7e 69 05 3d f4 36 a9 bc
       0.043018952 -0.001073496 0.03257131 -0.020656087
000230 6f b3 33 bd a0 7b 0b bd cd b4 6b bd 8b 26 03 bd
       -0.043872293 -0.034053445 -0.057545472 -0.03201918
000240 53 fd a9 3d ae 5b 25 3d 83 3c ea 3c 55 93 b9 ba
       0.08300271 0.040370636 0.028593307 -0.0014158288
000250 27 03 7f bd 91 04 92 3c 26 93 27 bd 9e 42 f9 bc
       -0.062258866 0.017824443 -0.040911816 -0.030427273
000260 c5 cb 6d bd 22 d3 b8 bb 83 21 0a 3d 67 0f 16 3d
       -0.058055658 -0.0056404034 0.033723366 0.036635783
000270 fb 2e f6 3c fe ab 06 bc a4 74 c9 bc 48 c6 11 bd
       0.030051699 -0.008219717 -0.024591751 -0.035589486
000280 ee 07 8f bd 4f 04 11 bd 79 32 5e 3c 4e 31 c7 3c
       -0.06983934 -0.0354045 0.013561838 0.024315502
000290 6c c5 84 3c 5a 59 a5 3c 98 d0 4a 3b b6 1a 1f 3c
       0.01620742 0.020184208 0.0030947085 0.009710958
0002a0 e7 62 f0 bc 4e 30 a2 bd 6c ad 94 bd 74 9c 28 3c
       -0.029344035 -0.0791937 -0.0725964 0.010291208
0002b0 42 2f 7e 3d f2 c9 92 3c 9c c6 37 bc 16 58 a6 3c
       0.062056787 0.01791856 -0.011216786 0.020305675
0002c0 6d 24 d7 bb 4c 1e 51 bd 0a b5 0b bd f8 a3 ed bc
       -0.0065656216 -0.051054284 -0.0341082 -0.02900885
0002d0 69 9c 46 bd 3f f2 64 3d 3a 24 7a 3d 1e 55 bb 3c
       -0.048489008 0.055895086 0.061069705 0.022867735
0002e0 c6 65 b6 ba f1 1d 61 3d 7f 77 01 bd 8b c8 80 bc
       -0.0013915829 0.054960195 -0.0316081 -0.015720626
0002f0 da 99 0a bd 3b 88 67 bd 4d b5 31 bd 6f 17 8e bd
       -0.03383813 -0.056526404 -0.043385793 -0.06938063
000300 bf 16 45 bc 76 2a ac 3c f2 53 3a 3d 1a 9c 93 3d
       -0.012029349 0.02101634 0.045490213 0.072075084
000310 35 bf 53 bd 48 46 88 3c 5d ff 02 bd 88 3e ea bc
       -0.05169602 0.016635075 -0.031981815 -0.02859427
000320 ad 73 9c 3a 82 bd 53 3c 98 6f 1b 39 3b ee f8 3a
       0.001193633 0.0129236 0.00014823524 0.0018991897
000330 95 19 bf bd 46 b2 74 bc bd 2a 3f bd c1 a6 8c bd
       -0.09331051 -0.014935082 -0.046671618 -0.06867743
000340 86 66 83 bd 2b dd 53 bc 8c 66 69 3d d1 40 09 bc
       -0.06416039 -0.0129311485 0.056982562 -0.00837727
000350 d4 65 e6 ba bd 5e d1 3d 14 70 92 bb 95 99 39 3c
       -0.0017577955 0.10223148 -0.004468927 0.011328121
000360 e3 62 dc 3a f8 3a 89 3c 25 7c 32 3c 69 29 36 bd
       0.0016814139 0.016751751 0.010893856 -0.044473086
000370 61 26 aa 3c 16 62 77 3d 58 66 8e 3c 50 09 45 3c
       0.020770254 0.060396276 0.017382786 0.012026146
000380 81 02 d8 bc 62 4d a2 bd f5 9d da 3c 85 4d 9b bc
       -0.026368381 -0.07924916 0.026686648 -0.018957863
000390 cf 49 ca 3c 21 93 07 3d 27 3d 2f 3b b2 e1 a1 ba
       0.024693398 0.033099297 0.002673933 -0.0012350588
0003a0 76 b6 11 bd 2e cf 61 bd f8 ee d8 3c 91 89 2f bd
       -0.0355744 -0.055129223 0.026481137 -0.042855803
0003b0 b8 3a 5e bd 6f 13 f6 bc e5 13 01 bd 21 ed 40 3d
       -0.054255217 -0.030038564 -0.031513114 0.047101144
0003c0 53 59 02 3d 4d 8b 03 3e c1 58 48 3d 62 88 5a bc
       0.031823467 0.12846108 0.048912767 -0.01333818
0003d0 ed 4e 2d bd ac 50 9c bb 35 f3 fa bc 9e 71 80 3d
       -0.042311598 -0.004770359 -0.030633548 0.06271671
0003e0 8c f2 8d 3d 0a 9f 9c 3d d7 a1 e7 bc e3 90 79 3c
       0.06931028 0.07647522 -0.028275413 0.015232298
0003f0 2b f3 ca 3c 8f 07 5a bd 4a 33 64 bd 62 d8 b5 bc
       0.024774155 -0.053229865 -0.055712976 -0.022197906

fc1.bias f4 [128]
000000 39 47 aa bd de 7f ab bd 8e b3 85 3b 45 6e 35 bd
       -0.08314366 -0.08373998 0.0040802425 -0.044294614
000010 83 2e be bc d7 ad b2 bc 99 da a0 3d 9c 75 90 bd
       -0.023215538 -0.021811409 0.07854194 -0.07053682
000020 2d 5a 57 bd b4 a5 6a bd 20 ea 9c bc 9a 01 93 bd
       -0.052576233 -0.057286933 -0.019154608 -0.0717804
000030 e3 78 ed 3b 93 67 b8 bc 5c af 66 3c 83 1a 19 bc
       0.007247077 -0.022510326 0.014079895 -0.0093447
000040 19 cf 31 bd 8e 65 ba bd 61 c6 70 3c fa c1 64 3d
       -0.043410394 -0.09101401 0.014695735 0.055849053
000050 06 ac a4 bc 27 72 6e bd a2 ce ac bc 8c 94 88 bd
       -0.020101558 -0.058214333 -0.021094624 -0.06668958
000060 ad e1 86 3c 2d 90 40 3c 32 c1 94 3b 09 1f 7a bd
       0.016465032 0.011753124 0.0045396322 -0.061064754
000070 be 4d 26 3c 02 c6 cb bc d0 c6 c8 3c f8 88 34 bd
       0.010150371 -0.02487469 0.024508864 -0.044075936
000080 68 80 7e bd b5 c3 c0 3c cf 12 46 3d 9b 60 9e bb
       -0.062134176 0.02353082 0.04835778 -0.0048332936
000090 91 81 6d bc 69 43 63 3b 10 e2 dd bd 4b 9a d0 3c
       -0.014496223 0.003467763 -0.108341336 0.025464198
0000a0 d1 c1 b4 bc 67 fb 65 bd 24 1c a6 3c 93 29 3c bd
       -0.022065075 -0.05614796 0.02027709 -0.045938086
0000b0 f6 c0 fb bb 96 4e 12 bd 21 bd c0 bc 90 f6 97 bc
       -0.007682915 -0.035719477 -0.023527684 -0.018550187
0000c0 3f dc 8e bd d4 5b 99 3c 51 c6 ec bc 4b 37 4e 3c
       -0.06975602 0.018720545 -0.028903158 0.012586425
0000d0 30 a1 8a bd 7e 45 9b bc 87 c8 29 3c ee 78 62 bd
       -0.06769025 -0.018954035 0.010362751 -0.05529111
0000e0 77 94 d7 bc 70 d8 c9 bc 62 57 b3 bd 17 ab f2 3c
       -0.02631591 -0.024639338 -0.08756901 0.029622598
0000f0 a8 5b b8 bc f5 5b fe bc 0c cb 0d bd 58 ee 3f bc
       -0.022504643 -0.031049708 -0.03461747 -0.01171454
000100 fa 1b ef bb ea a4 e5 bc 83 eb c5 3c 20 42 2c bc
       -0.0072970362 -0.028032739 0.024160152 -0.010513812
000110 de 45 8d 3c c5 dc 65 bd b7 56 a9 bd af f5 83 bc
       0.01724523 -0.056118745 -0.08268493 -0.016108362
000120 b1 47 55 bd 05 cb 10 bd 3f 48 cd bc 4b c2 09 bc
       -0.052070323 -0.035349865 -0.025058864 -0.008408139
000130 59 f9 a1 3c c6 30 b5 bd b1 94 b3 bc 94 8b b3 bd
       0.019772219 -0.088471934 -0.021921488 -0.08766857
000140 28 83 ce 3c 05 7e a0 3b ef 9b 6c 3d 40 98 81 bd
       0.025209025 0.004897835 0.057765897 -0.063278675
000150 43 05 d1 bb 49 e1 b5 bd fb 4b 8d 3d 16 e7 8b bd
       -0.006378801 -0.0888086 0.06899258 -0.068311855
000160 e6 7b 96 bd 5d 03 38 bd b1 98 86 bd b1 7c d3 bc
       -0.073478505 -0.044925082 -0.06572092 -0.025816293
000170 98 5b 22 3c 50 8b 3d bc d7 6c 3d bd 65 de 00 bd
       0.009909533 -0.011568859 -0.046246376 -0.031462092
000180 cb 18 6f bc 2e 06 a5 bb 78 c3 49 3d a1 ca dc bc
       -0.014593313 -0.005036137 0.04925868 -0.02695209
000190 00 59 12 bd af 03 07 bd 35 7a 9e bd 96 fd a7 3c
       -0.03572941 -0.032962497 -0.07738153 0.020506661
0001a0 85 ed 07 be b7 4e 51 3c 02 8a 9b 3d 59 c7 84 3d
       -0.132742 0.012775115 0.07594682 0.06483335
0001b0 16 2a 2a bd 39 25 6f bd 7d e2 fc bc 3e 37 6e bc
       -0.041544043 -0.058385108 -0.030869717 -0.014539538
0001c0 06 96 a1 bc fa 97 8b bd 18 cc 0c bc 64 9b 0c 3c
       -0.019724857 -0.068160966 -0.008593582 0.00858197
0001d0 21 c9 d9 3b fe fe b4 bd 96 d6 bb bc 7a 3b 49 bc
       0.006646291 -0.088376984 -0.022929471 -0.012282247
0001e0 68 14 d3 bb cd b5 78 bd 72 3e 9c bd 4b 70 ef bc
       -0.0064416416 -0.060720254 -0.07629098 -0.02922835
0001f0 bc fa e6 bc 67 a1 b1 3c d3 a0 e4 3c b2 ba 16 bd
       -0.028195731 0.021683408 0.027908718 -0.03679914

fc2.weight f4 [64, 128]
000000 69 da a0 3d 27 42 82 3d 47 c9 cc bd c7 fc f5 3d
       0.078541584 0.06360274 -0.09999328 0.12011104
000010 e2 b6 63 bd 14 c5 a3 bd 9e 3e 83 be 95 90 2b 3e
       -0.055594333 -0.07996574 -0.2563371 0.16754372
000020 28 fe c3 3c 96 5d 3e bd 64 f6 be 3d 35 4c 8f bd
       0.023924902 -0.04647597 0.09324339 -0.06996957
000030 6f 28 41 3d c8 c4 0c 3d e9 6a 50 3d 92 3b c3 3c
       0.0471577 0.034367353 0.050883207 0.023832116
000040 ee 98 8a 3d 1f fe e6 bb a5 07 85 3d 15 e6 dd bd
       0.0676745 -0.0070493366 0.06495599 -0.108349
000050 57 2d 9a bc ef 1b 32 bd d7 90 9f bd c6 56 13 bd
       -0.018820448 -0.04348367 -0.07791298 -0.035971425
000060 00 8a 5b 3d 1f 19 01 be 2b e7 72 bd d9 c2 c0 3d
       0.053598404 -0.12607239 -0.05930249 0.09412164
000070 b9 87 21 be 7c b0 2d be 60 f4 a0 bc ed 53 ce 3d
       -0.1577443 -0.16961855 -0.019647777 0.10074601
000080 6f 0f 14 3e 30 78 05 3d 86 ed 49 3d 9b 95 1b 3c
       0.14459012 0.032585323 0.049298786 0.009496118
000090 44 e8 3b bd 15 3f 31 3d 4b 0a 14 3d c3 f1 d6 3d
       -0.045875803 0.04327305 0.03614263 0.10495331
0000a0 7d cf 4a 3e 6b 31 31 bd d9 2a cc bc 69 05 b1 bd
       0.19805713 -0.04326002 -0.024922775 -0.0864361
0000b0 09 14 27 bb b1 e5 d8 bd b9 d2 25 bd c1 5d 9b 3c
       -0.002549412 -0.10590685 -0.040484164 0.018965604
0000c0 d6 e7 08 3e 81 ee d4 bd 55 32 84 3d e3 74 e8 3d
       0.13369688 -0.103970535 0.064549126 0.11350419
0000d0 53 ad 9a bc 18 41 90 3d 89 e5 9c bd 3f 77 65 3d
       -0.018881476 0.07043666 -0.07660968 0.056021925
0000e0 9e 7e 92 3c 60 20 f6 bd e9 ca ae bd 3d 1b c5 3c
       0.017882641 -0.12017894 -0.08534796 0.02406084
0000f0 27 5c 43 3e bf bf 58 bd 18 97 ac bc 62 0b ff 3c
       0.19078122 -0.05291724 -0.02106814 0.031133357
000100 cd be 03 3e 7a 7b cc 3d 36 98 bf bd 5c 00 fa bd
       0.12865753 0.09984489 -0.09355204 -0.122071
000110 18 8f 02 3e d5 0e 90 3d 64 34 dd bd 66 5a 10 3e
       0.12749898 0.07034079 -0.10801008 0.14096984
000120 48 d0 dc 3b fc d5 f8 bd 1d f0 e3 3d 17 d4 72 3d
       0.0067386962 -0.12150189 0.11129782 0.059284296
000130 9e b0 33 be 81 ff 3e 3e d2 db 6e 3d d8 37 21 bd
       -0.17547843 0.18652155 0.058315106 -0.039359897
000140 2f 39 0f 3e 3a 0b 4f bc 05 42 9a 3c b0 46 57 3d
       0.13986658 -0.012636954 0.018830309 0.052557647
000150 8a 3e ca 3c 0c a3 48 bd 4e 2f 29 bd 30 8a e2 3d
       0.024688024 -0.04898362 -0.04130488 0.110615134
000160 f9 91 b7 3d a1 33 68 3e ca 7b 70 bc e7 d7 d9 bd
       0.08963389 0.22675945 -0.014677951 -0.10636883
000170 6c 61 06 3e 31 92 c3 3d 02 3f bc bc 9f 93 1b bd
       0.13123101 0.09549368 -0.022979263 -0.03798258
000180 24 d4 81 3d 61 46 51 3d ab c8 8a 3d 29 32 11 be
       0.06339291 0.05109251 0.06776556 -0.14179291
000190 58 d6 02 3e 58 b7 bc 3d 67 8f 20 3e 3d f5 d4 bd
       0.12777078 0.092146575 0.15679704 -0.10398338
0001a0 bd f0 6e bd a9 fc 88 bd 4d c9 14 3e 34 33 25 3d
       -0.058335055 -0.06688816 0.14529915 0.040332034
0001b0 7e 9e 91 bc fa 8c 6a 3d 8e 2b 01 bd 8c 58 fa bb
       -0.01777577 0.057263352 -0.031535678 -0.00763995
0001c0 e9 f9 6f bd 45 09 0e 3e 0e 44 83 bc d6 5c 53 bd
       -0.058587942 0.13870724 -0.016023662 -0.051602207
0001d0 65 cf 1b be 5a 6f cd 3d ee de 18 3e 99 fa b4 3d
       -0.15215833 0.10031004 0.14928791 0.0883686
0001e0 ef f6 62 3e 03 3d b1 bd 6f 05 34 3e 6f 34 d1 3d
       0.2216451 -0.08654215 0.17580198 0.10215079
0001f0 8a 02 21 3d 5e 30 9a bd e2 6d b6 3c 54 04 02 3c
       0.039309062 -0.075287566 0.022269193 0.007935602
000200 11 e8 c6 3d d3 1b 19 3c 79 71 69 bc 1e 85 f9 3d
       0.09712232 0.009345013 -0.014248245 0.12183593
000210 14 2c 41 3e 5d 66 a4 3d 09 27 b1 bd 9a 5a d9 3d
       0.1886447 0.08027337 -0.086500235 0.10612984
000220 52 40 d2 bd 7a 65 75 3d 12 71 32 3c ba 16 8e 3d
       -0.102661744 0.05991123 0.010891216 0.069379285
000230 fa e6 4e 39 78 f7 de bb 2b 56 89 3d 52 81 9c bd
       0.00019731736 -0.006804403 0.06705888 -0.076418534
000240 2c ea ee bd d8 99 bd 3c 4c f4 be bc 7a 04 4c 3d
       -0.116657585 0.023144647 -0.02330985 0.049808957
000250 4c 0b 4f 3d 1f 7f c9 bc 54 6e f4 3c 22 24 b8 bd
       0.050547883 -0.024596749 0.029837765 -0.08991267
000260 b1 75 ae 3d ab 98 5d bd 73 31 ec bd d6 ac 7c bd
       0.085185416 -0.054100674 -0.11532869 -0.061688267
000270 01 b5 dc 3d ab 9d ba 3d c2 5e a0 3b 89 03 3d be
       0.10776711 0.09112104 0.0048941085 -0.1845838
000280 57 e2 05 3d c1 c7 ae 3c 8e dc 13 3e 75 39 06 3d
       0.032686558 0.021335484 0.14439604 0.03276964
000290 dd 60 35 3d fa e9 3f bd de a4 4c be 8a b8 74 bd
       0.04428183 -0.046853997 -0.19984767 -0.059746303
0002a0 37 b9 a0 3d 23 5c fb bd 27 71 6a bd 78 25 1d 3c
       0.07847827 -0.12273433 -0.057236817 0.009591453
0002b0 59 2e 69 3c 00 02 13 3d 54 1c 92 bd e5 fa e7 3b
       0.014232242 0.03589058 -0.071343094 0.0070794695
0002c0 9b fa 95 bb 26 b6 de 3d 34 b8 9f bd 92 b7 0d 3c
       -0.0045769936 0.10874586 -0.07798806 0.008649724
0002d0 a7 72 bb bc d3 bf 90 3d 76 15 00 be 12 e9 fb 3d
       -0.022881819 0.070678376 -0.12508187 0.12300314
0002e0 1a 1f 56 bd b7 dc 82 3d 31 fa 2c be 43 be a5 bd
       -0.052275755 0.06389754 -0.16892315 -0.0809293
0002f0 92 89 04 3e b1 ca bd 3d dc 0b ac bd 23 57 44 3e
       0.12943104 0.09267176 -0.084006995 0.19173865
000300 82 c1 57 bd f2 cf f8 3d 88 ee 26 bd 10 9a ba bd
       -0.052674778 0.121490374 -0.040754825 -0.09111416
000310 1e f5 2b 3e 69 e3 5f bd c0 d6 5d 3c 25 b4 24 3e
       0.16792724 -0.054660235 0.01353997 0.16084345
000320 32 e7 4a 3d 63 fe 6e bd 49 78 b9 bc 49 b8 8c bd
       0.04953689 -0.05834807 -0.022640364 -0.06871087
000330 70 22 aa bc e8 17 06 3c 08 31 68 3e 4b 2f f4 3d
       -0.020768374 0.008184411 0.22674954 0.11923083
000340 44 5c 57 bb 36 25 1a 3e 16 9c 60 3d 1d a4 6d 3d
       -0.003286139 0.15053257 0.054836355 0.05801784
000350 06 97 a7 3d ca b2 32 bd 81 97 54 bc 3d be 12 be
       0.08183102 -0.043627538 -0.0129755745 -0.14330383
000360 e8 4d 9c bd d0 9a 9f bd ec c6 3e be ab 7a c7 3d
       -0.07632047 -0.077932 -0.1863057 0.09740194
000370 a0 4a 84 3d 3c dd 02 3e 16 bb bd bc fa d8 a2 3d
       0.06459546 0.12779707 -0.023160499 0.07951541
000380 d4 91 29 3b ad 36 05 3e 98 e7 be bd 96 e5 09 3e
       0.0025874274 0.13009138 -0.09321517 0.13466486
000390 71 1a b4 3d f5 db fc 3d 25 3c 95 3d 00 57 25 3d
       0.08794106 0.12346641 0.07286862 0.040366173
0003a0 5e ab ba bd 8a b0 be bd 8f 43 a7 3d 62 7e bc 3d
       -0.09114717 -0.09311016 0.08167183 0.09203793
0003b0 a8 d0 ee bb e1 4d f3 bc 01 bf 9b 3c 77 fa 1f be
       -0.0072880574 -0.029700221 0.019011976 -0.15622889
0003c0 5b a6 a7 3d 2c 6b 82 bd e4 56 d7 3d 9d 34 0a 3e
       0.08186027 -0.06368098 0.1051462 0.13496633
0003d0 40 10 bf bd 75 3c 19 3d dc fe 0b be de d4 48 bd
       -0.09329271 0.037411172 -0.1367144 -0.04903113
0003e0 f8 0a bd bd 99 ad e8 bc 69 f5 9c 3d 55 8d f9 bc
       -0.09230608 -0.02840309 0.07663996 -0.0304629
0003f0 a9 f5 da 3c 90 31 4e 3d 81 63 9a 3d 38 f7 42 bd
       0.026728468 0.050340235 0.0753851 -0.047599047

fc2.bias f4 [64]
000000 fa 22 97 bd aa e1 c4 3d ae 23 a4 3d 86 70 40 3d
       -0.07379718 0.096133545 0.08014618 0.04698231
000010 cd f7 55 3d 9f 42 cc 3d 5b ab 20 3d 04 dc a4 3d
       0.052238274 0.099736445 0.039225917 0.08049777
000020 df 95 3a 3d 5f dd b6 3d 54 cd 85 bd 16 3f b8 3d
       0.045553084 0.08928942 -0.06533304 0.08996408
000030 dc 87 1c bc 39 7f 78 3c 4c c0 cb bc 92 96 09 3d
       -0.009553876 0.015167051 -0.024871968 0.03359086
000040 70 5e 7b 3d cb aa 91 3b 5d bb ef 3d 99 c4 c6 3d
       0.06136936 0.004445409 0.117056586 0.09705467
000050 75 b6 a3 bd d5 1d 36 3d 71 c0 6e bd 47 e7 66 bc
       -0.07993785 0.044462044 -0.058288995 -0.014093227
000060 0c b4 79 3d 99 08 69 3d 73 d5 aa bd 8b 91 ab 3c
       0.06096272 0.056892965 -0.083414935 0.020943424
000070 1e 1b 59 3d 2d 5c 88 3d 5d 7d 8f 3d 92 ee 2e 3d
       0.053004377 0.06658206 0.07006333 0.042707987
000080 ac 35 4a 3d 4e de cc 3d ce d8 2a bd 73 5a 5a 3d
       0.04936759 0.10003339 -0.041710667 0.053308915
000090 48 8b 4f bd f0 02 a3 3c 0b f7 12 3e 7b b2 10 3d
       -0.05066994 0.019898862 0.14352052 0.035326462
0000a0 1a 44 23 3d 02 ec cc bd 3c d8 9e 3d fa a3 0f 3d
       0.03985987 -0.100059524 0.07756087 0.03506849
0000b0 f9 c1 12 bd 48 de 3e 3d 95 5a 8c bc 64 c9 3b bd
       -0.035829518 0.046598703 -0.017133037 -0.045846358
0000c0 31 ab 3b 3a 86 e4 36 3c e9 2d 1f 3d c8 b0 16 3d
       0.00071589934 0.011162883 0.038862143 0.036789685
0000d0 b2 a9 7f 3d e6 8b 78 bd ce 99 4a bd 10 ab 50 38
       0.062417693 -0.060680293 -0.049463086 4.975038e-05
0000e0 60 67 01 3e 8c 20 cb 3b b5 bb 00 bd 76 a0 e1 3c
       0.1263709 0.0061989482 -0.03142901 0.027542334
0000f0 ac ba 62 bd e8 b8 b6 3d 4c 20 28 3e 12 60 83 3d
       -0.055353805 0.08921987 0.1641857 0.06414808
