Eval_Models/ANN/best_model_1.pth (torch, 454208 bytes, 10 tensors)

normalize.weight f4 [784]
0	0x3f812210	1.008852
1	0x3f738643	0.9512674
2	0x3f79e301	0.97612005
3	0x3f8482e4	1.0352445
4	0x3f79fac2	0.9764825
5	0x3f8483d5	1.0352732
6	0x3f929640	1.1452103
7	0x3f88f0cb	1.0698484
8	0x3f8e5915	1.1120936
9	0x3f947420	1.1597939
10	0x3fa59b62	1.2938044
11	0x3fa0f8db	1.2575945
12	0x3f9bab69	1.2161685
13	0x3f97c943	1.1858295
14	0x3f9e1838	1.2351141
15	0x3f963321	1.1734353
16	0x3f8c2c44	1.0951009
17	0x3f9f4851	1.2443944
18	0x3f94d439	1.1627265
19	0x3f91652c	1.1359
20	0x3f8f304c	1.1186614
21	0x3f8d8f18	1.1059294
22	0x3f849e71	1.0360852
23	0x3f836b2a	1.0267079
24	0x3f8a94f7	1.082671
25	0x3f870452	1.0548193
26	0x3f7cfbd9	0.9882179
27	0x3f72baf0	0.94816494
28	0x3f89087f	1.0705718
29	0x3f8b9c71	1.0907117
30	0x3f80a0f4	1.0049119
31	0x3f820839	1.0158759
32	0x3f7aefd4	0.980222
33	0x3f5aaab5	0.8541673
34	0x3f8ab37a	1.0836022
35	0x3f8de9ac	1.1086936
36	0x3f8eaa41	1.1145707
37	0x3fa313b1	1.2740384
38	0x3fa76c98	1.3080015
39	0x3f967e88	1.1757364
40	0x3f7df835	0.9920686
41	0x3f863ca9	1.0487262
42	0x3f8b134a	1.0865262
43	0x3f886489	1.0655681
44	0x3f95835a	1.168071
45	0x3fadedfa	1.358825
46	0x3fa35e0b	1.2763075
47	0x3f9043a2	1.127064
48	0x3f94899b	1.1604494
49	0x3f8381f8	1.0274038
50	0x3f82a091	1.0205251
51	0x3f890d13	1.0707115
52	0x3f854de4	1.0414395
53	0x3f8b0fc1	1.0864183
54	0x3f847b42	1.0350115
55	0x3f7510a1	0.957285
56	0x3f7af430	0.9802885
57	0x3f88a5e9	1.0675632
58	0x3f823e9e	1.0175359
59	0x3f846a3a	1.0344918
60	0x3f7fa095	0.99854404
61	0x3f789a7e	0.97110736
62	0x3f914363	1.134869
63	0x3f95385b	1.1657823
64	0x3f884d35	1.0648562
65	0x3f8cf58c	1.1012435
66	0x3f836446	1.0264976
67	0x3f6ee155	0.9331258
68	0x3f76e4e0	0.96442986
69	0x3f8c9810	1.0983906
70	0x3f9d9558	1.2311201
71	0x3f94affa	1.1616204
72	0x3f7df375	0.9919961
73	0x3f698494	0.91217923
74	0x3f63aaa9	0.8893228
75	0x3f7cb44b	0.98712605
76	0x3f8d9dfa	1.1063836
77	0x3f91ea26	1.1399581
78	0x3f854716	1.0412319
79	0x3f822fc6	1.0170829
80	0x3f816c92	1.0111258
81	0x3f824bc5	1.0179373
82	0x3f7c1632	0.9847137
83	0x3f7becb8	0.9840808
84	0x3f840899	1.0315124
85	0x3f68f79b	0.91002816
86	0x3f7c3d55	0.98531085
87	0x3f81cc42	1.014046
88	0x3f65cf2e	0.89769256
89	0x3f822746	1.0168235
90	0x3f8f3e04	1.1190801
91	0x3f9bf7c2	1.2184985
92	0x3f9699a4	1.1765637
93	0x3f7cabc5	0.986996
94	0x3f72de01	0.9487
95	0x3f62fd34	0.8866761
96	0x3f7b0e3f	0.9806861
97	0x3f8d69ee	1.1047952
98	0x3f98b59b	1.1930422
99	0x3f8bcf23	1.0922588
100	0x3f506d9c	0.8141725
101	0x3f6868a2	0.90784657
102	0x3f673794	0.9031918
103	0x3f81ce5e	1.0141103
104	0x3f90a5d1	1.1300603
105	0x3f8f1f03	1.1181339
106	0x3f8e0adc	1.1097064
107	0x3f817f5c	1.0116992
108	0x3f8059c5	1.0027395
109	0x3f8f56b9	1.1198341
110	0x3f79794f	0.9745073
111	0x3f73e126	0.95265424
112	0x3f6e8ba0	0.931818
113	0x3f7b5ade	0.9818553
114	0x3f7e1add	0.9925974
115	0x3f774511	0.9658976
116	0x3f7f2061	0.9965878
117	0x3f823b6e	1.0174387
118	0x3f8d51cd	1.1040589
119	0x3f92e264	1.1475339
120	0x3f7e957a	0.99446833
121	0x3f7af91a	0.9803635
122	0x3f7353ae	0.9504956
123	0x3f88d978	1.0691366
124	0x3f7a0b4f	0.97673506
125	0x3f8e7ec7	1.1132439
126	0x3f9801ce	1.1875551
127	0x3f85aaf7	1.0442799
128	0x3f72dc01	0.9486695
129	0x3f752e86	0.95774114
130	0x3f623ce4	0.8837416
131	0x3f617993	0.8807613
132	0x3f838547	1.0275048
133	0x3f8fa434	1.1221986
134	0x3f8e9580	1.1139374
135	0x3f8de242	1.1084673
136	0x3f88606c	1.0654426
137	0x3f8ec807	1.1154794
138	0x3f8153cb	1.0103697
139	0x3f815cfb	1.01065
140	0x3f85daff	1.0457457
141	0x3f7ab7d5	0.97936755
142	0x3f770d73	0.96504897
143	0x3f6a38dd	0.91493016
144	0x3f8d7fd5	1.1054636
145	0x3f884b67	1.0648011
146	0x3f823e15	1.0175196
147	0x3f8a4ef2	1.0805342
148	0x3f744beb	0.9542834
149	0x3f82dcf4	1.022368
150	0x3f826501	1.0187074
151	0x3f8c1fa2	1.0947154
152	0x3f80390b	1.0017408
153	0x3f8a9f1d	1.0829808
154	0x3f96d465	1.1783568
155	0x3f7e55d4	0.99349713
156	0x3f83d918	1.0300627
157	0x3f6f4f21	0.93480116
158	0x3f5400cd	0.8281372
159	0x3f6312b7	0.8870043
160	0x3f6de6cf	0.9293031
161	0x3f89819b	1.0742677
162	0x3f879733	1.0593017
163	0x3f9104ce	1.1329591
164	0x3f8c2e2b	1.0951589
165	0x3f8caca8	1.099019
166	0x3f882139	1.0635139
167	0x3f802d77	1.0013875
168	0x3f74b163	0.9558317
169	0x3f70c9c0	0.94057846
170	0x3f8119bf	1.0085982
171	0x3f82f854	1.0232034
172	0x3f870717	1.0549039
173	0x3f8fbf87	1.1230325
174	0x3f767751	0.9627581
175	0x3f863fa4	1.0488172
176	0x3f6687d2	0.90050995
177	0x3f83fa74	1.0310807
178	0x3f82f7c1	1.0231858
179	0x3f810bd1	1.0081731
180	0x3f820d83	1.0160373
181	0x3f812b11	1.0091268
182	0x3f91365b	1.1344713
183	0x3f715828	0.9427514
184	0x3f790ce7	0.9728531
185	0x3f82016f	1.0156687
186	0x3f8bc8e5	1.0920683
187	0x3f828e46	1.0199668
188	0x3f729853	0.9476368
189	0x3f7da42c	0.9907863
190	0x3f88b205	1.0679327
191	0x3f947d34	1.1600709
192	0x3f8bc153	1.0918373
193	0x3f9ca0bd	1.2236553
194	0x3f973a1f	1.1814612
195	0x3f813eec	1.0097327
196	0x3f8536ca	1.0407345
197	0x3f798ad3	0.97477454
198	0x3f83a993	1.0286125
199	0x3f833076	1.0249164
200	0x3f8e1e40	1.1102982
201	0x3f8dab34	1.1067872
202	0x3f8176eb	1.0114416
203	0x3f82d53b	1.0221323
204	0x3f919f98	1.1376829
205	0x3f741943	0.95351046
206	0x3f7a41b2	0.97756493
207	0x3f804516	1.0021083
208	0x3f7bfa13	0.9842846
209	0x3f8585fd	1.0431515
210	0x3f8dbd07	1.1073312
211	0x3f766ef2	0.9626304
212	0x3f7eb752	0.99498475
213	0x3f840338	1.0313482
214	0x3f91937b	1.1373132
215	0x3f8f39e1	1.1189538
216	0x3f6d57f1	0.9271231
217	0x3f81c627	1.0138596
218	0x3f8e44bd	1.1114727
219	0x3f96459a	1.1739991
220	0x3f8c1088	1.0942545
221	0x3f9949fe	1.1975706
222	0x3f903889	1.1267253
223	0x3f826fea	1.0190403
224	0x3f847a85	1.034989
225	0x3f81b223	1.0132488
226	0x3f837bf5	1.0272204
227	0x3f8617fc	1.047607
228	0x3f88f7f3	1.0700668
229	0x3f8cc7f8	1.0998526
230	0x3f7d4b12	0.98942673
231	0x3f8109c5	1.0081106
232	0x3fa086a6	1.2541091
233	0x3f7c9f73	0.986808
234	0x3f824312	1.0176718
235	0x3f7c34a4	0.98517823
236	0x3f757de1	0.958952
237	0x3f84b10b	1.0366529
238	0x3f8cf3fe	1.101196
239	0x3f850fff	1.0395507
240	0x3f80ddde	1.0067708
241	0x3f8a5b4c	1.0809112
242	0x3f869f5b	1.0517381
243	0x3f87a86c	1.0598273
244	0x3f746699	0.9546905
245	0x3f76f222	0.96463215
246	0x3f8ec045	1.1152426
247	0x3f95d93c	1.170692
248	0x3f8bef31	1.093237
249	0x3f8b9bc8	1.0906916
250	0x3f8320cb	1.0244383
251	0x3f8687f7	1.0510243
252	0x3f879025	1.0590864
253	0x3f82f601	1.0231324
254	0x3f7bb690	0.98325443
255	0x3f8efc70	1.1170788

normalize.bias f4 [784]
0	0x3d0dc521	0.034611825
1	0x3c5d62a8	0.013512291
2	0x3d4fb923	0.05071367
3	0x3d4bcda1	0.04975665
4	0x3ce0bff0	0.027435273
5	0x3d220058	0.03955111
6	0x3d8b4924	0.0680106
7	0x3dda40ee	0.106569156
8	0x3db7a8d6	0.0896775
9	0x3d86cfae	0.065825805
10	0x3d438e0b	0.047742885
11	0x3d8c175e	0.068403944
12	0xbcc5c2fe	-0.024140831
13	0xbd0a164b	-0.033712666
14	0xbd5b7d28	-0.053586155
15	0xbc564e2a	-0.013080159
16	0x3c9c8bd3	0.019109642
17	0x3d79867e	0.060919277
18	0x3d972f4a	0.073820665
19	0x3cfe1840	0.031017423
20	0x3c9a1248	0.018807545
21	0x3d39cefe	0.04536342
22	0x3bd10e5f	0.006379887
23	0x3cba9755	0.022777239
24	0x3ccf4177	0.02529977
25	0x3ce5767b	0.028010597
26	0x3b87d3c1	0.004145116
27	0xbc5ea1ba	-0.013588363
28	0x3c9b4003	0.018951422
29	0xbc9f5439	-0.01944934
30	0x3b973fd3	0.0046157627
31	0x3ccef644	0.025263913
32	0x3d0d0de6	0.034437083
33	0x3cda3977	0.02663873
34	0x3db69262	0.08914639
35	0x3d8fc9d6	0.07020919
36	0x3daf6ce0	0.08565688
37	0x3cf65939	0.030071842
38	0x3d5fe2e7	0.05465975
39	0x3d32a14b	0.043610852
40	0xbc8cd3c0	-0.017190814
41	0x3c78a93f	0.01517707
42	0xbb821b50	-0.003970541
43	0x3bd7d477	0.006586607
44	0x3c05f744	0.0081766285
45	0x3c95dd19	0.018293904
46	0x3ccd8683	0.025088554
47	0x3d216b31	0.039408866
48	0x3d237232	0.039903827
49	0x3d3dc04b	0.046325963
50	0x3ad1b554	0.0015999475
51	0x3ce92344	0.028459199
52	0x3c8644a8	0.01639016
53	0x3cdd243b	0.026994815
54	0x3ab8333f	0.0014053358
55	0xbc0f3080	-0.008739591
56	0x3c93729a	0.017998982
57	0x3aac872e	0.0013162845
58	0x3cf11a35	0.029431442
59	0xbcb1f561	-0.021723451
60	0x3d9c8321	0.07642198
61	0x3dd513d3	0.10404172
62	0x3d6c1c49	0.057644162
63	0x3d829417	0.06375902
64	0x3d8b048f	0.06787979
65	0x3dab50ec	0.08365044
66	0x3d75b477	0.059986558
67	0x3d082e20	0.033247113
68	0xbc84ef2d	-0.01622733
69	0x3c3b2a21	0.0114236185
70	0x3bcb1bc1	0.006198377
71	0x3c53fbca	0.012938449
72	0xbcf7fdba	-0.030272353
73	0x3d9d3398	0.07675856
74	0x3d4985bf	0.049199816
75	0x3d899fc1	0.06719924
76	0x3d86cda5	0.06582192
77	0x3d23c20b	0.039979976
78	0x3cc5d0c0	0.024147391
79	0x3b626174	0.003454295
80	0x3d5e8143	0.054322492
81	0x3cdc45fb	0.026888838
82	0xba048214	-0.00050547835
83	0x3d3cdfb6	0.046111785
84	0x3d5aecbe	0.05344843
85	0x3d534c98	0.051586717
86	0x3d96363a	0.07334562
87	0x3d20a0f7	0.039216008
88	0x3dbfa928	0.09358436
89	0x3da304b3	0.07959881
90	0x3d9bb2b9	0.07602448
91	0x3d1ff479	0.039051507
92	0x3d26d120	0.04072678
93	0x3d88ae8b	0.066739164
94	0x3da4f82e	0.08055149
95	0x3d47bca1	0.048763875
96	0xbc024fe3	-0.007953617
97	0xbc4187da	-0.011812175
98	0x3c807585	0.015681038
99	0xba8ab61d	-0.0010582838
100	0x3cea9cd7	0.02863924
101	0x3d656a2f	0.056009468
102	0x3d2b06a6	0.041754387
103	0x3c37db36	0.011221698
104	0x3ce49371	0.027902337
105	0x3d430c8a	0.04761938
106	0x3ce2f3cf	0.027704148
107	0x3d006c62	0.031353362
108	0x3b60c4e4	0.0034297043
109	0x3cfcd9d5	0.03086559
110	0x3be5e78f	0.0070161293
111	0x3d87b7a4	0.066268235
112	0x3d5af5a8	0.053456932
113	0x3d9c4998	0.076312244
114	0x3d611998	0.05495605
115	0x3b43e290	0.002988968
116	0x3d54f062	0.05198706
117	0x3d6c78e4	0.057732478
118	0x3d6fdf09	0.058562312
119	0x3d953d94	0.07287136
120	0x3d72bfaf	0.059264835
121	0x3d5b341c	0.053516492
122	0x3d3a4df5	0.045484502
123	0x3d0d7f69	0.034545336
124	0xbc0317e2	-0.0080013
125	0x3c93f937	0.01806317
126	0x3b2f308e	0.0026731822
127	0xbd019078	-0.031631917
128	0xbc9781d0	-0.018494517
129	0x3d1cf895	0.038323004
130	0x3c039880	0.008031964
131	0x3d4b1f18	0.0495902
132	0x3cd096ec	0.02546259
133	0x3d6a937b	0.057269555
134	0x3cd52549	0.026018756
135	0x3cf84f65	0.030311296
136	0x3d12b947	0.035821225
137	0xbb3031d7	-0.0026885176
138	0x3d6ee88b	0.05832724
139	0x3d2010ab	0.039078396
140	0x3cf79d42	0.030226354
141	0x3dac0b3a	0.08400579
142	0x3d4c8f09	0.049941096
143	0x3d317153	0.043320965
144	0x3d5f42ae	0.05450695
145	0x3d7e7771	0.062125627
146	0x3d4e0a4f	0.0503028
147	0x3db3cabb	0.08778902
148	0x3dbec2b3	0.0931448
149	0x3cde685e	0.027149376
150	0x3d1ae796	0.037818514
151	0xbaa09f4a	-0.0012254503
152	0xbabbe3be	-0.001433484
153	0xbd40359c	-0.046926126
154	0xbcdf58b7	-0.027263982
155	0x3a2533b1	0.0006301953
156	0xba8919a8	-0.0010459917
157	0x3c5a6760	0.013330311
158	0x3d71a100	0.058991432
159	0x3c228053	0.00991829
160	0x3d71f7ba	0.05907414
161	0x3cf6a3dc	0.030107431
162	0x3bf41ca5	0.0074497038
163	0x3d42e8dc	0.047585353
164	0x3d26b711	0.04070193
165	0x3cb30ef9	0.021857725
166	0x3d90c4c0	0.07068777
167	0x3d175dc1	0.036954645
168	0x3d0184fa	0.031620957
169	0x3d7aae0a	0.061201133
170	0x3d1c2a79	0.038126443
171	0x3da9d7f3	0.08293142
172	0x3d71982f	0.058983024
173	0x3d97f2ea	0.07419379
174	0x3d453b26	0.04815211
175	0x3da4c045	0.08044485
176	0x3d12363b	0.03569625
177	0x3d063a12	0.032770224
178	0x3cbeaa3e	0.023274537
179	0x3cf88e7c	0.03034138
180	0x3a548238	0.00081065623
181	0xbc349b64	-0.011023376
182	0xbc09ab7a	-0.0084027
183	0x3d6f29d1	0.05838949
184	0x3cd7c591	0.026339324
185	0x3d505374	0.050860837
186	0x3d49f08b	0.049301665
187	0x3cbe0ca0	0.02319938
188	0x3d97bda1	0.07409216
189	0x3d6a8cf3	0.057263326
190	0x3cd0b43a	0.025476564
191	0x3c4acbfc	0.012377735
192	0x3d0d9446	0.034565233
193	0x3cae8c9f	0.021307288
194	0x3d460405	0.048343677
195	0x3d1f5e40	0.038908243
196	0x3d0df84f	0.034660634
197	0x3d4fbed6	0.050719105
198	0x3d47a083	0.04873706
199	0x3dae519c	0.085116595
200	0x3d8ab271	0.06772316
201	0x3d448898	0.04798183
202	0x3d929821	0.071579225
203	0x3df11bfc	0.11772916
204	0x3d13341e	0.035938375
205	0x3ca4488f	0.02005413
206	0xbaac16db	-0.001312937
207	0xbc883eb5	-0.016631464
208	0x3c94d994	0.018170156
209	0x3cc953c6	0.02457608
210	0x3cbb6e6e	0.022879805
211	0x3cfc73f6	0.030817013
212	0x3cccc925	0.024998257
213	0x3d316e71	0.043318216
214	0x3cd7bf33	0.026336288
215	0x3d4e4644	0.05035998
216	0x3d402fa2	0.046920426
217	0x3d63d1cc	0.05562
218	0x3d1d17f4	0.03835292
219	0x3cfee3c8	0.031114474
220	0x3d0c446d	0.034244943
221	0x3cfdda50	0.030987889
222	0x3cb443c7	0.022004975
223	0xbca284c0	-0.01983869
224	0x3d2f26a4	0.04276146
225	0x3dc3e5e6	0.09565334
226	0x3d9791e8	0.07400876
227	0x3d8e9b85	0.06963257
228	0x3ccf7dca	0.025328536
229	0x3d689a3f	0.056787726
230	0x3d5d0508	0.053959876
231	0x3da0c399	0.07849807
232	0x3d523fcc	0.051330373
233	0x3c781c31	0.01514344
234	0xbb5fc8be	-0.0034146751
235	0x3ba37071	0.0049877693
236	0x3d6a4165	0.05719127
237	0x3ce71b47	0.028211249
238	0x3cea957f	0.028635738
239	0x3cf02ae4	0.029317327
240	0x3d82e218	0.0639078
241	0x3c249d32	0.010047244
242	0x3c5f7736	0.013639262
243	0x3ccf8f04	0.02533675
244	0x3db59afb	0.08867451
245	0x3d8217b4	0.06352177
246	0x3c022dc2	0.00794548
247	0xbc836dce	-0.01604357
248	0xbc198032	-0.009368943
249	0xbc59d2d3	-0.013294893
250	0x3d006660	0.031347632
251	0x3c440b94	0.011965651
252	0x3d68063c	0.05664657
253	0x3d8fe36c	0.07025799
254	0x3d3f10f6	0.046647035
255	0x3d7cd4ff	0.061726566

normalize.running_mean f4 [784]
0	0xbf7ffffc	-0.99999976
1	0xbf7ffed2	-0.999982
2	0xbf7ff783	-0.9998705
3	0xbf7fb881	-0.99890906
4	0xbf7f5e64	-0.99753404
5	0xbf7e6885	-0.99378234
6	0xbf7cfadf	-0.988203
7	0xbf78ad18	-0.9713912
8	0xbf70273c	-0.93809867
9	0xbf5e73cc	-0.8689544
10	0xbf3607c7	-0.7110562
11	0xbf2479a3	-0.642481
12	0xbf1aedf5	-0.60519344
13	0xbf1b9422	-0.6077291
14	0xbf1b5e49	-0.6069074
15	0xbf14a277	-0.580604
16	0xbf18b590	-0.5965204
17	0xbf2cb3f5	-0.6746209
18	0xbf447730	-0.76744366
19	0xbf65d585	-0.8977893
20	0xbf74354c	-0.95393825
21	0xbf79e7fa	-0.97619593
22	0xbf7ca064	-0.98682237
23	0xbf7e4df1	-0.9933768
24	0xbf7f355e	-0.99690807
25	0xbf7f9c36	-0.99847734
26	0xbf7fc89b	-0.99915475
27	0xbf7ffd79	-0.99996144
28	0xbf7fffcc	-0.9999969
29	0xbf7ffcfc	-0.999954
30	0xbf7fd440	-0.9993324
31	0xbf7f4d47	-0.9972729
32	0xbf7dc705	-0.99131805
33	0xbf78fd14	-0.97261167
34	0xbf6aeffe	-0.9177245
35	0xbf550636	-0.832126
36	0xbf334a30	-0.70035076
37	0xbf0b293d	-0.543598
38	0xbea75f2f	-0.32689807
39	0xbe4d1816	-0.2002872
40	0xbdd1b4b5	-0.10239545
41	0xbdf96a9c	-0.12178537
42	0xbe0c5ca7	-0.13707219
43	0xbdc382c5	-0.09546427
44	0xbe03b713	-0.12862806
45	0xbe827c68	-0.2548554
46	0xbec650c6	-0.387335
47	0xbf19c756	-0.6006979
48	0xbf415c74	-0.755317
49	0xbf5d3eb8	-0.86423826
50	0xbf700e02	-0.93771374
51	0xbf775127	-0.96608204
52	0xbf7aa023	-0.979006
53	0xbf7e2610	-0.9927683
54	0xbf7f4658	-0.9971671
55	0xbf7fdab0	-0.99943066
56	0xbf7ffe33	-0.9999725
57	0xbf7fea96	-0.99967325
58	0xbf7fa31c	-0.9985826
59	0xbf7e3a11	-0.9930735
60	0xbf7a3875	-0.97742397
61	0xbf670c3a	-0.9025303
62	0xbf4a917e	-0.79128253
63	0xbf32b1e5	-0.69802696
64	0xbf11046e	-0.56647384
65	0xbed062d9	-0.40700415
66	0xbe6efe45	-0.23339184
67	0xbe3fc563	-0.18727641
68	0xbe2bfcdc	-0.16795677
69	0xbe22cbd4	-0.15898067
70	0xbe14393d	-0.1447496
71	0xbe1ec21f	-0.15503739
72	0xbe38df6c	-0.18053979
73	0xbe513340	-0.20429707
74	0xbe85da42	-0.2614308
75	0xbee548a3	-0.4478198
76	0xbf1e591c	-0.6185472
77	0xbf374dc0	-0.7160301
78	0xbf534663	-0.82529277
79	0xbf6d3e4c	-0.9267318
80	0xbf7483a5	-0.95513374
81	0xbf7b2677	-0.9810557
82	0xbf7de79a	-0.9918152
83	0xbf7f7c77	-0.99799293
84	0xbf7fde39	-0.9994846
85	0xbf7fabb4	-0.99871373
86	0xbf7e7db4	-0.9941056
87	0xbf7cc99f	-0.9874515
88	0xbf708d92	-0.9396602
89	0xbf5186cd	-0.81846315
90	0xbf33c694	-0.7022488
91	0xbf159a55	-0.58438617
92	0xbee9aa73	-0.45637855
93	0xbe9bbff4	-0.30419886
94	0xbe4f4234	-0.20240098
95	0xbe45697b	-0.19278519
96	0xbe2c14f1	-0.16804864
97	0xbe2bb482	-0.16768077
98	0xbe1ff49b	-0.15620653
99	0xbe2a70dd	-0.16644616
100	0xbe27f957	-0.1640371
101	0xbe31b3fb	-0.17353813
102	0xbe42858c	-0.18996257
103	0xbea1a70e	-0.31572765
104	0xbef09d60	-0.46995068
105	0xbf1c714d	-0.61110383
106	0xbf372240	-0.71536636
107	0xbf59eddc	-0.8512857
108	0xbf704f97	-0.93871444
109	0xbf7757c9	-0.96618325
110	0xbf7b2c86	-0.9811481
111	0xbf7f052c	-0.99617267
112	0xbf7fdb1b	-0.99943703
113	0xbf7f28f1	-0.99671847
114	0xbf7e034a	-0.9922377
115	0xbf7983f3	-0.97466964
116	0xbf628bb8	-0.88494444
117	0xbf4155a2	-0.7552129
118	0xbf1c8f42	-0.61156094
119	0xbefd8d7c	-0.49522007
120	0xbecdc7ef	-0.401916
121	0xbe879312	-0.26479393
122	0xbe391dc5	-0.18077762
123	0xbe38d316	-0.18049273
124	0xbe260919	-0.16214408
125	0xbe158cd8	-0.14604509
126	0xbe0b58ee	-0.13608143
127	0xbe04f9a8	-0.12985861
128	0xbe0f956e	-0.14021847
129	0xbe0da5a8	-0.13832724
130	0xbe17b520	-0.14815187
131	0xbe7b1e67	-0.24523316
132	0xbebfc847	-0.37457487
133	0xbefb57c8	-0.4909041
134	0xbf20cb10	-0.6280985
135	0xbf462897	-0.77405685
136	0xbf6464b7	-0.8921618
137	0xbf71b021	-0.94409376
138	0xbf78d5c7	-0.972012
139	0xbf7e486b	-0.9932925
140	0xbf7f7c4d	-0.9979904
141	0xbf7d8b44	-0.9904063
142	0xbf7bb30e	-0.9832009
143	0xbf7185c8	-0.9434476
144	0xbf54e908	-0.8316808
145	0xbf2f0a27	-0.68374866
146	0xbf09459a	-0.5362183
147	0xbee2f45b	-0.44327053
148	0xbeb673fa	-0.35635358
149	0xbe6aab4d	-0.22916909
150	0xbe23f349	-0.16010775
151	0xbe222e17	-0.15837894
152	0xbe1b7861	-0.1518264
153	0xbe083c3a	-0.13304225
154	0xbdde6e2c	-0.10860857
155	0xbde0fbbd	-0.10985515
156	0xbddb0c36	-0.106956884
157	0xbdc5b1d1	-0.096530564
158	0xbde4ef5b	-0.11178466
159	0xbe4cf1f2	-0.2001417
160	0xbea03ec9	-0.312979
161	0xbed145b4	-0.40873492
162	0xbf08fb07	-0.5350804
163	0xbf30f83a	-0.69128764
164	0xbf52c509	-0.823319
165	0xbf667cff	-0.9003448
166	0xbf70a818	-0.9400649
167	0xbf7c1d5a	-0.98482287
168	0xbf7ed8de	-0.99549663
169	0xbf7b822e	-0.98245513
170	0xbf77c12e	-0.96779144
171	0xbf683b61	-0.90715605
172	0xbf4a726b	-0.7908084
173	0xbf1f5294	-0.6223538
174	0xbef40870	-0.47662687
175	0xbec69850	-0.3878808
176	0xbea16d2b	-0.315286
177	0xbe53bbb4	-0.20677072
178	0xbe1d1d4d	-0.15343209
179	0xbe1247da	-0.14285222
180	0xbe00598f	-0.12534164
181	0xbdd90151	-0.10595954
182	0xbd9f6d80	-0.07784557
183	0xbd85b186	-0.065280005
184	0xbd5b5512	-0.053547926
185	0xbd6030d0	-0.05473405
186	0xbda075fc	-0.07835004
187	0xbe0c8847	-0.1372386
188	0xbe82c076	-0.2553746
189	0xbea96cd3	-0.3309084
190	0xbee3a977	-0.4446523
191	0xbf1e1fa0	-0.61767006
192	0xbf40ecc0	-0.7536125
193	0xbf58e7c1	-0.8472863
194	0xbf686419	-0.90777737
195	0xbf7958ac	-0.9740093
196	0xbf7dff15	-0.9921735
197	0xbf7890ab	-0.97095746
198	0xbf72c78c	-0.94835734
199	0xbf60fc5e	-0.8788508
200	0xbf3febff	-0.74969476
201	0xbf11a76b	-0.56896085
202	0xbed88016	-0.42285222
203	0xbeae109b	-0.33997044
204	0xbe92001b	-0.28515705
205	0xbe4a72ea	-0.19770399
206	0xbe090a22	-0.13382772
207	0xbe01f5ac	-0.12691373
208	0xbdf232aa	-0.1182607
209	0xbdb68950	-0.08912909
210	0xbd89417a	-0.06701942
211	0xbcef889e	-0.029239949
212	0xbbf28e37	-0.0074022072
213	0xbba13463	-0.004919575
214	0xbcf2e090	-0.029648095
215	0xbd9a91bc	-0.07547328
216	0xbe386d2d	-0.18010397
217	0xbe77afb0	-0.24188113
218	0xbeb608b6	-0.3555352
219	0xbf07f7f6	-0.53112733
220	0xbf2fbffe	-0.6865233
221	0xbf4af394	-0.7927792
222	0xbf609bdc	-0.8773782
223	0xbf78867a	-0.97080195
224	0xbf7d7297	-0.99002975
225	0xbf75731c	-0.9587877
226	0xbf6eacb4	-0.93232274
227	0xbf57e2b8	-0.8433032
228	0xbf374d4d	-0.71602327
229	0xbf09060d	-0.5352486
230	0xbecd37e0	-0.40081692
231	0xbe9e909f	-0.30969712
232	0xbe89078c	-0.2676357
233	0xbe520556	-0.20509848
234	0xbe0baeb0	-0.13640857
235	0xbdfa66d3	-0.122266434
236	0xbdd67261	-0.10471035
237	0xbd9b33bc	-0.07578227
238	0xbd7f5a5f	-0.062342044
239	0x3ba5059d	0.0050360695
240	0x3d298dee	0.04139512
241	0x3d2a8e1b	0.04163943
242	0xbb2fbb50	-0.0026814528
243	0xbd2aded4	-0.04171641
244	0xbe02107f	-0.12701605
245	0xbe2e594f	-0.17026256
246	0xbe936114	-0.28785002
247	0xbeefebe6	-0.46859664
248	0xbf21e0e3	-0.63233775
249	0xbf3eae49	-0.7448469
250	0xbf5aedcb	-0.85519093
251	0xbf76c57c	-0.9639509
252	0xbf7c97a0	-0.9866886
253	0xbf74240d	-0.9536751
254	0xbf6b9d3f	-0.92036813
255	0xbf555349	-0.8333021

normalize.running_var f4 [784]
0	0x2e6e6240	5.42022e-11
1	0x34623be3	2.1069677e-07
2	0x3604ab69	1.9769307e-06
3	0x3a106d00	0.00055094063
4	0x3a75b18d	0.00093724654
5	0x3bb2d211	0.005457171
6	0x3c229542	0.009923281
7	0x3ca67e2d	0.020323837
8	0x3d43a247	0.04776218
9	0x3dd47163	0.10373189
10	0x3e6439e5	0.2228771
11	0x3e89af54	0.26891577
12	0x3e8f127c	0.2794379
13	0x3e8e9b25	0.2785274
14	0x3e8cd307	0.2750475
15	0x3e92a542	0.28641707
16	0x3e9181b9	0.28419283
17	0x3e7ceae8	0.24698985
18	0x3e3b2ab1	0.18278004
19	0x3da1c365	0.07898597
20	0x3d0e299e	0.034707658
21	0x3ca91bc6	0.020643126
22	0x3c35866b	0.011079411
23	0x3b654174	0.003498164
24	0x3b25e1b0	0.0025311522
25	0x3a9e245e	0.0012065282
26	0x3a08a665	0.0005212783
27	0x364e7a64	3.0767633e-06
28	0x33f92b27	1.16028154e-07
29	0x36594eb7	3.2381338e-06
30	0x39d94b93	0.00041445773
31	0x3b0f2957	0.0021844709
32	0x3be78c1c	0.007066263
33	0x3ce0f90b	0.027462503
34	0x3da4ca52	0.08046402
35	0x3e2b8cc4	0.16752917
36	0x3e991b82	0.299038
37	0x3ee020e9	0.43775108
38	0x3f14d364	0.58135056
39	0x3f1b7293	0.607217
40	0x3f26db9c	0.6517885
41	0x3f25efe6	0.6481918
42	0x3f24634a	0.64214003
43	0x3f26bd4e	0.65132606
44	0x3f211456	0.62921655
45	0x3f182473	0.5943062
46	0x3f06ff4a	0.5273329
47	0x3ec5f052	0.38659912
48	0x3e760c82	0.24028209
49	0x3e0f6023	0.14001517
50	0x3d97b6d8	0.074079216
51	0x3d22c51f	0.03973877
52	0x3cd653b7	0.026162965
53	0x3c06cc42	0.00822741
54	0x3b351495	0.0027630676
55	0x39af6314	0.0003345242
56	0x34da46ac	4.0657085e-07
57	0x39449e83	0.00018751067
58	0x3a9ab2d7	0.0011802566
59	0x3be1d2f7	0.006891604
60	0x3ca7c207	0.020478262
61	0x3dcdb9df	0.10045218
62	0x3e6499fd	0.22324367
63	0x3ea055d6	0.31315488
64	0x3ecf08d5	0.40436426
65	0x3eee4843	0.46539506
66	0x3f0db69a	0.5535675
67	0x3f0b5078	0.5441966
68	0x3f0ded0d	0.55439836
69	0x3f12f43e	0.57403934
70	0x3f178fbb	0.5920369
71	0x3f11569b	0.56772774
72	0x3f09a98b	0.5377433
73	0x3f0588da	0.52161944
74	0x3f051275	0.5198129
75	0x3ee24d87	0.44199774
76	0x3ebfe4db	0.3747929
77	0x3e9a0413	0.30081233
78	0x3e39a4e8	0.18129313
79	0x3dab7fb9	0.083739705
80	0x3d717983	0.058953773
81	0x3ca9f6e9	0.020747619
82	0x3c1cedcb	0.009578179
83	0x3a8f2581	0.0010921211
84	0x39dd7d95	0.0004224597
85	0x3a764df7	0.0009395773
86	0x3bd35bb2	0.00645014
87	0x3c705aed	0.014670116
88	0x3d68bb61	0.056819323
89	0x3e4fc695	0.20290597
90	0x3ea08ce4	0.3135749
91	0x3ebd3ae2	0.36958987
92	0x3ee5e0b3	0.44897994
93	0x3effbe3e	0.4994983
94	0x3f0c2dae	0.547572
95	0x3f07d893	0.5306484
96	0x3f0c7c83	0.5487749
97	0x3f0e0ec1	0.5549126
98	0x3f10c29e	0.5654696
99	0x3f0c1670	0.54721737
100	0x3f09290c	0.5357826
101	0x3f045d3d	0.5170477
102	0x3f047d92	0.51754105
103	0x3ef596cf	0.4796662
104	0x3edf525a	0.43617517
105	0x3ebd697e	0.36994547
106	0x3e9b6c2f	0.30355975
107	0x3e22ce57	0.15899025
108	0x3d9fd2c6	0.07803874
109	0x3d28c596	0.041204058
110	0x3cc70f3d	0.024299258
111	0x3af909f5	0.001900016
112	0x3a183c61	0.0005807337
113	0x3b655b9d	0.0034997233
114	0x3c078598	0.008271597
115	0x3cdf2ff1	0.02724454
116	0x3dfbb835	0.12290994
117	0x3e858757	0.2607982
118	0x3ebf96a1	0.37419608
119	0x3ee17a9f	0.44038865
120	0x3ef80ab9	0.4844568
121	0x3f01515b	0.50514764
122	0x3f08053e	0.53133
123	0x3f046c25	0.51727515
124	0x3f088528	0.5332818
125	0x3f08fbd6	0.5350927
126	0x3f0a48e3	0.54017466
127	0x3f07ba04	0.5301821
128	0x3efeb7fb	0.4974974
129	0x3efdcee4	0.49571908
130	0x3f019946	0.506245
131	0x3efc0eeb	0.49230132
132	0x3ef3441c	0.475129
133	0x3ee335c4	0.44376957
134	0x3ebc313b	0.3675631
135	0x3e75682a	0.23965517
136	0x3dfe7bf1	0.12425984
137	0x3d89c43a	0.0672688
138	0x3d1003b5	0.035159785
139	0x3baac821	0.0052118455
140	0x3a7a8a80	0.0009557381
141	0x3c36cfda	0.011157954
142	0x3c8874bc	0.016657226
143	0x3d6ac236	0.05731412
144	0x3e3b540a	0.18293777
145	0x3ea377be	0.31927294
146	0x3edf1dca	0.43577415
147	0x3eecdd14	0.4626242
148	0x3efaaba9	0.4895909
149	0x3f01c20a	0.50686705
150	0x3f068535	0.5254701
151	0x3f02731e	0.50956905
152	0x3f024525	0.50886756
153	0x3f03ed22	0.5153371
154	0x3f0468ed	0.51722604
155	0x3f00710d	0.501725
156	0x3ef6694d	0.48127213
157	0x3ef71901	0.48261264
158	0x3efa7adf	0.48921868
159	0x3efbfb72	0.49215275
160	0x3efb330a	0.49062377
161	0x3ef5f178	0.4803579
162	0x3edd4036	0.43213052
163	0x3ea554a6	0.32291144
164	0x3e4e1d85	0.20128448
165	0x3dfb99e5	0.122852124
166	0x3d98592d	0.07438884
167	0x3c26077c	0.01013362
168	0x3b3dd21b	0.0028964344
169	0x3caf731a	0.02141719
170	0x3d135c77	0.035976853
171	0x3dde3982	0.108508125
172	0x3e6eb574	0.23311406
173	0x3ebde197	0.37086174
174	0x3ef58d10	0.47959185
175	0x3efd67a4	0.49493134
176	0x3f014a20	0.5050373
177	0x3f01f38c	0.5076225
178	0x3f02e200	0.511261
179	0x3f0025d2	0.5005771
180	0x3f01498f	0.50502867
181	0x3f0101f1	0.5039359
182	0x3efbfb60	0.4921522
183	0x3efb32aa	0.4906209
184	0x3ef290f3	0.47376212
185	0x3eee40ec	0.46533906
186	0x3ef1e446	0.4724447
187	0x3ef696ea	0.48162013
188	0x3f004daf	0.50118536
189	0x3f0108de	0.50404155
190	0x3ef50060	0.4785185
191	0x3ec0f5c5	0.37687507
192	0x3e8b7fae	0.2724585
193	0x3e34db51	0.17661788
194	0x3ded383b	0.11582991
195	0x3cba9884	0.022777803
196	0x3bccc38a	0.006248896
197	0x3d1e05f0	0.03857988
198	0x3d80968c	0.062787145
199	0x3e114c18	0.14189184
200	0x3e8a8d5f	0.27060983
201	0x3ed21213	0.41029415
202	0x3f0167e3	0.50549144
203	0x3f07b599	0.5301147
204	0x3f05020f	0.51956266
205	0x3f009d57	0.5024008
206	0x3f02bf1d	0.51072866
207	0x3efc1548	0.49234986
208	0x3ef9a226	0.48756522
209	0x3ef99012	0.4874273
210	0x3ef1ebf8	0.47250342
211	0x3ef2965f	0.4738035
212	0x3ee2f190	0.44324923
213	0x3edc29db	0.43000683
214	0x3ee6823c	0.45021236
215	0x3ef461cf	0.47730872
216	0x3f062518	0.5240035
217	0x3f073260	0.5281124
218	0x3f00d581	0.5032578
219	0x3ee0c573	0.43900642
220	0x3eac9d52	0.33713776
221	0x3e78ba7c	0.24289888
222	0x3e1b6283	0.15174298
223	0x3cd25719	0.025676297
224	0x3be58485	0.007004323
225	0x3d5d0d84	0.053967968
226	0x3da33d35	0.07970659
227	0x3e37e806	0.17959604
228	0x3e9bc556	0.30423993
229	0x3ede3889	0.43402508
230	0x3f06dd54	0.5268147
231	0x3f0e4700	0.5557709
232	0x3f083cae	0.5321759
233	0x3efda4ea	0.49539882
234	0x3f012480	0.5044632
235	0x3ef98951	0.48737577
236	0x3ef68a69	0.48152474
237	0x3ef032f8	0.46913886
238	0x3ee4ae8c	0.4466442
239	0x3ee483b6	0.44631737
240	0x3ecd39af	0.40083072
241	0x3ecf4d38	0.404886
242	0x3edcc612	0.43119866
243	0x3eee35cc	0.4652542
244	0x3f06fa66	0.5272583
245	0x3f0ad2d7	0.54227966
246	0x3f0415ce	0.5159577
247	0x3eeda6dd	0.4641637
248	0x3ebe25ab	0.37138113
249	0x3e9154ac	0.28384912
250	0x3e35e4df	0.17763089
251	0x3ce9f993	0.02856139
252	0x3c3add17	0.011405251
253	0x3d795fcf	0.060882386
254	0x3dc0143d	0.0937886
255	0x3e4058f0	0.18783927

fc1.weight f4 [128, 784]
0	0xbd3eccf2	-0.04658217
1	0x3d0c3ecb	0.03423957
2	0xbd5c4c7a	-0.05378387
3	0xbbefa569	-0.0073134196
4	0xbd6930d2	-0.056931324
5	0xbdf3b832	-0.11900367
6	0xbdf9a6f3	-0.12190046
7	0xbd11ee7e	-0.035627834
8	0x3caf89ed	0.021428073
9	0xbc87ce8c	-0.016577981
10	0xbd89873c	-0.06715247
11	0xbd305563	-0.04305018
12	0xbc8b71d1	-0.017022045
13	0x3dd0f615	0.102031864
14	0x3d9abb46	0.07555251
15	0x3c5aacab	0.013346831
16	0xbb31aef5	-0.002711234
17	0x3d0732cf	0.03300744
18	0xbd06683c	-0.03281425
19	0xbd5739cc	-0.052545354
20	0xbccfa6f3	-0.025348162
21	0xbd8974c6	-0.06711726
22	0xbd370902	-0.044686325
23	0xbd8ef7cf	-0.069808595
24	0xbdf5278d	-0.11970434
25	0xbc9ae730	-0.018909067
26	0x3c8070cb	0.015678784
27	0x3bd35a57	0.0064499783
28	0xbcaaab79	-0.020833718
29	0x3cebff87	0.028808368
30	0x3d3d10d5	0.04615863
31	0xbd581c92	-0.05276162
32	0xbd8dd93b	-0.06926199
33	0xbd1dcaed	-0.038523603
34	0xbd4d94a5	-0.050190587
35	0x3d4e3be5	0.05035009
36	0x3c8070a9	0.01567872
37	0xbd162894	-0.036659792
38	0x3cf33d55	0.029692331
39	0xbd410711	-0.04712588
40	0xbd437390	-0.04771763
41	0xbce78e2e	-0.028266039
42	0xbd0e9e92	-0.034819193
43	0xbcb01d42	-0.021498326
44	0xbd330bf6	-0.04371258
45	0xbcb8ef4d	-0.022575045
46	0x3c389c36	0.011267712
47	0x3c19dc24	0.0093908645
48	0xbd03b199	-0.032151792
49	0xbdfe920c	-0.124302
50	0xbd90ee82	-0.07076742
51	0xbdcb4c1d	-0.09926627
52	0xbd971dd2	-0.07378735
53	0xbda45ccb	-0.08025511
54	0xbd387753	-0.04503567
55	0xbc47acf3	-0.01218723
56	0xbdb81d97	-0.08990019
57	0xbbc54263	-0.006019877
58	0xbdcc84b9	-0.09986252
59	0xbc5a899e	-0.013338475
60	0xbc83f642	-0.016108636
61	0xbc9cd61b	-0.019145062
62	0xbd0fcca7	-0.03510728
63	0xbbf9d8cf	-0.0076247226
64	0xbd5f12eb	-0.0544614
65	0xbd830918	-0.06398219
66	0xbd5c6d90	-0.053815424
67	0xbd51d045	-0.051224012
68	0x3c81fe4c	0.015868329
69	0xbd44f678	-0.048086613
70	0xbde3cdad	-0.11123214
71	0x3d0ac9d3	0.03388388
72	0x3ca81582	0.020518068
73	0xbdadc91b	-0.084856234
74	0xbdade99b	-0.08491822
75	0xbd1161e7	-0.035493758
76	0xbd2892b4	-0.041155532
77	0xbd448c68	-0.047985464
78	0xbd6dad2b	-0.058026474
79	0xbd3546d5	-0.044257004
80	0xbdc315ef	-0.09525668
81	0xbd393fde	-0.045226924
82	0xbda12187	-0.07867723
83	0xbca8fdbc	-0.020628802
84	0x3c702afc	0.014658686
85	0xbdd87615	-0.10569397
86	0xbde09aa8	-0.10966998
87	0xbcb72508	-0.022356525
88	0xbbc535bf	-0.00601837
89	0xbd1c1327	-0.038104203
90	0xbd22a054	-0.039703682
91	0xbd939355	-0.07205836
92	0xbd9571dc	-0.072971076
93	0xbd03a4f9	-0.032139752
94	0xbc8182bc	-0.01580941
95	0xbce1bdbd	-0.027556295
96	0x3c357176	0.0110744145
97	0xbd00d0e5	-0.031449217
98	0xbde86042	-0.11346485
99	0xbce1f5f2	-0.027583096
100	0xbcb5e77d	-0.022205109
101	0xbcffa3b3	-0.031205988
102	0xbd7ecdb6	-0.0622079
103	0xbd3a6853	-0.045509648
104	0xbd790bbd	-0.06080221
105	0xbd9f6460	-0.07782817
106	0xbdc01f40	-0.093809605
107	0xbdf86f44	-0.12130597
108	0xbd1390fd	-0.036026943
109	0xbda6b614	-0.081401974
110	0xbd979d9d	-0.07403109
111	0xbd059791	-0.032615248
112	0xbdf3c8ea	-0.11903556
113	0xbde0f2d7	-0.10983818
114	0xbd945700	-0.072431564
115	0xbccbaf54	-0.024863876
116	0xbd3841a9	-0.044984493
117	0xbd8a676b	-0.06758007
118	0xbd8fd7d7	-0.0702359
119	0xbaa5cd8b	-0.0012649758
120	0xbd2c884e	-0.042122178
121	0x3c0f3710	0.008741155
122	0xbd2805b1	-0.041021053
123	0xbde65758	-0.11247128
124	0xbcd2397c	-0.025662176
125	0xbda7dd34	-0.08196488
126	0xbd883a28	-0.066517174
127	0xbd74d8d4	-0.059777096
128	0xbd5bbc2d	-0.053646255
129	0xbc9efa0e	-0.019406345
130	0xbc869fa7	-0.01643355
131	0xbd192dba	-0.037397124
132	0xbcb1db5d	-0.021711046
133	0xbdda7ffb	-0.106689416
134	0xbe1c100a	-0.15240493
135	0xbd99d3ef	-0.07511126
136	0xbe0da371	-0.13831879
137	0xbda1f445	-0.07907919
138	0xbcd2ba18	-0.025723502
139	0xbdd31fef	-0.10308825
140	0xbc4f8611	-0.012666241
141	0xbd8608b4	-0.06544629
142	0x3dc758a6	0.09733705
143	0x3d4c8e04	0.049940124
144	0x3c4615fd	0.012090203
145	0xbb8f4a98	-0.004372906
146	0xbd7069db	-0.0586947
147	0x3bd5ab25	0.006520646
148	0x3d1ddda6	0.03854146
149	0xbd391380	-0.045184612
150	0xbda767e0	-0.081741095
151	0xbdc03d82	-0.09386732
152	0xbd8f7ad7	-0.07005852
153	0xbd584ac3	-0.052805673
154	0xbd97d03d	-0.07412765
155	0xbda4d4d8	-0.08048409
156	0xbd218c3e	-0.039440386
157	0xbced7168	-0.02898474
158	0x3ce34123	0.02774102
159	0x3bdee2d2	0.0068019414
160	0x3d619275	0.055071313
161	0xbd1216da	-0.035666324
162	0xbdf98bcc	-0.12184867
163	0xbdd7479c	-0.10511705
164	0xbde164b6	-0.11005537
165	0xbd8415cb	-0.06449469
166	0xbd09baad	-0.033625294
167	0x3bd833c0	0.006597966
168	0xbcc7a926	-0.024372648
169	0xbbdfd0a1	-0.0068302904
170	0x3dcf6d14	0.10128227
171	0x3d644fba	0.055740096
172	0xbd664fca	-0.056228437
173	0x3d0ee018	0.03488168
174	0x3c2d95a2	0.010594757
175	0x3d20b0c0	0.039231062
176	0x3d076bd3	0.033061814
177	0xbd5a0f79	-0.053237412
178	0xbd4a937a	-0.04945705
179	0xbd8c30eb	-0.06845268
180	0xbd1be21e	-0.03805744
181	0xbd977037	-0.0739445
182	0xbde9e84e	-0.11421262
183	0xbd8fb847	-0.0701757
184	0x3c58f4fe	0.013242004
185	0x3d8207df	0.063491575
186	0x3dd2bde1	0.10290123
187	0x3dce88e0	0.100847006
188	0x3bf31e5f	0.007419392
189	0xbd981220	-0.07425332
190	0xbdb56ad1	-0.08858264
191	0xbe25db9e	-0.16197059
192	0xbdc9fad7	-0.09862297
193	0xbe3d8389	-0.18507208
194	0xbdd5bbb5	-0.10436193
195	0xbb1302b6	-0.0022432036
196	0x3d74391c	0.059624776
197	0x3d0e3216	0.034715734
198	0x3d948302	0.0725155
199	0x3d19e5ab	0.037572544
200	0x3ba90f7b	0.005159316
201	0xbcc3d3bf	-0.02390468
202	0x3c8153fb	0.015787115
203	0x3cd19a22	0.025586192
204	0x3d3b2813	0.045692515
205	0xbc99f0b9	-0.018791543
206	0xbd55a23b	-0.05215667
207	0xbc8ea65e	-0.017413314
208	0xbd9e968e	-0.0774356
209	0xbd85892c	-0.06520304
210	0xbde56c34	-0.11202279
211	0xbd865fd0	-0.065612435
212	0x3cdf9d9e	0.027296837
213	0x3d7ac044	0.061218515
214	0x3daebf44	0.08532575
215	0x3df1f63f	0.11814546
216	0xbc16a65b	-0.009194936
217	0xbd921f7c	-0.071349114
218	0xbdbd11a2	-0.09231879
219	0xbe04bd68	-0.12962878
220	0xbde66f14	-0.11251655
221	0xbe1a3295	-0.15058358
222	0xbe03b14a	-0.12860599
223	0xbc0bb881	-0.008527876
224	0xbc9dec27	-0.019277645
225	0x3d5e0548	0.054204255
226	0x3d83e2c8	0.064397395
227	0x3c646609	0.013940343
228	0x3a71db84	0.0009226131
229	0x3cae484a	0.021274704
230	0x3c90cda0	0.017676175
231	0x3c0b15a1	0.008489043
232	0x3dbd7a11	0.09251798
233	0xbd1c6ca0	-0.03818953
234	0xbd8d0bcf	-0.06887018
235	0xbc46c61a	-0.012132192
236	0xbd92fa62	-0.07176663
237	0xbdc8f390	-0.09812081
238	0xbe1e4862	-0.154573
239	0xbde7fc84	-0.113274604
240	0xbd131bb5	-0.035915095
241	0x3d9cd31b	0.07657453
242	0x3d2b1f2e	0.041777782
243	0x3caff29d	0.021477992
244	0x3cb38b43	0.021916991
245	0x3c32f647	0.010922975
246	0xbd94315a	-0.072359756
247	0xbe176db9	-0.1478795
248	0xbd60af33	-0.054854583
249	0xbd6a3dba	-0.057187773
250	0xbc9f9c3e	-0.019483682
251	0x3d1be481	0.038059715
252	0x3c905892	0.017620359
253	0x3d8e9eb7	0.06963866
254	0x3d936949	0.07197816
255	0x3d758cfe	0.059948914

fc1.bias f4 [128]
0	0x3d34b237	0.04411527
1	0x3d4c81f5	0.049928624
2	0x3c75f43d	0.015011844
3	0x3cf2b9ec	0.02962967
4	0xbd8a015b	-0.0673854
5	0x3be816e5	0.0070828074
6	0xbd250804	-0.040290847
7	0xbd654fed	-0.055984426
8	0xbe163172	-0.146673
9	0x3ca1b811	0.01974109
10	0xbcd1c2b1	-0.025605531
11	0xbc68c856	-0.01420792
12	0xbceaa819	-0.028644608
13	0xbdc492e3	-0.09598329
14	0xbcbff210	-0.023430854
15	0xbd406038	-0.04696676
16	0x3d28c460	0.041202903
17	0x3c5a636b	0.013329367
18	0x3d3dc5ef	0.046331342
19	0x3b1f93d7	0.0024349594
20	0x3b8c3ba2	0.0042795697
21	0x3d118314	0.035525396
22	0xbc25fbf3	-0.01013087
23	0xbd808ed9	-0.06277246
24	0xbc8a9417	-0.016916318
25	0xbcf2b5ce	-0.029627707
26	0xbd403da9	-0.046933804
27	0xbda8bb80	-0.08238888
28	0xbd99100f	-0.07473766
29	0x3ca07bd0	0.019590288
30	0xbd6b9f35	-0.05752488
31	0xbd026db8	-0.031842917
32	0xbc1105d2	-0.008851485
33	0xbaaba492	-0.001309531
34	0xbc4f963f	-0.012670099
35	0xbd15d5ca	-0.03658084
36	0xbd7784f0	-0.060429513
37	0xbd238956	-0.039925896
38	0xbce694ba	-0.02814709
39	0x3d58acfb	0.052899342
40	0xbc0bb868	-0.008527853
41	0xbcd133ee	-0.025537457
42	0x3ab4e720	0.0013801791
43	0xbcd6e443	-0.02623189
44	0xbb1a26aa	-0.002352158
45	0xbcfbba09	-0.030728357
46	0xbd9b4883	-0.0758219
47	0x3ccabdb3	0.024748659
48	0x3d30a056	0.04312166
49	0x3ba64bad	0.005074939
50	0xbd868cbc	-0.06569812
51	0x3c14e44d	0.009087634
52	0x3c342ae3	0.010996553
53	0x3da70c44	0.08156636
54	0xbd460873	-0.0483479
55	0x3ab53f3f	0.0013828053
56	0x3c984d4b	0.018591544
57	0xbdcbe530	-0.099558234
58	0x3b6132ea	0.0034362623
59	0xbd22ac9f	-0.039715406
60	0xbd52ab4a	-0.051432885
61	0xbd35affb	-0.04435728
62	0xbd05908a	-0.032608546
63	0x3cc3c6e8	0.023898557
64	0x3c3a7cec	0.011382323
65	0x3d76e343	0.060275327
66	0x3c8d783d	0.017269248
67	0x3d96eec9	0.073697634
68	0xbd188691	-0.037237708
69	0xbcb9e408	-0.022691742
70	0x3ca9b7f8	0.020717606
71	0x3cda8eb2	0.02667937
72	0xbd2cf945	-0.04222991
73	0x3c72e611	0.01482536
74	0xbb67901a	-0.0035333694
75	0x3bc28141	0.0059358184
76	0xbc6e5b21	-0.014548094
77	0x3c9d2a18	0.01918511
78	0xbd5df4d9	-0.054188583
79	0xbce8d8b5	-0.028423646
80	0x3d208438	0.039188594
81	0xbcb76290	-0.022385865
82	0xbd343424	-0.043995038
83	0x3db643cf	0.08899652
84	0xbd077956	-0.0330747
85	0x3c034441	0.0080118785
86	0x3c3eb442	0.0116396565
87	0x3d165dad	0.03671043
88	0xbcf39f75	-0.029739121
89	0x3d96a4be	0.07355641
90	0x3c54e691	0.012994424
91	0x3a4f2ac0	0.00079027936
92	0xbca3da1a	-0.02000146
93	0xbd67dd6e	-0.056607656
94	0x3c0ca37f	0.008583902
95	0xbb610ddb	-0.0034340534
96	0xbc0edc68	-0.008719541
97	0xbd5e03b9	-0.05420277
98	0x3d15482f	0.036445793
99	0xbd59da70	-0.053186834
100	0x3cb642a2	0.02224857
101	0x3d3d0280	0.046144962
102	0xbd0c03a0	-0.034183145
103	0xbd2100bd	-0.039307345
104	0xbc8d65bc	-0.017260425
105	0x3cbfa31e	0.02339321
106	0xbc26e1a9	-0.0101856375
107	0xbd8e0856	-0.06935184
108	0xbc8a70e7	-0.01689954
109	0x3cc187cc	0.023624323
110	0xbd4a7b41	-0.04943395
111	0xbd55ca66	-0.052194975
112	0x3ab4ea76	0.0013802785
113	0xbc7d2185	-0.015449886
114	0xbcdfb40a	-0.027307529
115	0x3c96d99f	0.018414317
116	0xbd95f681	-0.073224075
117	0xbbf2dee9	-0.007411827
118	0xbd74d156	-0.05976995
119	0xbc2edd44	-0.010672871
120	0x3af7bcad	0.0018900834
121	0x3d8b96a1	0.068158396
122	0xbc63d807	-0.013906485
123	0xbdb0ce4d	-0.08633099
124	0xbd302575	-0.04300447
125	0xbd870ed4	-0.06594625
126	0xbd64e889	-0.055885825
127	0x3d25a8df	0.04044425

fc2.weight f4 [64, 128]
0	0xbc942ee7	-0.018088771
1	0x3e24e9bf	0.16104792
2	0xbd8daa0d	-0.069172
3	0x3dfa2f56	0.1221606
4	0x3d91142d	0.07083926
5	0x3e1f3c75	0.15550406
6	0x3d81472f	0.06312405
7	0x3e447051	0.1918347
8	0xbd36079f	-0.04444086
9	0x3e2119c6	0.15732488
10	0xbe2a29aa	-0.16617456
11	0xbc53bf83	-0.012924078
12	0xbbef5c19	-0.00730468
13	0xbc0531e7	-0.008129573
14	0xbe2becb2	-0.16789511
15	0xbe4c951f	-0.1997876
16	0x3dc065ca	0.09394415
17	0xbd80b083	-0.06283667
18	0x3d87b855	0.066269554
19	0xbe9578db	-0.29193768
20	0x3c45ac9d	0.01206508
21	0x3d9d9fbe	0.07696484
22	0xbddde61e	-0.10834907
23	0x3b60a8b0	0.0034280233
24	0x3c92450c	0.01785519
25	0x3dc24f65	0.094877996
26	0xbd17a5f5	-0.037023503
27	0xbd05a9a3	-0.03263248
28	0xbe03d778	-0.12875164
29	0xbdf1cca8	-0.11806613
30	0xbd09c537	-0.033635344
31	0x3d8557aa	0.06510861
32	0xbe0f5494	-0.13997108
33	0x3c57da0d	0.013174546
34	0xbc22ca71	-0.009935961
35	0xbcc8c2f4	-0.024507023
36	0x3e0c64ee	0.13710377
37	0xbdfedb77	-0.12444203
38	0x3d8f9e5b	0.07012626
39	0x3e29792a	0.16550127
40	0x3c9b0a04	0.018925674
41	0xbdf38a14	-0.11891571
42	0xbe706242	-0.23474982
43	0xbcef9b5f	-0.029248891
44	0x3d5b07af	0.053474125
45	0xbd088d12	-0.03333766
46	0xbcbdd023	-0.023170536
47	0xbe01458e	-0.1262419
48	0xbdbac053	-0.09118714
49	0xbc142d88	-0.009044059
50	0x3d1877e4	0.03722371
51	0x3d87d4a5	0.066323556
52	0x3dee1f14	0.116270214
53	0xbe124244	-0.14283091
54	0xbd393d6e	-0.0452246
55	0x3d8e0a59	0.069355674
56	0x3d07b92c	0.033135578
57	0xbd887464	-0.06662825
58	0xbe1744df	-0.14772366
59	0x3d81e0c4	0.06341699
60	0x3da06563	0.07831838
61	0x3cf4cf54	0.029884018
62	0x3dfe9a7f	0.124318115
63	0x3df6bd01	0.120477684
64	0xbe098912	-0.13431194
65	0x3ddd494d	0.10804997
66	0xbdfb5644	-0.12272313
67	0x3e196271	0.14978959
68	0xbdaf81f8	-0.085697114
69	0xbda4ade9	-0.08040983
70	0x3d88d085	0.06680397
71	0xbdb6ebb5	-0.08931676
72	0x3e444e75	0.19170554
73	0x3e04ede2	0.1298137
74	0x3e5ff935	0.21872409
75	0x3d91fd00	0.07128334
76	0xbdaed660	-0.085369825
77	0xbc958920	-0.018253863
78	0x3da6868d	0.08131132
79	0xbe1034dd	-0.14082666
80	0xbd93dc3c	-0.07219741
81	0x3d75d858	0.060020775
82	0x3c7e5e0e	0.015525354
83	0x3cd49fb2	0.025955055
84	0x3d89114a	0.06692751
85	0xbda429ea	-0.08015807
86	0x3db7038a	0.08936222
87	0x39c08287	0.00036718344
88	0x3ca43baf	0.02004799
89	0xbcd6ec7f	-0.026235817
90	0x3d818ede	0.06326078
91	0x3dd1ca93	0.10243716
92	0x3e3f4534	0.18678743
93	0x3de394ef	0.11112391
94	0x3c9ed7f5	0.019390086
95	0xbe1049d8	-0.14090669
96	0xbd1c078a	-0.038093127
97	0xbdc1bd43	-0.09459927
98	0x3dfd2dfe	0.12362288
99	0x3cfd5a31	0.030926796
100	0x3da30320	0.079595804
101	0x3d04f4a2	0.032459863
102	0xbb80acb9	-0.00392684
103	0x3c910c3f	0.017706035
104	0x3d5bca79	0.05365989
105	0xbe818387	-0.2529566
106	0x3cdc4a47	0.026890887
107	0x3dbd688f	0.092484586
108	0xbe27a07a	-0.1636981
109	0xbd5b1a22	-0.05349172
110	0xbded6d55	-0.11593119
111	0x3d0f8bfa	0.0350456
112	0x3e138e13	0.14409666
113	0x3da19cc8	0.07891232
114	0x3e00ed71	0.12590577
115	0x3d4bf11b	0.049790483
116	0x3b5562ba	0.0032560066
117	0xbd85ad67	-0.065272145
118	0x3cf1e34e	0.029527333
119	0x3cdbd344	0.026834138
120	0xbdca2506	-0.09870343
121	0xbca909af	-0.0206345
122	0x3e238b8d	0.15971203
123	0x3dd0c481	0.1019373
124	0xbdb15075	-0.08657924
125	0xbc127105	-0.008938079
126	0x3e0d4f9f	0.13799904
127	0xbd508ad7	-0.050913658
128	0x3ddf02f2	0.10889234
129	0xbe2e4e67	-0.17022096
130	0xbd43c298	-0.047793
131	0x3dcbdc0f	0.09954082
132	0x3da1d53a	0.07901998
133	0xbda53ece	-0.0806862
134	0xbe34abb8	-0.1764363
135	0x3d75a39b	0.05997048
136	0x3d8d98f7	0.06913941
137	0x3e01d12d	0.1267745
138	0xbc7b3fa4	-0.015334997
139	0xbda11d25	-0.07866887
140	0x3d1cfaeb	0.03832523
141	0xbdefe75d	-0.11714051
142	0xbe34fefd	-0.17675395
143	0xba8fe2a9	-0.0010977584
144	0xbccd6c68	-0.025076106
145	0xbe195ee3	-0.14977603
146	0xbd3961fa	-0.045259453
147	0x3d0f3d17	0.03497037
148	0x3d65054a	0.055913247
149	0x3d8581d2	0.06518902
150	0xbd43abbf	-0.04777121
151	0xbd907a0b	-0.07054528
152	0xbe49378e	-0.19650099
153	0x3d92f55c	0.07175705
154	0x3e1098c8	0.14120781
155	0x3d41e5bb	0.04733823
156	0x3c48312b	0.012218754
157	0xbd329a6f	-0.04360431
158	0x3c3d2699	0.011544847
159	0xbc9d0d4b	-0.019171378
160	0xbe6dfc46	-0.23240766
161	0xbe193883	-0.14962964
162	0x3cbea116	0.023270171
163	0xbdaa312f	-0.08310162
164	0xbe0ac70d	-0.13552494
165	0xbde42636	-0.11140101
166	0x3e31899b	0.17337649
167	0x3dcf24c0	0.101144314
168	0x3c6d4572	0.014481889
169	0x3d8c8cc1	0.06862784
170	0x3d75be01	0.059995655
171	0xbe8779e3	-0.2646018
172	0x3dcaf9a8	0.099108994
173	0xbcaf9a7b	-0.021435967
174	0x3daf77d1	0.08567775
175	0xbdc1904c	-0.094513506
176	0x3e03ff79	0.12890424
177	0x3df47a47	0.11937385
178	0x3dc8710f	0.09787189
179	0xbe544f7d	-0.20733447
180	0x3c33e6c5	0.010980313
181	0xbdbc1f22	-0.091856256
182	0xbd85461e	-0.065075144
183	0xbd24e4d0	-0.040257275
184	0xbdbe6f29	-0.09298546
185	0x3d7dace2	0.061932452
186	0x3c08dbbb	0.008353169
187	0x3db72b99	0.089438625
188	0xbd1de49e	-0.038548104
189	0x3db5a015	0.08868424
190	0x3ce01acb	0.027356526
191	0x3d2a4670	0.04157108
192	0x3d8ce5cb	0.06879767
193	0xbdcda28d	-0.1004077
194	0xbd02fc6f	-0.03197902
195	0xbe1a8cda	-0.15092793
196	0xbce4ec82	-0.027944807
197	0xbd8dd87b	-0.06926056
198	0xbcba0c0f	-0.022710828
199	0xbd0b772c	-0.034049198
200	0xbdc82a8e	-0.09773742
201	0x3d3de1dd	0.046357978
202	0x3d623c70	0.05523342
203	0x3da8fbe4	0.08251169
204	0xbb4e6184	-0.003149123
205	0xbe2336e4	-0.15938908
206	0x3bc66809	0.0060548824
207	0xbe0f5936	-0.13998875
208	0xbdb6e93a	-0.08931203
209	0xbdc43a13	-0.09581389
210	0xbcb745e3	-0.022372192
211	0xbcc34614	-0.023837127
212	0x3ccf945d	0.0253393
213	0xbd21d5e1	-0.03951061
214	0xbbb8553a	-0.005625394
215	0x3db2a914	0.08723655
216	0x3d9f8a70	0.07790077
217	0xbc00da8b	-0.007864605
218	0x3d230d5a	0.039807655
219	0x3cf02f18	0.029319331
220	0xbe0e10a4	-0.13873535
221	0x3d85ef06	0.06539731
222	0x3d64c5b6	0.055852614
223	0xbdcceb85	-0.10005859
224	0xbe65c0fb	-0.22436897
225	0x3e0c10fd	0.13678356
226	0xbe72fd49	-0.23729433
227	0x3dc8f8d0	0.09813082
228	0x3d2c2e5a	0.04203639
229	0xbdf096a9	-0.11747486
230	0x3d5c0363	0.053714167
231	0x3d57aea6	0.052656792
232	0x3d43e1ff	0.04782295
233	0x3ba9a668	0.005177308
234	0xbd920370	-0.07129562
235	0xbda3b88f	-0.07994186
236	0x3cbcf85f	0.023067651
237	0xbd801cd6	-0.062555
238	0x3b3fd536	0.002927137
239	0xbba226ed	-0.004948488
240	0xbe04972c	-0.12948292
241	0xbb86ddf5	-0.004115815
242	0x3dcf1ed0	0.10113299
243	0xbcb5e951	-0.02220598
244	0xbd87a01b	-0.066223346
245	0xbe878897	-0.26471397
246	0xbe10541b	-0.14094584
247	0xbd0d9eef	-0.0345754
248	0xbc3c978d	-0.011510742
249	0x3d36f813	0.044670176
250	0x3dae31d1	0.085055955
251	0x3d79dd8e	0.061002307
252	0x3dc9e305	0.09857754
253	0xbc868538	-0.016420946
254	0xbd63a845	-0.055580396
255	0x3d9b6f39	0.075895734

fc2.bias f4 [64]
0	0x3d681a0e	0.056665473
1	0x3db22aa7	0.086995415
2	0x3b3063d4	0.002691497
3	0x3d8c6f76	0.06857197
4	0xbda2e8d2	-0.07954563
5	0x3cf1cd11	0.029516729
6	0xbb381a93	-0.0028092011
7	0x3dafaa06	0.08577351
8	0x3d08ccac	0.033398315
9	0x3d50f7ad	0.051017452
10	0x3dbe9917	0.09306543
11	0x3ddecbad	0.10878692
12	0xbd8a96bc	-0.067670316
13	0xbd5d1c32	-0.053981967
14	0x3dc03d95	0.09386746
15	0x3d8bcfd5	0.0682675
16	0xba89cb2f	-0.0010512824
17	0xbcc175ea	-0.023615796
18	0x3d88d628	0.06681472
19	0xbd1056bd	-0.03523897
20	0x3bfdaf7c	0.0077418666
21	0x3d32b710	0.043631613
22	0x3c684c1a	0.0141783
23	0xbd2a31e4	-0.041551486
24	0xbcd48a5a	-0.025944877
25	0x3d075e30	0.03304881
26	0xbcf379cd	-0.029721165
27	0xbd5a3c5e	-0.053280227
28	0x3e1d34e3	0.15352206
29	0x3dcfca6f	0.10146033
30	0x3ce2bc4a	0.027677674
31	0x3df6402e	0.1202396
32	0x3ba478e9	0.0050192964
33	0x3d1b1caf	0.03786915
34	0xbd1da742	-0.038489588
35	0x3de83af0	0.113393664
36	0x3c8ec735	0.017428974
37	0x3dd6d8ad	0.104905464
38	0xbd2de789	-0.042457137
39	0xbc4fd62d	-0.012685341
40	0x3d887fac	0.066649765
41	0x3da3c941	0.079973705
42	0x3c8af686	0.016963255
43	0xbc27104a	-0.010196755
44	0xbb43cd35	-0.0029876952
45	0x3cf925c7	0.030413521
46	0x3d649ad2	0.05581171
47	0xbd652d5f	-0.055951472
48	0xbcdbc4c3	-0.026827222
49	0xbdc77064	-0.09738234
50	0xbda96104	-0.082704574
51	0x3c9ab8d1	0.018886955
52	0xb9707274	-0.0002293082
53	0xbdbc0769	-0.09181101
54	0x3e0a4bd3	0.13505487
55	0x3ca1f86d	0.019771779
56	0xbba887b1	-0.005143129
57	0xbdbc3c28	-0.091911614
58	0x3d23d0f2	0.039994188
59	0x3aace84f	0.0013191792
60	0xbd4d7195	-0.05015715
61	0x3d5b5c7a	0.05355499
62	0x3d4baa38	0.04972288
63	0x3db8e75f	0.090285055
