Eval_Models/ANN/best_model_2.pth (torch, 454208 bytes, 10 tensors)

normalize.weight f4 [784]
0	0x3f8511e6	1.0396087
1	0x3f86f6d5	1.0544077
2	0x3f830aa3	1.0237621
3	0x3f871677	1.0553731
4	0x3f7a5d6a	0.9779879
5	0x3f81f549	1.015298
6	0x3f897101	1.0737611
7	0x3f8537a1	1.0407602
8	0x3f8288c1	1.0197984
9	0x3f8294f9	1.0201713
10	0x3fa9b3ff	1.3258055
11	0x3f986547	1.1905907
12	0x3fa070fe	1.2534482
13	0x3fa375e2	1.277035
14	0x3fa98d70	1.3246288
15	0x3f9b7e50	1.2147923
16	0x3f949222	1.1607096
17	0x3fa3565e	1.2760732
18	0x3f8c2b5e	1.0950735
19	0x3f93816d	1.1523873
20	0x3f8ba0b2	1.0908415
21	0x3f85e650	1.0460911
22	0x3f79af78	0.9753337
23	0x3f80c6f7	1.0060719
24	0x3f92649a	1.1436951
25	0x3f825db0	1.0184841
26	0x3f848c27	1.0355271
27	0x3f86f9db	1.0545
28	0x3f833cd3	1.0252937
29	0x3f875f05	1.0575873
30	0x3f6da67a	0.9283215
31	0x3f7bcef5	0.98362666
32	0x3f72b4d3	0.94807166
33	0x3f7ce94e	0.98793495
34	0x3f8e3995	1.1111323
35	0x3f8c6dc0	1.0970993
36	0x3f8b7178	1.0894003
37	0x3fa53e4e	1.2909639
38	0x3fab838e	1.3399522
39	0x3f990357	1.1954144
40	0x3f8511c5	1.0396048
41	0x3f888c43	1.0667804
42	0x3f8bca83	1.0921177
43	0x3f877821	1.0583535
44	0x3f95996b	1.1687444
45	0x3fac4a17	1.346011
46	0x3fa2bdf0	1.2714214
47	0x3f96b477	1.1773823
48	0x3f925473	1.1432022
49	0x3f82a1ee	1.0205667
50	0x3f7c07b3	0.9844925
51	0x3f7e6175	0.9936746
52	0x3f7ce7c1	0.9879113
53	0x3f82cb4e	1.0218294
54	0x3f6d69c3	0.92739505
55	0x3f7785fa	0.96688807
56	0x3f662ad0	0.89909077
57	0x3f7d3702	0.9891206
58	0x3f780898	0.96888113
59	0x3f8b5f91	1.088854
60	0x3f80c99b	1.0061525
61	0x3f8926fb	1.0715021
62	0x3f8cc359	1.0997115
63	0x3f8ed0df	1.1157492
64	0x3f90c2e5	1.1309477
65	0x3f8771c3	1.0581592
66	0x3f84c1a3	1.0371593
67	0x3f63f20f	0.8904123
68	0x3f877278	1.0581808
69	0x3f8dff88	1.1093607
70	0x3f9d008f	1.2265795
71	0x3f87ea37	1.0618352
72	0x3f80d78d	1.0065781
73	0x3f6e5a81	0.9310685
74	0x3f78708c	0.9704673
75	0x3f85e756	1.0461223
76	0x3f95881d	1.1682163
77	0x3f91065f	1.1330069
78	0x3f8b40b7	1.0879124
79	0x3f754091	0.95801646
80	0x3f7ef20d	0.9958809
81	0x3f843634	1.0329041
82	0x3f66505a	0.89966357
83	0x3f8403b3	1.0313629
84	0x3f74e961	0.9566861
85	0x3f72d24c	0.9485214
86	0x3f84753d	1.0348278
87	0x3f870156	1.0547283
88	0x3f82bae0	1.021328
89	0x3f8f6f3f	1.1205825
90	0x3f913c0e	1.1346452
91	0x3f993ad9	1.1971084
92	0x3f958b4f	1.1683139
93	0x3f75e554	0.9605305
94	0x3f79cb17	0.97575516
95	0x3f7cf5d0	0.9881258
96	0x3f62e6a9	0.8863321
97	0x3f93b354	1.1539102
98	0x3f9fc9b0	1.2483425
99	0x3f895404	1.0728765
100	0x3f6d5491	0.92707163
101	0x3f6d368e	0.9266137
102	0x3f55f5ec	0.8357837
103	0x3f7e4e44	0.99338174
104	0x3f93fc03	1.1561283
105	0x3f994aab	1.1975912
106	0x3f98657d	1.1905972
107	0x3f88973a	1.0671151
108	0x3f82c771	1.0217115
109	0x3f845f84	1.0341649
110	0x3f69d2cd	0.9133728
111	0x3f7d2365	0.9888213
112	0x3f7c6cbd	0.9860342
113	0x3f8c2824	1.094975
114	0x3f6ccbd2	0.92498505
115	0x3f7d8813	0.9903576
116	0x3f82c1c3	1.0215381
117	0x3f8c8360	1.0977592
118	0x3f91a451	1.137827
119	0x3f8c9f63	1.0986141
120	0x3f78f2ca	0.97245467
121	0x3f721ee3	0.9457838
122	0x3f721be4	0.9457381
123	0x3f82d364	1.0220761
124	0x3f720da0	0.9455204
125	0x3f8e9b75	1.1141192
126	0x3f97501b	1.1821321
127	0x3f851c56	1.0399272
128	0x3f86ac86	1.05214
129	0x3f7483ee	0.9551381
130	0x3f6b0aac	0.9181316
131	0x3f7635c8	0.96175814
132	0x3f7d525d	0.989538
133	0x3f8d26c6	1.1027458
134	0x3f8d58b1	1.1042691
135	0x3fa3e5a4	1.2804456
136	0x3f8fa816	1.1223171
137	0x3f88c46d	1.0684944
138	0x3f86ca96	1.0530574
139	0x3f8c30bd	1.0952374
140	0x3f7d4e5d	0.989477
141	0x3f82f8b0	1.0232143
142	0x3f6c7dff	0.92379755
143	0x3f7c48fa	0.98548853
144	0x3f8975f1	1.0739118
145	0x3f8f83c6	1.1212089
146	0x3f8e9d0c	1.1141677
147	0x3f857f03	1.0429386
148	0x3f6b0667	0.91806644
149	0x3f702ba4	0.9381659
150	0x3f63a66e	0.88925827
151	0x3f6aa5f8	0.916595
152	0x3f801167	1.0005311
153	0x3f8eefbd	1.1166912
154	0x3f915780	1.1354828
155	0x3f750eb8	0.95725584
156	0x3f7e38de	0.9930552
157	0x3f67d288	0.9055562
158	0x3f529bbc	0.8226888
159	0x3f6611fc	0.8987119
160	0x3f7eecab	0.99579877
161	0x3f85f740	1.046608
162	0x3f85b2a6	1.0445144
163	0x3f93d6fa	1.1549981
164	0x3f91de2c	1.1395926
165	0x3f8b33cb	1.0875181
166	0x3f8aaede	1.0834615
167	0x3f8895f9	1.0670768
168	0x3f884f73	1.0649246
169	0x3f7c1d56	0.98482263
170	0x3f82d1d9	1.022029
171	0x3f6dc39b	0.92876595
172	0x3f844906	1.0334785
173	0x3f97a2f7	1.1846608
174	0x3f80dfd8	1.0068312
175	0x3f6e1cc5	0.9301265
176	0x3f757831	0.9588652
177	0x3f607471	0.87677675
178	0x3f839b4b	1.0281767
179	0x3f768f40	0.9631233
180	0x3f6393b5	0.8889726
181	0x3f87f8b3	1.0622772
182	0x3f96e2c6	1.1787956
183	0x3f762da1	0.96163374
184	0x3f71e027	0.94482654
185	0x3f6b7bc3	0.9198572
186	0x3f8f0abc	1.1175151
187	0x3f889c0c	1.0672622
188	0x3f77248a	0.9654013
189	0x3f7fb3b6	0.9988359
190	0x3f894a63	1.0725826
191	0x3f911afc	1.133636
192	0x3f8dbb53	1.1072792
193	0x3f9df922	1.2341654
194	0x3f95e7aa	1.1711323
195	0x3f8a9ca7	1.0829057
196	0x3f7c6bfc	0.9860227
197	0x3f83e748	1.0304956
198	0x3f8b5364	1.0884824
199	0x3f76d58c	0.96419597
200	0x3f8819de	1.0632894
201	0x3f96ecb1	1.1790982
202	0x3f804c38	1.002326
203	0x3f81513f	1.0102919
204	0x3f8c5361	1.0962945
205	0x3f7659ce	0.9623078
206	0x3f7d7e6e	0.9902104
207	0x3f7fc3e5	0.99908286
208	0x3f71becb	0.9443175
209	0x3f8555e9	1.0416843
210	0x3f8fb73c	1.1227794
211	0x3f809800	1.0046387
212	0x3f713e93	0.94236106
213	0x3f8815b8	1.0631628
214	0x3f9538d3	1.1657966
215	0x3f96c482	1.177872
216	0x3f794943	0.97377414
217	0x3f7f98de	0.9984263
218	0x3f84fadf	1.038906
219	0x3f8af56e	1.0856149
220	0x3f8a78d6	1.0818126
221	0x3f9c2e03	1.2201542
222	0x3f89a6e7	1.075406
223	0x3f66cbed	0.90154916
224	0x3f8035cf	1.0016421
225	0x3f819008	1.012208
226	0x3f82b410	1.0211201
227	0x3f6d315e	0.92653453
228	0x3f8ec6e0	1.1154442
229	0x3f8b3907	1.0876778
230	0x3f7af556	0.980306
231	0x3f89183c	1.0710521
232	0x3f98177d	1.1882168
233	0x3f7e5c76	0.99359834
234	0x3f86328a	1.0484173
235	0x3f607a5f	0.87686723
236	0x3f451901	0.7699128
237	0x3f83a183	1.0283664
238	0x3f8d4a8f	1.1038378
239	0x3f8e0e1f	1.109806
240	0x3f69a463	0.9126646
241	0x3f915e38	1.1356878
242	0x3f852d3a	1.0404427
243	0x3f8b4c3d	1.0882641
244	0x3f86cebd	1.0531842
245	0x3f7ac906	0.9796299
246	0x3f866678	1.0500021
247	0x3f909c4a	1.1297696
248	0x3f91511f	1.1352881
249	0x3f8c18d4	1.0945077
250	0x3f7f4182	0.9970933
251	0x3f7583b6	0.959041
252	0x3f804a40	1.0022659
253	0x3f792b38	0.9733157
254	0x3f7a2237	0.9770846
255	0x3f68b763	0.90904826

normalize.bias f4 [784]
0	0x3d04f357	0.03245863
1	0x3ca6cef6	0.020362359
2	0x3d66135d	0.05617081
3	0x3c8f7058	0.017509624
4	0x3d998a54	0.07497087
5	0x3d635784	0.055503383
6	0x3cf1d3b2	0.02951989
7	0x3d728b85	0.059215087
8	0x3d9d16f3	0.07670393
9	0x3d3fa6ce	0.046789937
10	0x3c80359d	0.015650565
11	0x3cd52a46	0.026021134
12	0x3cd5d59c	0.026102833
13	0xbca47038	-0.020073041
14	0xbc15bda9	-0.009139457
15	0x3b165da3	0.0022943995
16	0x3cbbfff3	0.022949195
17	0x3cae9b59	0.02131431
18	0x3d290240	0.04126191
19	0x3d1db2af	0.038500484
20	0x3d78961c	0.06069003
21	0xbd0508e8	-0.032479197
22	0xbd07747a	-0.033070065
23	0x3b915ec0	0.004436344
24	0x3cb3739b	0.02190571
25	0x3aab86e5	0.0013086466
26	0xbc370974	-0.011171687
27	0x3caad83b	0.02085506
28	0x3c1bb15e	0.009502737
29	0x3b8a2409	0.0042157215
30	0x3d02bf09	0.031920467
31	0x3d94f024	0.07272366
32	0x3d69832c	0.05700986
33	0x3d246ea2	0.04014457
34	0x3d988fdf	0.07449316
35	0x3d3aedbc	0.045636877
36	0x3daeed7d	0.08541391
37	0x3d765cc8	0.060147077
38	0x3c9ae6aa	0.018908817
39	0xbc997273	-0.018731331
40	0x3d048271	0.03235096
41	0x3d1a29c8	0.037637502
42	0x3d3a237a	0.04544399
43	0x3d6f4106	0.05841162
44	0x3c59b49d	0.0132876905
45	0xbc159ebd	-0.009132084
46	0xbb1482b3	-0.002266091
47	0x3d3f1fb1	0.046661083
48	0x3c984c27	0.018591
49	0x3d346752	0.044043846
50	0x3af9ef31	0.0019068477
51	0xbcaa7e43	-0.02081216
52	0xbb49f4b9	-0.0030816032
53	0x3d128137	0.03576776
54	0x3d3c766a	0.046011366
55	0x3cf87235	0.030327896
56	0x3d9ab780	0.07554531
57	0x3d35efca	0.044418134
58	0x3ca4acb0	0.020101875
59	0x3c2f55d1	0.010701613
60	0x3d67d693	0.05660112
61	0x3d92ca7d	0.07167528
62	0x3d418fb9	0.047256205
63	0x3d8bb7cc	0.06822166
64	0x3da1fb61	0.07909275
65	0x3d868ea3	0.065701745
66	0x3da4246d	0.0801476
67	0x3d7187fe	0.058967583
68	0x3c7d26db	0.015451158
69	0x3d18bd46	0.03728988
70	0x3d60586c	0.054771826
71	0x3ca6cb98	0.020360753
72	0x395557c6	0.00020345961
73	0x3d35a879	0.04435012
74	0x3cab3ea0	0.020903885
75	0x3d098b3b	0.033580046
76	0x3cf6d7b6	0.030132156
77	0x3d3f7cb1	0.046749774
78	0x3d5e5a39	0.05428526
79	0x3cfc8a86	0.030827772
80	0x3c359724	0.011083398
81	0x3c7d315c	0.015453663
82	0x3bb2c41e	0.005455508
83	0xbb35bf48	-0.002773242
84	0x3d3daf9b	0.04631005
85	0x3d29b299	0.04143009
86	0x3cf9e216	0.030503314
87	0x3a2240c2	0.0006189459
88	0x3d826a54	0.06367937
89	0x3d28d185	0.04121544
90	0x3d5db812	0.05413062
91	0x3da2a26d	0.079411365
92	0x3d8149ce	0.06312905
93	0x3d932343	0.0718446
94	0x3d8960e2	0.06707932
95	0x3d7c464d	0.06159048
96	0x3d7e1f78	0.06204173
97	0x3c40018c	0.011719119
98	0x3adf4383	0.001703367
99	0xbc0f91a2	-0.008762749
100	0xbc5fde06	-0.013663774
101	0x3c8335f0	0.01601693
102	0xbbd28543	-0.0064245774
103	0x3d965f28	0.07342368
104	0x3d3cc379	0.046084855
105	0x3d777345	0.060412664
106	0x3d710d0f	0.058850344
107	0x3ba80002	0.005126954
108	0xbc63dd10	-0.013907686
109	0x3d67e062	0.056610473
110	0x3d3869e0	0.045022845
111	0x3d40df96	0.04708823
112	0x3bebf46c	0.007200768
113	0xbbd8978e	-0.0066098636
114	0xbc109631	-0.008824871
115	0x3c9fa211	0.019486459
116	0x3de24a27	0.110493
117	0x3d5a20bf	0.053253885
118	0x3dc86596	0.09785001
119	0x3dc0019b	0.09375306
120	0x3d5ecb9e	0.054393403
121	0x3cc788e9	0.024357276
122	0x3cf14c09	0.029455202
123	0x3d07da77	0.03316733
124	0x3c2b5329	0.010456839
125	0xbcca1c94	-0.02467183
126	0xbc319af3	-0.010840165
127	0x3a91096e	0.0011065432
128	0x3c824e11	0.015906366
129	0x3c24fc32	0.010069894
130	0x3cdc6809	0.026905077
131	0x3ce9e34e	0.02855077
132	0x3d3b9996	0.045800768
133	0x3d1ac6a8	0.03778711
134	0x3d6f86f7	0.058478322
135	0x3c4c026f	0.012451752
136	0xbd1882a8	-0.03723398
137	0x3ada4f84	0.0016655778
138	0xbc3483bb	-0.011017735
139	0x3d2fe07c	0.042938694
140	0x3da90391	0.08252633
141	0x3d83da61	0.06438137
142	0x3bcd45aa	0.006264408
143	0x3d7a54d2	0.061116047
144	0x3d621aee	0.055201463
145	0x3d661777	0.05617472
146	0x3d946d25	0.0724738
147	0x3db01230	0.08597219
148	0x3dbd31ff	0.092380516
149	0x3b8182e1	0.0039523696
150	0x3d8ee77b	0.06977745
151	0x3d4b5ec4	0.049650922
152	0xbbce1ebe	-0.006290286
153	0x3890fa80	6.913114e-05
154	0x3b11696a	0.0022188076
155	0x3d04221d	0.032259095
156	0x3c0059b1	0.007833884
157	0x3c347b7d	0.01101577
158	0x3d4d68fc	0.05014895
159	0x3d2484e2	0.04016579
160	0x3d6aa2a3	0.05728401
161	0x3d875614	0.06608215
162	0x3d7719d6	0.060327373
163	0x3c17a339	0.009255224
164	0x3c3a4bbf	0.011370598
165	0xbc4d7c23	-0.0125418035
166	0x3c1a7a8c	0.0094286315
167	0x3c7fad7e	0.015605329
168	0x3bd0d656	0.006373207
169	0x3d116c91	0.035503928
170	0x3d31579f	0.043296453
171	0x3db19296	0.08670537
172	0x3dc455d5	0.09586684
173	0x3d88bc71	0.06676567
174	0x3dc11e54	0.09429613
175	0x3dca5946	0.09880309
176	0x3da6970a	0.08134277
177	0x3d3f7a77	0.04674765
178	0x3c12042c	0.008912127
179	0x3cd285b1	0.025698515
180	0xbca4df9f	-0.020126162
181	0x3ad56be1	0.0016282761
182	0xbb3490d8	-0.0027552154
183	0x3c39194c	0.011297535
184	0x3c98c065	0.018646428
185	0x3c803515	0.015650311
186	0x3d5117e2	0.051048167
187	0x3cc435a9	0.023951368
188	0x3dc5048a	0.096200064
189	0x3d151cc3	0.036404382
190	0x3ccebe32	0.025237177
191	0x3d04602b	0.032318275
192	0x3b91380d	0.0044317306
193	0x398ec491	0.00027230804
194	0x3d0ec1d4	0.034852818
195	0xbb92b8c7	-0.0044775936
196	0x3d040802	0.0322342
197	0x3c3555a9	0.011067786
198	0x3d13f43d	0.036121596
199	0x3daa2bbb	0.08309122
200	0x3d4a2af3	0.049357366
201	0x3dac735b	0.0842044
202	0x3dab9f0b	0.083799444
203	0x3dce1713	0.10062995
204	0x3d71eec7	0.059065606
205	0x3d03117e	0.031999104
206	0xbb1ceb4b	-0.0023943956
207	0x3cd6d7bb	0.026225915
208	0x3ced140f	0.028940229
209	0x3cc01afb	0.023450365
210	0x3d05799e	0.032586686
211	0x3c830a9b	0.015996268
212	0x3c293c13	0.010329264
213	0x3cad1a1a	0.02113061
214	0x3d4a7a1c	0.04943286
215	0x3d18e273	0.037325334
216	0x3d93c214	0.07214752
217	0x3cffb126	0.0312124
218	0x3d1f816f	0.038941797
219	0x3ccaea26	0.024769854
220	0x3cc9fccc	0.024656676
221	0xbc3a7155	-0.0113795595
222	0xbb0c731c	-0.0021430915
223	0x3d00d37e	0.031451695
224	0x3cdc9da2	0.026930634
225	0x3d30107a	0.042984463
226	0x3d65b510	0.056080878
227	0x3dbf9b5a	0.09355803
228	0x3d8e16f0	0.06937969
229	0x3db0994f	0.08622991
230	0x3db1cc44	0.08681539
231	0x3d81babb	0.06334444
232	0x3d232a59	0.039835308
233	0xba0cd028	-0.0005371594
234	0x3a8a814a	0.0010567096
235	0x3d40ce74	0.04707189
236	0x3d254f99	0.040359113
237	0x3d130100	0.035889626
238	0xbc8268e5	-0.015919158
239	0x3cb108b7	0.0216106
240	0x3d89ff47	0.067381434
241	0x3d53e51a	0.05173216
242	0x3c41d08e	0.0118295085
243	0x3b211b2d	0.0024582848
244	0x3d979822	0.07402064
245	0x3cb7785f	0.022396265
246	0x3d02abed	0.031902242
247	0xbc316ac2	-0.010828676
248	0x3c6551d6	0.013996562
249	0x3cd9f0c3	0.026604062
250	0x3ccf2b7c	0.02528929
251	0x3d2ef5e8	0.042714983
252	0x3da4554f	0.08024084
253	0x3d802f41	0.06259013
254	0x3d364b1b	0.04450522
255	0x3dc51807	0.096237235

normalize.running_mean f4 [784]
0	0xbf7ffffa	-0.99999964
1	0xbf7ff991	-0.99990183
2	0xbf7ff126	-0.9997734
3	0xbf7fdece	-0.9994935
4	0xbf7faed7	-0.9987616
5	0xbf7f7be3	-0.9979841
6	0xbf7e8824	-0.99426484
7	0xbf7ad8f5	-0.979873
8	0xbf74cd86	-0.95626104
9	0xbf64f69b	-0.8943879
10	0xbf4366f9	-0.76329
11	0xbf261a6d	-0.6488407
12	0xbf16154f	-0.58626264
13	0xbf191f98	-0.59813833
14	0xbf18b380	-0.59648895
15	0xbf11330e	-0.5671853
16	0xbf1ae2d6	-0.60502374
17	0xbf314284	-0.6924212
18	0xbf4f2426	-0.80914533
19	0xbf6aea8a	-0.9176413
20	0xbf76c009	-0.9638677
21	0xbf7c781a	-0.9862076
22	0xbf7e4ecb	-0.9933898
23	0xbf7ea20a	-0.99466
24	0xbf7f1017	-0.99633926
25	0xbf7f3d22	-0.99702656
26	0xbf7fee32	-0.9997283
27	0xbf7ffb0e	-0.99992454
28	0xbf7ff996	-0.9999021
29	0xbf7fcf30	-0.9992552
30	0xbf7fc507	-0.99910015
31	0xbf7f8024	-0.998049
32	0xbf7f010b	-0.99610966
33	0xbf7bde3c	-0.9838598
34	0xbf6f92e0	-0.9358349
35	0xbf5bcdbf	-0.8586082
36	0xbf41db9f	-0.7572574
37	0xbf1c1f36	-0.60985124
38	0xbec2b8c8	-0.38031602
39	0xbe5ee3f1	-0.2176664
40	0xbdfaf4b1	-0.122537024
41	0xbe15bf8c	-0.1462385
42	0xbe264f30	-0.16241145
43	0xbdf29bf9	-0.11846156
44	0xbe0765e5	-0.13222463
45	0xbe9242b7	-0.28566524
46	0xbee914e6	-0.45523757
47	0xbf277328	-0.6541009
48	0xbf4c1f4f	-0.79735273
49	0xbf63aab7	-0.88932365
50	0xbf738bc9	-0.9513517
51	0xbf79af25	-0.97532874
52	0xbf7c26bf	-0.9849662
53	0xbf7d6acc	-0.98991084
54	0xbf7f6dcf	-0.9977693
55	0xbf7feb16	-0.9996809
56	0xbf7fd484	-0.9993365
57	0xbf7fb9cf	-0.99892896
58	0xbf7fa31a	-0.9985825
59	0xbf7f08e7	-0.9962296
60	0xbf7b11ba	-0.98073924
61	0xbf6b31d2	-0.91872895
62	0xbf534f0a	-0.8254248
63	0xbf3b7655	-0.73227435
64	0xbf1c553f	-0.61067575
65	0xbee0f5d4	-0.43937552
66	0xbe8745dd	-0.2642049
67	0xbe49db4c	-0.19712561
68	0xbe2220ba	-0.15832797
69	0xbe28e952	-0.16495255
70	0xbe237ae0	-0.15964842
71	0xbe180d28	-0.14848769
72	0xbe22fe9e	-0.15917441
73	0xbe4e0208	-0.20117962
74	0xbe947189	-0.2899287
75	0xbef61c37	-0.480684
76	0xbf26bb7f	-0.65129846
77	0xbf3e7ff6	-0.74414
78	0xbf56396f	-0.83681387
79	0xbf6c6611	-0.9234324
80	0xbf76d8e4	-0.964247
81	0xbf7afc21	-0.9804097
82	0xbf7db240	-0.9910011
83	0xbf7fcfa5	-0.99926215
84	0xbf7fc67f	-0.99912256
85	0xbf7fa0fb	-0.9985501
86	0xbf7f63a4	-0.99761415
87	0xbf7d74b8	-0.99006224
88	0xbf727521	-0.94709975
89	0xbf59b277	-0.8503794
90	0xbf3c2e5c	-0.7350824
91	0xbf1a7f57	-0.60350555
92	0xbef94466	-0.48684996
93	0xbeb39830	-0.35077047
94	0xbe75425d	-0.23951097
95	0xbe4f1014	-0.20220977
96	0xbe34eb6e	-0.17667934
97	0xbe24e86a	-0.16104284
98	0xbe23b2a9	-0.15986122
99	0xbe23f230	-0.16010356
100	0xbe2abd87	-0.16673861
101	0xbe3c51f0	-0.18390632
102	0xbe5b1d12	-0.21397808
103	0xbeac5155	-0.336558
104	0xbeff143c	-0.49820125
105	0xbf1fc45e	-0.6240901
106	0xbf3bebbf	-0.73406595
107	0xbf59906e	-0.8498601
108	0xbf6f81f8	-0.9355769
109	0xbf77dd6d	-0.96822244
110	0xbf7c0fc0	-0.9846153
111	0xbf7f6b26	-0.9977287
112	0xbf7fc997	-0.99916977
113	0xbf7f6f6c	-0.9977939
114	0xbf7e8c2a	-0.99432623
115	0xbf791832	-0.97302544
116	0xbf68aee2	-0.9089185
117	0xbf475865	-0.77869254
118	0xbf211dfc	-0.6293638
119	0xbf060b0c	-0.52360606
120	0xbedf6135	-0.4362885
121	0xbe9db5df	-0.3080282
122	0xbe51cbe6	-0.20487937
123	0xbe470d30	-0.19438624
124	0xbe450cf5	-0.19243224
125	0xbe39b0e3	-0.18133883
126	0xbe23e697	-0.16005932
127	0xbe163a7b	-0.14670746
128	0xbe126775	-0.14297278
129	0xbe187aa4	-0.14890534
130	0xbe3301d3	-0.17481165
131	0xbe8df1da	-0.2772358
132	0xbecf82c5	-0.40529457
133	0xbf02fc47	-0.51166195
134	0xbf21a246	-0.63138235
135	0xbf46ab06	-0.7760471
136	0xbf63d820	-0.89001656
137	0xbf71d3e1	-0.94463927
138	0xbf781653	-0.96909064
139	0xbf7e1a02	-0.99258435
140	0xbf7f2ec2	-0.9968072
141	0xbf7e4173	-0.9931862
142	0xbf7c09d5	-0.984525
143	0xbf746817	-0.9547133
144	0xbf5e343b	-0.8679845
145	0xbf3537c6	-0.7078823
146	0xbf12b49c	-0.5730684
147	0xbef45076	-0.47717637
148	0xbecc6034	-0.39917147
149	0xbe8cce62	-0.27501208
150	0xbe45446b	-0.1926438
151	0xbe42829b	-0.18995135
152	0xbe45e840	-0.19326878
153	0xbe30c8f0	-0.17264152
154	0xbe0e9dec	-0.1392743
155	0xbe0b685c	-0.13614029
156	0xbe018beb	-0.1265103
157	0xbdec322a	-0.115330055
158	0xbe13af37	-0.14422308
159	0xbe5cc28b	-0.21558587
160	0xbea97813	-0.33099422
161	0xbedfe92f	-0.43732592
162	0xbf0a4d2d	-0.5402401
163	0xbf3041d6	-0.6885046
164	0xbf5280c7	-0.8222775
165	0xbf6784d0	-0.9043703
166	0xbf738539	-0.95125157
167	0xbf7cbb16	-0.9872297
168	0xbf7e99f3	-0.9945366
169	0xbf7d05aa	-0.9883677
170	0xbf78c08c	-0.97168803
171	0xbf6eaf5a	-0.93236315
172	0xbf535b78	-0.82561445
173	0xbf2763f3	-0.65386885
174	0xbf066312	-0.5249492
175	0xbedc92aa	-0.43080646
176	0xbec2481e	-0.37945646
177	0xbe87ba2b	-0.26509222
178	0xbe47d2d0	-0.19514012
179	0xbe4bd78d	-0.19906445
180	0xbe47a2a0	-0.1949563
181	0xbe24aef1	-0.1608236
182	0xbdf00dd4	-0.117213875
183	0xbdb040d8	-0.08606118
184	0xbda94302	-0.08264734
185	0xbda2ecca	-0.0795532
186	0xbddafcac	-0.106927246
187	0xbe249fea	-0.16076627
188	0xbe87b7a9	-0.2650731
189	0xbeb568c4	-0.35431492
190	0xbef2d0ba	-0.4742487
191	0xbf1c3438	-0.6101718
192	0xbf41ff56	-0.75780237
193	0xbf5a595e	-0.85292614
194	0xbf6d1ced	-0.9262226
195	0xbf7c6f6e	-0.9860753
196	0xbf7e4949	-0.99330574
197	0xbf7a351c	-0.9773729
198	0xbf74e49a	-0.9566132
199	0xbf691148	-0.91041994
200	0xbf486df9	-0.78292805
201	0xbf1b5269	-0.6067262
202	0xbef691cd	-0.48158112
203	0xbec829fc	-0.39094532
204	0xbeafcaa9	-0.34334305
205	0xbe7e1331	-0.24812008
206	0xbe3d21f5	-0.18469985
207	0xbe3ab044	-0.18231302
208	0xbe326871	-0.17422654
209	0xbe195d2c	-0.14976948
210	0xbde19448	-0.110146105
211	0xbd775dc0	-0.06039214
212	0xbd0dbb3d	-0.034602392
213	0xbcecc668	-0.028903201
214	0xbd7c9846	-0.061668657
215	0xbddee880	-0.108841896
216	0xbe42b67b	-0.19014923
217	0xbe8db01e	-0.2767343
218	0xbec9ea9d	-0.39436808
219	0xbf0be8ea	-0.54652274
220	0xbf32f9c4	-0.6991236
221	0xbf4e6828	-0.8062768
222	0xbf67b675	-0.9051278
223	0xbf7bbf4c	-0.9833877
224	0xbf7df185	-0.99196655
225	0xbf78881d	-0.9708269
226	0xbf7249b3	-0.94643706
227	0xbf632d59	-0.8874107
228	0xbf41e278	-0.7573619
229	0xbf1478e6	-0.57996976
230	0xbeea9a2d	-0.45820752
231	0xbeb52230	-0.35377645
232	0xbea3e54b	-0.32010874
233	0xbe7d435d	-0.24732728
234	0xbe31e9ec	-0.1737439
235	0xbe22c22c	-0.15894383
236	0xbe1c82fe	-0.15284345
237	0xbdf7cd09	-0.12099654
238	0xbdd7ed1a	-0.105432704
239	0xbbfb338c	-0.007666057
240	0x3d25cffa	0.040481545
241	0x3d28eb31	0.04123992
242	0xbc81f14c	-0.01586213
243	0xbd75872d	-0.059943367
244	0xbdfef7f6	-0.124496385
245	0xbe4f8001	-0.20263673
246	0xbea4e322	-0.3220454
247	0xbef472a2	-0.47743708
248	0xbf2170c7	-0.6306271
249	0xbf3e16ea	-0.74253714
250	0xbf5f6414	-0.8726208
251	0xbf799cb6	-0.97504747
252	0xbf7dae9a	-0.99094546
253	0xbf77428f	-0.96585935
254	0xbf70279c	-0.9381044
255	0xbf5d9d48	-0.8656812

normalize.running_var f4 [784]
0	0x314c1e46	2.9703116e-09
1	0x35dc194c	1.639864e-06
2	0x38683d67	5.5370296e-05
3	0x389a21dd	7.3496e-05
4	0x3a0b647b	0.0005317402
5	0x3a8ae090	0.0010595489
6	0x3b5290e3	0.0032129816
7	0x3c66b20d	0.014080537
8	0x3d05fa31	0.032709304
9	0x3da71870	0.08158958
10	0x3e457b46	0.19285306
11	0x3e86f344	0.26357472
12	0x3e98ffe5	0.29882732
13	0x3e9271f0	0.28602552
14	0x3e93825e	0.288104
15	0x3e9f4343	0.31106004
16	0x3e903a75	0.281696
17	0x3e73818a	0.23779884
18	0x3e1e3c40	0.15452671
19	0x3d8315a4	0.06400612
20	0x3cfb39f1	0.030667277
21	0x3c2181e7	0.009857631
22	0x3ba6276c	0.0050706174
23	0x3b847a07	0.004042867
24	0x3b4bd15e	0.0031100134
25	0x3b0efd96	0.002181863
26	0x3997ed5c	0.0002897781
27	0x37f9054a	2.9685576e-05
28	0x37b5da8a	2.1678647e-05
29	0x3a2bfac0	0.0006560497
30	0x3a2a18fe	0.00064887095
31	0x3aa4d6cf	0.0012576225
32	0x3b433bee	0.002979036
33	0x3c5ef7ff	0.013608932
34	0x3d788a6d	0.060678888
35	0x3e15db37	0.14634405
36	0x3e86c19a	0.2631958
37	0x3ec993c0	0.39370537
38	0x3f0f057f	0.5586776
39	0x3f1edcf9	0.6205593
40	0x3f28bd85	0.65914184
41	0x3f26f2b0	0.6521406
42	0x3f254caa	0.64570105
43	0x3f271422	0.65265095
44	0x3f254d16	0.6457075
45	0x3f143edf	0.57908434
46	0x3f0230ed	0.50855905
47	0x3eb72995	0.35773912
48	0x3e630031	0.22168042
49	0x3df32743	0.11872723
50	0x3d64464d	0.055731107
51	0x3cd97185	0.026543388
52	0x3ca438e4	0.020046659
53	0x3c46d172	0.012134897
54	0x3ac4b270	0.0015006792
55	0x399a3d7b	0.00029418975
56	0x3a4e9b23	0.00078813935
57	0x3aa53736	0.0012604955
58	0x3aaacd01	0.0013031067
59	0x3b7000fe	0.0036621685
60	0x3c7f828f	0.015595092
61	0x3db21b21	0.08696581
62	0x3e4be433	0.1991127
63	0x3e941d15	0.28928438
64	0x3ec63ed7	0.38719818
65	0x3ef0aefe	0.47008508
66	0x3f0d9d1f	0.5531787
67	0x3f100a25	0.5626548
68	0x3f13a717	0.57676834
69	0x3f173765	0.590689
70	0x3f184d69	0.5949312
71	0x3f12cccf	0.57343763
72	0x3f0c7aa8	0.5487466
73	0x3f0bc88a	0.54602873
74	0x3f05de7b	0.52292603
75	0x3ee4b637	0.4467027
76	0x3eb65015	0.35607973
77	0x3e95682f	0.29181048
78	0x3e3ebbfa	0.18626395
79	0x3dc304d3	0.095224045
80	0x3d3bc9d1	0.045846764
81	0x3cb9685d	0.022632772
82	0x3c3e4151	0.011612252
83	0x39a99d2e	0.000323513
84	0x3a73bb8a	0.000929766
85	0x3ac530eb	0.0015044486
86	0x3af3a1c9	0.0018587644
87	0x3c0dc56a	0.008653024
88	0x3d7818fa	0.060570695
89	0x3e2d8275	0.16944297
90	0x3e8c65db	0.2742146
91	0x3ebf9277	0.3741643
92	0x3eec1c22	0.46115214
93	0x3f018d26	0.50606
94	0x3f0becb1	0.5465804
95	0x3f09cda1	0.5382939
96	0x3f0f7850	0.5604296
97	0x3f14133e	0.5784186
98	0x3f126eaf	0.5720014
99	0x3f0facb0	0.56122875
100	0x3f078985	0.52944213
101	0x3f064e48	0.524632
102	0x3f08228c	0.53177714
103	0x3eff879c	0.4990815
104	0x3ee1b25b	0.44081387
105	0x3ebf77fd	0.3739623
106	0x3e97c501	0.2964249
107	0x3e366e00	0.17815399
108	0x3da76796	0.08174054
109	0x3d1fe79e	0.039039247
110	0x3c9de24b	0.019272944
111	0x3aff6782	0.0019485804
112	0x3a4963d6	0.0007682418
113	0x3b122d83	0.002230496
114	0x3ba2225f	0.004947945
115	0x3ce92764	0.028461166
116	0x3dd46906	0.10371594
117	0x3e7aa2bb	0.24476139
118	0x3ebf429b	0.37355503
119	0x3ee03e52	0.43797547
120	0x3ef846d8	0.4849155
121	0x3f022cf9	0.5084987
122	0x3f0c04d6	0.5469488
123	0x3f06516b	0.52467984
124	0x3f096efb	0.5368497
125	0x3f0b8747	0.5450329
126	0x3f0bc329	0.54594666
127	0x3f0996b5	0.53745586
128	0x3f046962	0.517233
129	0x3f01f99d	0.50771505
130	0x3f04ba3d	0.5184668
131	0x3f00a9c8	0.50259066
132	0x3ef89a32	0.48555142
133	0x3ee4e45c	0.44705474
134	0x3ebf0b2c	0.3731321
135	0x3e8393e3	0.25698766
136	0x3e09215c	0.13391632
137	0x3d81ca6b	0.06337436
138	0x3d12e728	0.03586498
139	0x3bb286f2	0.0054482156
140	0x3af16bc7	0.0018418961
141	0x3c022606	0.007943636
142	0x3c84ec02	0.016225819
143	0x3d4c369f	0.04985678
144	0x3e1b9b22	0.15195897
145	0x3e9cd3fa	0.30630475
146	0x3ed493c8	0.41518998
147	0x3eec909d	0.4620408
148	0x3f015525	0.50520545
149	0x3f0437d4	0.51647687
150	0x3f08f72d	0.5350216
151	0x3f0449cc	0.51675105
152	0x3f0650e4	0.5246718
153	0x3f05fa0b	0.5233466
154	0x3f092542	0.53572476
155	0x3f0591c3	0.5217554
156	0x3f0178d5	0.50575
157	0x3efc0557	0.49222824
158	0x3f0091b5	0.5022233
159	0x3f01c21f	0.5068683
160	0x3f020d10	0.5080118
161	0x3ef4481e	0.4771127
162	0x3ede46ae	0.434133
163	0x3ea9d5d8	0.33170962
164	0x3e54ba1d	0.20774122
165	0x3de5368e	0.11192046
166	0x3d5cca9b	0.053904157
167	0x3c549bf1	0.012976632
168	0x3bc51c38	0.006015327
169	0x3c402158	0.0117267
170	0x3d0628a6	0.03275361
171	0x3d9fc11c	0.078005046
172	0x3e538a5a	0.20658246
173	0x3eb52c1b	0.35385212
174	0x3ee5c99e	0.44880384
175	0x3f00120e	0.5002755
176	0x3f01b6f4	0.5066979
177	0x3f00059a	0.5000855
178	0x3f05c979	0.5226055
179	0x3efcb153	0.49354038
180	0x3f02b3ea	0.5105578
181	0x3f03968d	0.514016
182	0x3f05342a	0.5203272
183	0x3f02386c	0.5086734
184	0x3ef8c8ff	0.48590848
185	0x3ef2e190	0.47437716
186	0x3ef7367a	0.4828375
187	0x3efcff15	0.49413362
188	0x3f05d6c1	0.52280813
189	0x3f02de23	0.51120204
190	0x3ef31c20	0.47482395
191	0x3ec9ee96	0.3943984
192	0x3e90ab0d	0.282555
193	0x3e3975ef	0.18111394
194	0x3da94b15	0.08266274
195	0x3c196d4b	0.009364436
196	0x3bc7a475	0.006092603
197	0x3cd91369	0.026498513
198	0x3d54ae40	0.05192399
199	0x3dd7dc8b	0.10540112
200	0x3e8068d2	0.25079972
201	0x3ecb07a6	0.39654273
202	0x3ef989cf	0.48737952
203	0x3f067b20	0.52531624
204	0x3f034ab5	0.5128587
205	0x3eff4c71	0.49863008
206	0x3f02ed4d	0.5114334
207	0x3efb86f8	0.4912641
208	0x3f01de82	0.50730145
209	0x3f004581	0.50106055
210	0x3efca0f6	0.49341553
211	0x3efdd546	0.49576777
212	0x3eea7126	0.4578945
213	0x3edd0944	0.43171132
214	0x3eebbdbc	0.46043193
215	0x3efa3cc1	0.48874477
216	0x3f074179	0.5283428
217	0x3f073cfe	0.5282744
218	0x3f014703	0.5049898
219	0x3edea1d6	0.43482846
220	0x3eacde02	0.3376313
221	0x3e674f7d	0.22588916
222	0x3dd670b7	0.104707174
223	0x3c395b44	0.011313263
224	0x3be95fd1	0.007122018
225	0x3d0f6b40	0.03501439
226	0x3d7eb9ee	0.062189035
227	0x3e076fe1	0.13226272
228	0x3e8a982e	0.2706923
229	0x3ed03bba	0.40670568
230	0x3f007d72	0.50191414
231	0x3f0ec37d	0.5576704
232	0x3f090ef3	0.53538436
233	0x3f007268	0.5017457
234	0x3f0340f2	0.51270974
235	0x3efdc284	0.49562466
236	0x3eff6250	0.49879694
237	0x3efbbaa5	0.49165836
238	0x3ef289a0	0.47370625
239	0x3eecbb97	0.4623687
240	0x3ed76ab0	0.42073584
241	0x3ec953c0	0.3932171
242	0x3eddaa6d	0.43294087
243	0x3ef4e678	0.47832084
244	0x3f0930be	0.5359
245	0x3f0bb3be	0.5457114
246	0x3f0658bf	0.52479166
247	0x3eeeb217	0.46620247
248	0x3ec3b84a	0.3822654
249	0x3e93b5b9	0.2884958
250	0x3e1184f4	0.14210874
251	0x3c9d5d94	0.01920966
252	0x3c04dd95	0.00810947
253	0x3d27fd9a	0.041013338
254	0x3d970a7f	0.07375049
255	0x3e243736	0.16036686

fc1.weight f4 [128, 784]
0	0x3d6e0140	0.05810666
1	0x3da76274	0.08173075
2	0x3dd6cf5e	0.10488771
3	0x3d96d1fe	0.073642716
4	0x3c803cc4	0.015653975
5	0x3d6edd04	0.058316246
6	0x3db01560	0.08597827
7	0x3d08df6d	0.0334162
8	0xbc48b47e	-0.012250064
9	0xbc832e47	-0.016013278
10	0xbb86239b	-0.0040936
11	0x3d59a869	0.053139124
12	0xbd0e2682	-0.034704693
13	0xbd1d9485	-0.038471717
14	0xbdc199ff	-0.094532005
15	0xbd37274b	-0.044715207
16	0x3ce56764	0.028003402
17	0x3d160adb	0.036631446
18	0xbc539b83	-0.012915495
19	0xbd9e0321	-0.077154405
20	0xbd9f2c66	-0.0777214
21	0x3dab5eed	0.08367715
22	0x3d6b9d63	0.057523143
23	0xbce18a18	-0.027531669
24	0x3d8dab46	0.069174334
25	0x3ceadeeb	0.028670749
26	0x3d8bed41	0.06832362
27	0x3d4a4654	0.049383476
28	0xbaf0bd37	-0.0018366937
29	0xbd29ccbd	-0.04145502
30	0xbbf2e68a	-0.0074127363
31	0xbcb35406	-0.021890651
32	0xbbedd251	-0.0072577377
33	0x3ccac35f	0.024751363
34	0x3da6b9ac	0.08140883
35	0xbdc7b4c0	-0.09751272
36	0x3d9b1a85	0.075734176
37	0x3e4b0a9d	0.19828267
38	0x3ca5b13d	0.020226115
39	0xbc97c7e1	-0.018527927
40	0xbc6bb347	-0.014386005
41	0xbd1ce66b	-0.03830568
42	0x3c9bd29e	0.019021329
43	0xbbbba953	-0.005726972
44	0xbda98ad0	-0.082784295
45	0xbd8513c4	-0.064979106
46	0x3d47a826	0.048744343
47	0x3d98463c	0.07435271
48	0xbd90b3d0	-0.070655465
49	0x3c907c9d	0.017637545
50	0x3d804492	0.06263079
51	0xbc63f410	-0.0139131695
52	0x3d41434a	0.047183312
53	0xbc950eca	-0.018195529
54	0xbcd745e3	-0.026278442
55	0xbb9fd39e	-0.0048775217
56	0xbbf69397	-0.0075249183
57	0x3b7f98c5	0.003900097
58	0xbce8b63a	-0.028407205
59	0xbc832038	-0.016006574
60	0x3d05e022	0.032684453
61	0xbda7bcef	-0.08190333
62	0xbd3a6ac0	-0.04551196
63	0x3d75bf54	0.059996918
64	0x3dedc613	0.11610045
65	0x3d7c1a16	0.061548315
66	0xbca3274e	-0.019916203
67	0xbd9393ec	-0.07205948
68	0xbd9f8093	-0.077881955
69	0xbd5009bd	-0.050790537
70	0xbdb2e0b7	-0.08734267
71	0xbd90e21e	-0.070743784
72	0xbd957600	-0.07297897
73	0xbd2bbef8	-0.04193017
74	0x3d819ff8	0.0632934
75	0x3dea84af	0.11451089
76	0x3db6ba52	0.089222565
77	0xbca53e01	-0.020171167
78	0xbcf4dbe2	-0.029890005
79	0x3d2ebed5	0.04266246
80	0x3bbbbaa7	0.005729038
81	0x3d79b461	0.06096304
82	0x3d61c2a0	0.05511725
83	0x3ceae0b2	0.028671596
84	0x3cbf09e1	0.02332014
85	0x3d4457bb	0.04793523
86	0xbca7e3a9	-0.020494299
87	0xbd2971d3	-0.041368317
88	0x3cd902b7	0.026490552
89	0xbd497bd1	-0.049190346
90	0xbde7156c	-0.11283383
91	0x3dba0bf4	0.09084311
92	0x3d3543db	0.044254165
93	0xbcaf9db4	-0.021437503
94	0xbb9fd5b0	-0.0048777685
95	0x3d4a5fbf	0.049407717
96	0xbdae0785	-0.08497528
97	0xbd99c14a	-0.0750757
98	0xbb8e6c2c	-0.004346391
99	0xbd418d04	-0.047253624
100	0xbcbe9c2e	-0.023267832
101	0x3c5a629a	0.0133291725
102	0xbbea5932	-0.007151746
103	0xbcd7d259	-0.026345419
104	0x3cd98b78	0.026555762
105	0xbd8f0df8	-0.06985086
106	0xbdd4291e	-0.10359405
107	0x3ce6942f	0.028146831
108	0x3d53714b	0.051621716
109	0x3d25c38b	0.040469687
110	0x3d2de0f4	0.04245086
111	0xbd94d384	-0.07266906
112	0x3d41027b	0.047121506
113	0xbcdd938e	-0.027047899
114	0x3d82f88f	0.06395065
115	0x3d498287	0.049196746
116	0xbc01e618	-0.007928394
117	0xbd898916	-0.067156
118	0xbd49eae0	-0.04929626
119	0x3dc96b1f	0.09834885
120	0x3d53b37d	0.051684845
121	0xbc8718bc	-0.016491286
122	0x3c760d8f	0.015017881
123	0x3d593987	0.053033378
124	0xbc9c4f5b	-0.019080808
125	0xbd9edba7	-0.07756739
126	0xbd0c0432	-0.03418369
127	0x3bc48c23	0.005998151
128	0xbd49ce0c	-0.049268767
129	0x3c9c00a9	0.019043284
130	0x3c8e61a8	0.01738055
131	0xbd33d3f8	-0.04390332
132	0x3d4e3563	0.050343882
133	0xbd1f9950	-0.03896457
134	0xbd573af9	-0.052546475
135	0x39c665a2	0.00037841225
136	0x3cbe029c	0.023194604
137	0x3d136815	0.035987932
138	0x3cb2d170	0.021828383
139	0xbd7649f2	-0.060129113
140	0xb9228cca	-0.00015501972
141	0x3bae2f80	0.005315721
142	0xbc971f12	-0.018447433
143	0x3d075de7	0.033048537
144	0xbbdeeee4	-0.0068033803
145	0xbdeae105	-0.114687
146	0xbbdc8149	-0.006729279
147	0x3da2b370	0.07944381
148	0x3d99b811	0.07505811
149	0x3c102121	0.008796961
150	0x3d63898d	0.0555511
151	0x3cfe9cf3	0.031080699
152	0xbbc70392	-0.0060734237
153	0xbd210e97	-0.039320555
154	0xbd2b41cd	-0.0418108
155	0x3c8e5a8a	0.017377157
156	0xbbc495ac	-0.0059992876
157	0x3cb8878c	0.022525571
158	0x3d741bac	0.059596702
159	0x3cbacae5	0.022801826
160	0x3d18e931	0.037331764
161	0x3d090ecd	0.03346138
162	0xbd8c3679	-0.06846327
163	0xbb874645	-0.00412825
164	0xbc9f00a2	-0.019409481
165	0xbd094fb2	-0.03352327
166	0xbd897dcc	-0.06713447
167	0xbdab1d78	-0.0835523
168	0xbc8c241f	-0.017107068
169	0x3d3517be	0.044212095
170	0x3d114948	0.035470277
171	0x3c7c37a5	0.015394126
172	0xbc6baa81	-0.014383913
173	0xbdffa3f7	-0.12482446
174	0x3cc254be	0.023722049
175	0x3c887957	0.016659422
176	0xbd380c2a	-0.044933476
177	0x3c99aac1	0.01875818
178	0x3d81448c	0.063119024
179	0x3d180733	0.03711624
180	0x3c905f6e	0.01762363
181	0xbd80c840	-0.06288195
182	0xbd5e001b	-0.05419932
183	0xbd993d77	-0.074824266
184	0xbd171111	-0.03688151
185	0x3dbaab3f	0.09114694
186	0x3e100925	0.14065988
187	0x3db93786	0.090437934
188	0x3d8a4436	0.067512915
189	0xbd1aa6f4	-0.037756875
190	0xbdc9cb61	-0.098532446
191	0xbdb86c81	-0.090050705
192	0xbce36cb1	-0.027761789
193	0xbdffad9b	-0.124842845
194	0xbe0ab677	-0.13546167
195	0xbdd57ffe	-0.10424803
196	0xbd0849fe	-0.03327369
197	0xbcef9697	-0.029246612
198	0xbcee3359	-0.029077219
199	0x3ca82a11	0.020527871
200	0xbd3f4b0a	-0.046702422
201	0xbe08c6fd	-0.13357158
202	0x3cb7597a	0.022381533
203	0xbd1d7ca0	-0.03844893
204	0xbddbf0c7	-0.10739284
205	0x3d75c540	0.060002565
206	0x3d74d65e	0.05977475
207	0x3d2f58ef	0.042809423
208	0xbc6020e1	-0.013679714
209	0xbc9f82f9	-0.019471632
210	0xbd94bd97	-0.07262724
211	0xbd2136ce	-0.039358906
212	0x3ba75bb2	0.0051073665
213	0x3da28387	0.07935243
214	0x3e41ac5e	0.18913409
215	0x3dc76f3c	0.09738013
216	0xbb7601fe	-0.0037537809
217	0xbd689a52	-0.056787796
218	0xbdf2bdbf	-0.118525974
219	0xbdade6bf	-0.08491277
220	0xbdfb05f0	-0.12256992
221	0xbdce8aa8	-0.1008504
222	0xbd5147ab	-0.05109374
223	0x3c890b1e	0.016728934
224	0xbda86c4e	-0.082237825
225	0xbd223895	-0.039604742
226	0xbd019d0b	-0.03164391
227	0x3c1b8153	0.0094912825
228	0xbdea54dc	-0.11441967
229	0xbdf8382e	-0.121200904
230	0x3ab0c3aa	0.0013486047
231	0xbcf30407	-0.029665006
232	0xbe2b13e1	-0.16706802
233	0xbd227b84	-0.039668575
234	0xbd5af2ea	-0.053454317
235	0xbc18a1cc	-0.009315919
236	0xbcc7d74e	-0.024394657
237	0xbd3def8c	-0.046371028
238	0xbd56e3aa	-0.05246321
239	0xbe09f8fc	-0.13473886
240	0xbd619227	-0.055071022
241	0xbd22afe0	-0.03971851
242	0x3c547feb	0.012969951
243	0x3d27996e	0.040917806
244	0xbbd1cafe	-0.0064023724
245	0x3d3ce939	0.046120856
246	0xbddcf6be	-0.1078925
247	0xbe124058	-0.14282358
248	0xbdc5f7ca	-0.09666403
249	0xbda19a29	-0.07890732
250	0xbd5f9100	-0.054581642
251	0x3cb6e880	0.022327662
252	0xbc96610e	-0.018356826
253	0xbca76876	-0.020435553
254	0xbcbf0ecb	-0.023322484
255	0x3bd4eab9	0.0064977077

fc1.bias f4 [128]
0	0xbc157773	-0.009122717
1	0xbd368cb5	-0.044567782
2	0xbd1b96bb	-0.037985545
3	0xbcaa073d	-0.020755405
4	0xbdafedf3	-0.08590307
5	0x3d026455	0.031833965
6	0xbda7ba24	-0.081898004
7	0x3cb77d01	0.022398474
8	0x3b9b7c96	0.0047450764
9	0xbc29f37a	-0.010372991
10	0x3b5366ac	0.0032257242
11	0x3cd90248	0.026490346
12	0xbd269ad8	-0.040675014
13	0xbc8b4b55	-0.017003695
14	0xbb410635	-0.0029453163
15	0x3ce1482d	0.027500236
16	0x3d21fd2d	0.039548088
17	0xbc6231e7	-0.013805843
18	0xbd8dde0f	-0.0692712
19	0xbccff90d	-0.025387311
20	0xbd06075a	-0.032721855
21	0xbda54aba	-0.080708936
22	0xbd70df50	-0.058806717
23	0xbd34621e	-0.044038884
24	0xbd8a2863	-0.067459844
25	0xbd2423ef	-0.04007333
26	0x3b295ba4	0.0025841976
27	0xbcb095ce	-0.021555807
28	0xbc69d25d	-0.014271346
29	0xbc3baa20	-0.011454135
30	0xbd38a063	-0.04507483
31	0xbd3afa24	-0.04564871
32	0xbd6bc8f6	-0.0575647
33	0xbcb81d0c	-0.022474788
34	0xbb05ec8d	-0.0020435185
35	0xbe03d99e	-0.12875983
36	0xbd9a2929	-0.07527382
37	0x3cd88e17	0.026434941
38	0xbad8af1c	-0.0016531679
39	0x3d55befe	0.052184097
40	0xbd8f2b51	-0.06990684
41	0xbcd9fd2f	-0.026609985
42	0x3d837e30	0.06420553
43	0xbc89e94e	-0.016834881
44	0xbbdb3363	-0.0066894754
45	0x3c810098	0.015747353
46	0xbbe7c8fa	-0.007073519
47	0x3d2de762	0.042456992
48	0x3d983fc5	0.07434038
49	0x3cd80276	0.026368361
50	0xbc0fecf7	-0.008784524
51	0xbd390b48	-0.045176774
52	0x3bff7a6c	0.0077965762
53	0xbd25d4b4	-0.040486053
54	0x3d7135ee	0.058889322
55	0x3d402891	0.046913687
56	0x3d92bf08	0.071653426
57	0x3c3b7bbd	0.011443076
58	0x3d8435f8	0.06455606
59	0x3d849517	0.06473749
60	0x3d9e23de	0.07721685
61	0x3c62d3c9	0.013844439
62	0xbdaaf574	-0.08347598
63	0xbd8d7228	-0.06906539
64	0x3da7fd47	0.08202606
65	0x3d323285	0.04350521
66	0xbd7ab3f4	-0.061206773
67	0xbd273cdd	-0.040829528
68	0xbccbda9a	-0.02488451
69	0x3d34f09c	0.044174775
70	0xbd89b0b3	-0.06723156
71	0xbd59fb6c	-0.05321829
72	0xbd70cc48	-0.058788568
73	0xbca72925	-0.020405361
74	0xbd00f333	-0.031481933
75	0xbd85039b	-0.06494828
76	0xbca158f5	-0.019695738
77	0xbd4bac27	-0.049724724
78	0xbd4073e8	-0.046985537
79	0xbd113ab9	-0.035456393
80	0xbd201abb	-0.039087992
81	0xbb1d888f	-0.0024037694
82	0xbc465965	-0.012106274
83	0xbcfc1f7e	-0.030776735
84	0xbc339bd6	-0.010962447
85	0x3c7e2af4	0.0155131705
86	0xbda96511	-0.0827123
87	0x3ccd7d7c	0.02508425
88	0x3c8b500c	0.017005943
89	0xbd3fae15	-0.046796877
90	0x3cbd547f	0.02311158
91	0xbb6e628f	-0.0036374663
92	0x3ba54f56	0.005044858
93	0xbcab6501	-0.020922186
94	0xbcf2b70c	-0.0296283
95	0xbcaf2352	-0.021379147
96	0xbc4f9e78	-0.012672059
97	0x3c7b4fc9	0.0153388465
98	0xbd88bf70	-0.06677139
99	0x3c265883	0.010152939
100	0xbd453166	-0.048142813
101	0x3caef8ec	0.02135893
102	0xbca92e6d	-0.02065202
103	0x3d220fd9	0.039565895
104	0xbdc0ea07	-0.09419637
105	0xbce8f3a8	-0.028436497
106	0xbc8cf4c8	-0.017206565
107	0x3c6134b4	0.013745476
108	0xbdd64331	-0.104620345
109	0xbd2ac848	-0.04169491
110	0xbcb5d91c	-0.022198252
111	0x3c97adce	0.018515494
112	0x3d776201	0.0603962
113	0xbde3902c	-0.11111483
114	0xbcb6f2d1	-0.02233258
115	0xbd6e5445	-0.058185834
116	0xbcde8dda	-0.02716725
117	0xbd9baa50	-0.07600844
118	0x3c9a15a3	0.018809145
119	0x3d604864	0.054756537
120	0x3bf0e90d	0.0073520006
121	0x3c1c0e7c	0.009524938
122	0xbdc65a84	-0.09685233
123	0xbb90d399	-0.0044197557
124	0x3b724c81	0.003697187
125	0xbd0676f7	-0.032828297
126	0x3d725283	0.05916072
127	0xbccdaa76	-0.025105696

fc2.weight f4 [64, 128]
0	0x3d8d8260	0.06909633
1	0xbd325072	-0.04353375
2	0x3ba34cf9	0.004983541
3	0xbd0c6b24	-0.034281865
4	0xbe0c0aba	-0.13675967
5	0xbcbf41b9	-0.023346769
6	0x3db7d917	0.089769535
7	0x3da085b2	0.07838
8	0x3e05ba94	0.13059455
9	0x3d1005cd	0.035161782
10	0x3d8f8afc	0.07008931
11	0xbe1d7356	-0.15376028
12	0x3d73620e	0.059419684
13	0x3d145967	0.036218073
14	0xbd0e2024	-0.03469862
15	0x3b09a18d	0.0021000833
16	0xbd9b62e6	-0.07587223
17	0xbe17d71b	-0.1482815
18	0x3d8dbd5a	0.069208816
19	0x3cde4281	0.02713132
20	0xbdebd0c0	-0.11514425
21	0x3bd2d975	0.0064346143
22	0x3d871cd2	0.06597294
23	0x3cda15fe	0.026621815
24	0x3daa07e2	0.08302285
25	0xbd3d9dd0	-0.04629308
26	0x3d97b0b1	0.07406748
27	0x3d28cb83	0.04120971
28	0xbd120039	-0.035644744
29	0x3d85dab7	0.06535857
30	0x3d6cec7b	0.057842713
31	0x3d01d022	0.03169263
32	0xbd888641	-0.06666232
33	0x3e3d145d	0.18464799
34	0x3dbcf0c3	0.09225609
35	0x3dd3f3e7	0.10349255
36	0x3d9025ba	0.07038446
37	0x3d93964c	0.07206401
38	0xbd21363e	-0.03935837
39	0x393e2b30	0.000181359
40	0xbc9496c8	-0.018138304
41	0x3e4490a7	0.19195805
42	0xbdf63ee6	-0.12023716
43	0x3c810e1e	0.015753802
44	0xba10ce0c	-0.00055238674
45	0xbc968f68	-0.018378928
46	0x3e4ca041	0.19983007
47	0x3d9a8df2	0.07546605
48	0xbd3d5040	-0.04621911
49	0xbc82111c	-0.015877299
50	0x3df3d823	0.11906459
51	0xbd9fcfba	-0.078032926
52	0x3dafd917	0.085863285
53	0x3d1134d8	0.035450786
54	0xbdff7c59	-0.12474889
55	0xbe277a12	-0.1635516
56	0xbd4546f7	-0.04816338
57	0x3b7d4172	0.0038643745
58	0xbdcc4648	-0.099743426
59	0xbdf4937b	-0.11942192
60	0xbd748ef6	-0.05970665
61	0xbd98bd00	-0.07457924
62	0x3de3ba49	0.111195154
63	0xbcb0fb20	-0.02160412
64	0x3dba0968	0.09083825
65	0x3dcba211	0.09943021
66	0x3d53049b	0.051518064
67	0x3d7f79c4	0.062371984
68	0x3c74e0c6	0.014946168
69	0xbd75da3b	-0.060022574
70	0x3e1519cd	0.14560623
71	0xbd3c80fb	-0.046021443
72	0x3dc92935	0.09822313
73	0x3c586242	0.01320702
74	0xbe45291b	-0.19253962
75	0xbde0cda5	-0.109767236
76	0x3e19ead5	0.15030988
77	0x3d0fd606	0.035116218
78	0x3cda6b5f	0.026662527
79	0x3be78da6	0.0070664464
80	0x3dd0f7aa	0.10203488
81	0xbdaa0856	-0.08302371
82	0xbdc9ab31	-0.09847105
83	0x3dfdb4e5	0.123880185
84	0x3cc39e63	0.023879236
85	0x3da6c31b	0.08142682
86	0x3e0abd2a	0.13548723
87	0x3e02fc7b	0.12791626
88	0xbd881fe7	-0.0664671
89	0xbdb7dda0	-0.089778185
90	0xbe0eebd2	-0.13957146
91	0x3dc62c9c	0.09676477
92	0x3d8825c7	0.066478305
93	0x3e1c884d	0.1528637
94	0x3e035ab8	0.12827575
95	0xbb3518c2	-0.0027633165
96	0xbda9a326	-0.08283071
97	0x3db0c503	0.08631327
98	0xbd5a4f8a	-0.05329851
99	0xbc40e3e5	-0.011773084
100	0xbe02cacf	-0.12772678
101	0xbcf0e6bc	-0.029406898
102	0x3ce2ed11	0.027700933
103	0xbe155c7c	-0.14586061
104	0x3c801504	0.015635021
105	0xbde92d90	-0.113856435
106	0x3e022a9d	0.12711568
107	0xbd9d0267	-0.07666474
108	0x3d8d79ad	0.069079734
109	0x3bb2577d	0.0054425583
110	0x3d9172d3	0.07101979
111	0xbde64228	-0.11243087
112	0x3d9b9855	0.075974144
113	0xbe2d880a	-0.16946426
114	0x3cdb247d	0.026750797
115	0xbd0e3e25	-0.034727234
116	0xbc88617e	-0.01664805
117	0xbd009f36	-0.031401835
118	0x3e05ea7c	0.1307773
119	0xbdce549f	-0.10074734
120	0x3e015329	0.1262938
121	0x3d3a949c	0.04555188
122	0x3ddd86c2	0.10816719
123	0x3c762f6f	0.0150259575
124	0xba43e2fe	-0.0007472484
125	0x3d83dbcf	0.064384095
126	0x38376b1f	4.3730364e-05
127	0xbd13461e	-0.03595554
128	0xbd07596c	-0.033044264
129	0x3d9a3060	0.07528758
130	0xbdcae300	-0.09906578
131	0xbbcccf37	-0.006250288
132	0xbdb8e006	-0.09027104
133	0x3b3f0a4b	0.0029150422
134	0xbda5a134	-0.08087388
135	0x3d958b2c	0.073019356
136	0x3cfd55ca	0.030924696
137	0x3d036a26	0.032083653
138	0xbe1c0d30	-0.15239406
139	0xbb8b19ec	-0.0042450335
140	0xbbe59a5f	-0.007006928
141	0xbd587a72	-0.052851148
142	0x3e796b9c	0.24357456
143	0xbdca4f11	-0.09878362
144	0x3d94bd37	0.07262652
145	0x3d2c68e5	0.042092223
146	0xbd893be4	-0.06700876
147	0xbbcb6b67	-0.0062078717
148	0x3d020721	0.03174508
149	0x3d9fa0e9	0.07794363
150	0x3e417a00	0.18894196
151	0xbd581626	-0.052755497
152	0x3d7f949f	0.062397595
153	0xbd01c397	-0.03168067
154	0x3b860229	0.004089613
155	0x3b9a8393	0.004715392
156	0xbd75a9eb	-0.0599765
157	0xbdb23359	-0.087012
158	0x3cd2709c	0.025688462
159	0x3d82047a	0.0634851
160	0x3e061ee2	0.13097718
161	0xbc9e2dc7	-0.019308938
162	0x3dde9c5f	0.10869669
163	0xbda68be8	-0.08132154
164	0x3e06a3da	0.13148442
165	0xbe08cfb7	-0.13360487
166	0x3c182941	0.009287179
167	0x3ccf3c22	0.025297228
168	0x3e2e59b0	0.170264
169	0xbbe7a87f	-0.007069647
170	0x3bdd6fcc	0.006757712
171	0xbdb5ce2c	-0.08877215
172	0x3d638060	0.05554235
173	0x3de64220	0.11243081
174	0xbda119dd	-0.07866261
175	0xbcaae24d	-0.020859862
176	0xbbd5fea9	-0.006530602
177	0x3c0174b8	0.007901363
178	0xbbca4a50	-0.0061734095
179	0xbb83e5be	-0.00402519
180	0x3ca624e8	0.02028127
181	0x3da2a5cd	0.0794178
182	0xbd987f31	-0.07446135
183	0x3e3ea2cd	0.18616791
184	0x3d20f588	0.039296657
185	0x3d903448	0.07041222
186	0xbe008e8e	-0.1255438
187	0xbc43a817	-0.011941931
188	0xbd20130d	-0.03908067
189	0x3e85b10e	0.26111645
190	0x3e0740a4	0.13208252
191	0xbcb823bb	-0.022477975
192	0x3def2cd6	0.11678474
193	0xbdafe264	-0.085881025
194	0x3db73866	0.08946304
195	0x3c9492a1	0.018136324
196	0xbda25fc3	-0.07928421
197	0x3d7dbd56	0.061948143
198	0x3e09d5be	0.13460442
199	0x3e22912e	0.15875694
200	0x3d47419f	0.048646566
201	0xbdb2d935	-0.08732835
202	0xbbd6e0c0	-0.006557554
203	0xbc925a18	-0.017865226
204	0x3d0395d6	0.032125317
205	0xbd363d6d	-0.044492174
206	0xbdcf5322	-0.10123278
207	0x3dc6bd46	0.0970407
208	0x3daa68ea	0.08320792
209	0xbd096fba	-0.033553816
210	0xbd3bf177	-0.045884576
211	0x3dd02200	0.10162735
212	0xbce1300c	-0.02748873
213	0x3d6fbf5c	0.058532104
214	0xbcffb622	-0.031214777
215	0xbd381356	-0.044940315
216	0xbd527288	-0.051378757
217	0x3e20681b	0.15664713
218	0xbce355c4	-0.027750857
219	0x3c459553	0.012059527
220	0x3e001669	0.12508549
221	0xbd3407b3	-0.043952655
222	0xbdbbe724	-0.09174946
223	0x3d2f94d7	0.042866554
224	0x3d7d506c	0.061844274
225	0xbdaa8481	-0.08326054
226	0x3dbed46c	0.0931786
227	0xbb61b03c	-0.003443732
228	0x3bf1b3a9	0.0073761535
229	0xbdbc521f	-0.09195351
230	0x3de683ff	0.11255645
231	0xbd4837c4	-0.048881307
232	0xbce43947	-0.027859343
233	0x3d1ddb88	0.03853944
234	0xbddaf241	-0.106907375
235	0x3d239bc7	0.039943483
236	0x3cf3aac8	0.02974452
237	0x3dcc4a38	0.099750936
238	0xbd10c599	-0.035344694
239	0x3ce65964	0.028118797
240	0xbe449b0b	-0.19199769
241	0xbda2a2ae	-0.07941185
242	0x3da548cb	0.08070525
243	0x3d018c09	0.03162769
244	0x3dfaa61c	0.12238714
245	0x3cf54a5a	0.02994268
246	0xbd0fe73e	-0.03513264
247	0xbd9ab911	-0.0755483
248	0x3d03d29b	0.03218327
249	0x3d6ae50a	0.057347335
250	0x3e39a1c1	0.1812811
251	0x3e55d22b	0.20880954
252	0x3cfbb78a	0.030727167
253	0xbd20ec45	-0.039287824
254	0xbdc7b517	-0.09751337
255	0x3c50bbf2	0.012740122

fc2.bias f4 [64]
0	0xbd74be27	-0.059751656
1	0xbddb0392	-0.1069404
2	0xbc92eb8e	-0.017934587
3	0x3c5394b0	0.012913868
4	0x3e0741ac	0.13208646
5	0x3da5a835	0.080887236
6	0x3db331c3	0.08749726
7	0x3d8734e3	0.06601884
8	0xba727b0e	-0.0009249904
9	0xbd97608d	-0.073914625
10	0x3cf749ae	0.0301865
11	0x3d8081e3	0.06274774
12	0xbd81bb48	-0.06334549
13	0xbd84013c	-0.06445548
14	0x3d510b46	0.05103614
15	0x3dacbf66	0.08434944
16	0xbd82e9c5	-0.06392244
17	0xbcaf14dc	-0.021372251
18	0xbd74ec2a	-0.059795536
19	0xbd9ac351	-0.07556785
20	0x3da5c1b8	0.080935895
21	0x3dc09d23	0.094049715
22	0x3d775e62	0.060392745
23	0xbc8277ec	-0.015926324
24	0x3d74264c	0.059606835
25	0x3c404c90	0.011737004
26	0xbb28da65	-0.002576494
27	0xbca64ea7	-0.020301176
28	0x3d2671e1	0.040635947
29	0xbcac1f89	-0.02101113
30	0xbd6ed6df	-0.058310386
31	0xbc8dad21	-0.017294468
32	0x3cd1bb86	0.025602113
33	0x3d3eca3a	0.046579577
34	0x3d1f28a6	0.038857125
35	0xbd363cf1	-0.044491712
36	0xbcd0a664	-0.025469966
37	0x3dfa72d5	0.12228934
38	0xbb5da61e	-0.0033820937
39	0x3ca6a900	0.020344257
40	0xbd856ddb	-0.06515094
41	0xbd87100e	-0.06594859
42	0xbce4bb37	-0.027921302
43	0x3cb63488	0.022241846
44	0xbcaea123	-0.02131707
45	0x3d5a398b	0.053277534
46	0x3b2ccaaf	0.0026365926
47	0x3df29a7e	0.11845873
48	0x3dd21eee	0.102598056
49	0x3ceab9a1	0.028652968
50	0x3c1f6f7a	0.009731168
51	0xbc81c7a8	-0.015842274
52	0x3d109176	0.035294972
53	0x3c86e8d8	0.01646845
54	0x3bade19c	0.0053064357
55	0x3d22d37f	0.03975248
56	0x3d6f0717	0.05835637
57	0x3dc44065	0.09582595
58	0x3d0a6e1f	0.033796426
59	0x3c89dc94	0.016828813
60	0x3dac3f7e	0.08410548
61	0xbce59aac	-0.028027855
62	0x3dd44161	0.103640325
63	0x3d4395fd	0.04775046
