Eval_Models/ANN/best_model_0.pth (torch, 454208 bytes, 10 tensors)

normalize.weight f4 [784]
0.95329326 1.0692225 1.0480813 0.9990832 1.0106407 1.0460893 1.0701953 1.0949615
1.0751681 1.1573485 1.3050697 1.1894463 1.2227292 1.1927652 1.2380819 1.1844741
1.102931 1.2520188 1.1395466 1.1979966 1.1611675 1.1015824 1.068868 1.0373954
1.0830711 1.0895914 0.9638802 0.94373494 1.0081432 1.091048 1.0910418 0.9679053
1.0501784 1.1337298 1.1046824 1.0857999 1.1128327 1.2449058 1.3030105 1.1834214
1.0088094 1.0367554 1.0930086 1.0351043 1.1730422 1.3662977 1.3030163 1.1543615
1.0494919 1.0087993 1.0183604 1.0046698 1.0314956 1.1213069 1.0295641 0.93901914
0.9696343 1.0068982 0.8816953 1.0113363 1.0180181 1.0377556 1.1091532 1.12151
1.1018766 1.0406946 0.9731811 0.88574183 0.9679561 1.1302578 1.2303736 1.0937064
0.9179933 0.9037966 0.9021584 1.0304227 1.121376 1.1314156 1.0547123 1.0194803
1.004329 1.0958432 0.98652005 0.98157585 1.0019433 0.9250264 0.9797028 1.0056288
0.97026515 1.0423547 1.1231543 1.2204494 1.1584408 1.0197645 1.039575 0.9709242
0.885586 1.1603004 1.1652269 1.0438143 0.9175502 0.9652378 0.88953054 1.0242293
1.1395993 1.1118882 1.1159637 1.0426422 0.9822924 1.0835935 0.9151659 0.96430314
0.95378786 0.9586719 0.9928186 0.89804566 1.0304127 1.0716274 1.1340705 1.125978
0.99381334 1.0482581 0.95444375 0.9162592 0.9581117 1.135944 1.1998593 1.0283809
0.98579144 0.92945343 0.8864848 0.75070184 1.0205058 1.1464432 1.0820762 1.1725552
1.0820329 0.9899914 0.9882368 0.97714514 0.97954446 0.9677891 0.8943991 1.0156252
1.0580462 1.136019 1.032715 1.0656886 0.9066815 0.9335058 0.9767324 0.9554864
0.94615555 1.092891 1.1589035 1.0056641 1.0731183 0.9328828 0.88886887 0.8362905
0.94955343 1.065769 1.0698285 1.1709447 1.1170105 1.0562904 1.05194 1.0405375
1.0363207 1.0252435 1.0030843 1.0441086 1.050916 1.1236918 0.9607634 1.0495527
0.9366155 0.97038305 0.9248424 0.887868 0.9483786 1.059257 1.1706504 0.9206242
0.94405794 0.97774273 1.0797544 0.976631 0.9162421 0.9804812 1.0711519 1.1473612
1.1587183 1.1359785 1.0640752 1.0196463 1.0520127 0.9558177 1.1415665 1.0132451
1.0579585 1.1006489 0.97263277 1.0155753 1.1165019 0.9830176 0.963937 0.92453164
0.90735656 1.0163473 1.1518643 0.9711667 0.95989704 1.0527098 1.1796651 1.1192342
1.0073671 1.0179526 1.0536904 1.0996404 1.1067175 1.1028167 1.0478599 1.121763
1.0333041 1.047662 1.1350024 1.0076714 1.0496042 1.075546 0.928056 1.0387536
1.2182765 0.97711134 0.9435842 0.88363534 0.87437606 1.0852085 1.1623702 1.1178725
0.9629693 1.0610746 1.0347052 1.0645237 1.0288638 1.0162723 1.0448831 1.1321849
1.1170086 1.1581634 1.0438061 1.0243456 1.0534747 1.0511775 1.0858248 1.0249213
00000000: 070b 743f 48dc 883f 8727 863f ebc3 7f3f
00000010: ad5c 813f 41e6 853f 29fc 883f b327 8c3f
00000020: 1c9f 893f ff23 943f 860c a73f c73f 983f
00000030: 6482 9c3f 88ac 983f 7879 9e3f d99c 973f
00000040: d82c 8d3f 2742 a03f aadc 913f f457 993f
00000050: 23a1 943f a700 8d3f abd0 883f 5fc9 843f
00000060: 13a2 8a3f bb77 8b3f dac0 763f 9d98 713f
00000070: d60a 813f 76a7 8b3f 42a7 8b3f a4c8 773f
00000080: 3f6c 863f 0f1e 913f 3c66 8d3f 7efb 8a3f
00000090: 4d71 8e3f 1359 9f3f 0cc9 a63f 5a7a 973f
000000a0: ab20 813f 67b4 843f b5e7 8b3f 4c7e 843f
000000b0: 3f26 963f d8e2 ae3f 3dc9 a63f 1ec2 933f
000000c0: c055 863f 5620 813f a259 823f 0599 803f
000000d0: 0c08 843f fc86 8f3f c2c8 833f 8f63 703f
000000e0: f439 783f 0ae2 803f c8b6 613f 7873 813f
000000f0: 6b4e 823f 2dd5 843f bbf8 8d3f a48d 8f3f
00000100: 4b0a 8d3f 7b35 853f 6622 793f fabf 623f
00000110: f9cb 773f 4aac 903f e27c 9d3f 92fe 8b3f
00000120: 9c01 6b3f 375f 673f daf3 663f e4e4 833f
00000130: 4089 8f3f 3ad2 903f d000 873f 557e 823f
00000140: da8d 803f 9744 8c3f 948c 7c3f 8e48 7b3f
00000150: ae3f 803f 88ce 6c3f cdcd 7a3f 72b8 803f
00000160: 4c63 783f e16b 853f 85c3 8f3f b037 9c3f
00000170: ca47 943f a587 823f cb10 853f 7d8e 783f
00000180: c4b5 623f b984 943f 2826 953f b59b 853f
00000190: 92e4 6a3f d319 773f 46b8 633f f219 833f
000001a0: 64de 913f 5a52 8e3f e6d7 8e3f 4d75 853f
000001b0: 8477 7b3f 31b3 8a3f 5048 6a3f 92dc 763f
000001c0: 712b 743f 866b 753f 5c29 7e3f 52e6 653f
000001d0: 90e4 833f 162b 893f 3929 913f 0c20 903f
000001e0: 8d6a 7e3f 522d 863f 6d56 743f f78f 6a3f
000001f0: cf46 753f 9d66 913f fd94 993f fca1 833f
00000200: d45c 7c3f a9f0 6d3f abf0 623f ff2d 403f
00000210: ef9f 823f a7be 923f 7981 8a3f 4a16 963f
00000220: 0e80 8a3f 1470 7d3f 16fd 7c3f 2f26 7a3f
00000230: 6dc3 7a3f 07c1 773f 57f7 643f 0200 823f
00000240: 0f6e 873f 1269 913f 0130 843f 7c68 883f
00000250: 471c 683f 3cfa 6e3f 220b 7a3f c29a 743f
00000260: 4037 723f dae3 8b3f f356 943f 9ab9 803f
00000270: f15b 893f 68d1 6e3f e98c 633f 2217 563f
00000280: ef15 733f 1e6b 883f 24f0 883f 84e1 953f
00000290: 33fa 8e3f 8634 873f f8a5 863f 5530 853f
000002a0: 28a6 843f 2e3b 833f 1165 803f 5aa5 853f
000002b0: 6a84 863f 22d5 8f3f 97f4 753f be57 863f
000002c0: 09c6 6f3f 066b 783f 79c2 6c3f 514b 633f
000002d0: f1c8 723f bc95 873f dfd7 953f 07ae 6b3f
000002e0: c8ad 713f 594d 7a3f 6435 8a3f 7d04 7a3f
000002f0: d88e 6a3f d100 7b3f 811b 893f bbdc 923f
00000300: e250 943f be67 913f 9e33 883f c583 823f
00000310: 5aa8 863f 78b0 743f da1e 923f 04b2 813f
00000320: 2f6b 873f 10e2 8c3f 76fe 783f 5ffe 813f
00000330: 89e9 8e3f 0ba7 7b3f 93c4 763f 1bae 6c3f
00000340: 8548 683f ab17 823f 4a70 933f 619e 783f
00000350: d0bb 753f 32bf 863f 44ff 963f 1143 8f3f
00000360: 68f1 803f 454c 823f 54df 863f 04c1 8c3f
00000370: eba8 8d3f 1929 8d3f 4620 863f ee95 8f3f
00000380: 4f43 843f ca19 863f c247 913f 60fb 803f
00000390: 6e59 863f 7eab 893f 1495 6d3f e1f5 843f
000003a0: 7cf0 9b3f f823 7a3f bc8e 713f ed35 623f
000003b0: 1cd7 5f3f 1de8 8a3f 8cc8 943f 7216 8f3f
000003c0: 2885 763f 4bd1 873f 3871 843f 5042 883f
000003d0: cfb1 833f 3615 823f bbbe 853f 6feb 903f
000003e0: 23fa 8e3f b33e 943f 709b 853f c21d 833f
000003f0: 42d8 863f fc8c 863f 4ffc 8a3f 9f30 833f

normalize.bias f4 [784]
0.01728865 0.0013115427 -0.011345346 0.013206217 0.027760647 0.060904577 0.020834772 0.05010259
0.0551321 0.027879868 0.020939097 0.03313176 -0.03063322 -0.019443706 -0.052143876 -0.0407966
-0.0030800581 0.037793208 0.013989233 0.026350982 0.03299213 0.013026239 0.03442739 0.022882331
-0.023913456 -0.012551322 -0.018194187 0.041133918 0.0007966395 -0.01809842 -0.026494386 0.06810849
0.005916414 -0.012554474 0.05000513 0.052932717 0.05877899 0.052972853 -0.00373928 0.007950336
-0.0053230254 -0.022988304 -0.01941228 -0.008361951 -0.0014994465 -0.0036394193 0.038076773 0.00312163
-0.004952225 0.011280402 -0.015694031 -0.0032363585 0.04176176 -0.0345706 -0.029073564 0.04554034
0.007570383 0.021727264 0.038161065 0.0036136033 0.03906584 0.044873454 0.07193951 0.049404696
0.05262357 0.041504852 0.05117748 -0.009447619 -0.012342477 -0.004894702 0.007752917 -0.018778704
0.007926074 0.015475427 0.023984797 0.07095978 0.03798342 0.045430243 0.03561429 0.031051802
0.048598904 0.012496038 0.010196451 0.026093626 0.0048680394 0.028328612 0.005230228 0.025040897
0.078999504 0.04719423 0.03919412 0.03519885 0.014718961 0.07484712 0.051522244 0.012237442
-0.00015648022 -0.019652402 -0.012014804 -0.032909602 -0.0017063477 0.05572226 0.050084878 0.04101048
0.0059148557 0.0044806506 0.051069163 0.047554348 0.017622322 0.0012423313 -0.038005263 0.026935915
0.010804538 0.00030776465 -0.03579312 0.035494156 0.05249378 0.065237924 0.044794783 0.054002523
0.060828023 0.042022306 0.016650587 0.023607885 -0.0021768135 -0.045404922 -0.028476123 -0.014803303
0.031557303 0.012738 0.0392468 0.07573512 0.06746001 0.039958514 0.0036745202 0.018604392
0.029303374 0.034946617 0.012481866 0.027067564 0.0055157635 0.014037031 -0.0019748816 0.031133726
0.042396113 0.049931154 0.041019533 0.046433307 0.07548337 0.017551262 0.015492544 -0.010089057
0.02006179 -0.0037045984 -0.026019622 -0.013197376 -0.0016553464 0.007213996 0.0027761674 0.03286119
0.044752162 0.009479639 0.034492165 0.030682165 0.02018146 0.04351953 0.049687803 0.06627974
0.0108694825 0.022942524 0.022461064 0.053906806 0.061269328 0.011916219 0.055914227 0.06461124
0.04503538 0.016338268 0.033545602 0.01305939 0.0073343017 -0.019730791 0.010610031 -0.0025282437
-0.018967126 -0.0054607615 -0.0038473743 -0.0031540457 0.017858041 0.017556177 0.013048266 -0.0018977984
0.02498216 0.021844601 0.051108856 0.046546202 0.03597657 0.08927156 0.029892322 0.044110548
0.04829085 0.0333661 0.04195187 0.045590535 0.0182334 0.028184563 0.029122192 0.013164866
0.012799717 0.0062271594 0.0019481658 0.0022363658 -0.034690544 0.00089108833 -0.0279511 0.0012035175
0.023215784 0.022407185 0.026671493 -0.010098816 0.010539555 0.04467125 0.04402916 0.067659594
0.038955968 0.045392986 0.042671137 0.032748595 0.0397735 0.017700061 0.052155033 0.022744704
0.04204882 0.016040422 0.032453995 0.01315122 0.021300543 0.027461478 0.0019424137 -0.007418713
0.006050647 0.0051117167 -0.009278837 -0.010612282 0.0071036327 0.04398016 0.006452686 0.016265808
-0.0044022948 0.030044746 0.04063447 0.029878791 0.029383076 0.029986955 0.064982474 0.063367344
00000000: eda0 8d3c 12e8 ab3a d5e1 39bc e45e 583c
00000010: 4c6a e33c 1477 793d afad aa3c 6038 4d3d
00000020: 32d2 613d 5264 e43c 7888 ab3c 2bb5 073d
00000030: 85f2 fabc 6848 9fbc d194 55bd 561a 27bd
00000040: cdda 49bb 0dcd 1a3d 1933 653c 04de d73c
00000050: c122 073d 026c 553c bc03 0d3d ba73 bb3c
00000060: 27e6 c3bc 0fa4 4dbc fa0b 95bc 0a7c 283d
00000070: 92d5 503a 2343 94bc c10a d9bc 777c 8b3d
00000080: 7ade c13b 48b1 4dbc 2ed2 4c3d facf 583d
00000090: 3dc2 703d 10fa 583d b50e 75bb 2042 023c
000000a0: c66c aebb f851 bcbc 8006 9fbc 9100 09bc
000000b0: 1389 c4ba 5383 6ebb 64f6 1b3d 4394 4c3b
000000c0: 4646 a2bb 6fd1 383c c590 80bc 1619 54bb
000000d0: 610e 2b3d e799 0dbd af2b eebc 8288 3a3d
000000e0: fa10 f83b 60fd b13c c74e 1c3d 34d2 6c3b
000000f0: 8103 203d 3acd 373d 0655 933d 945c 4a3d
00000100: d08b 573d fe00 2a3d 7a9f 513d 30ca 1abc
00000110: 1a38 4abc bd63 a0bb 2e0c fe3b ccd5 99bc
00000120: 5ddc 013c a58c 7d3c c47b c43c 5c53 913d
00000130: 8194 1b3d 1015 3a3d 4ae0 113d 5960 fe3c
00000140: a50f 473d 2fbc 4c3c 040f 273c 4dc2 d53c
00000150: 1384 9f3b 6811 e83c 5562 ab3b 9122 cd3c
00000160: 7eca a13d bd4e 413d 038a 203d ab2c 103d
00000170: cc27 713c 7249 993d fd08 533d 8d7f 483c
00000180: d714 24b9 13fe a0bc bed9 44bc 38cc 06bd
00000190: 87a7 dfba 063d 643d cd25 4d3d 9bfa 273d
000001a0: 68d1 c13b 6cd2 923b e62d 513d 59c8 423d
000001b0: b05c 903c b9d5 a23a 68ab 1bbd b5a8 dc3c
000001c0: 8405 313c 795b a139 ce9b 12bd 5262 113d
000001d0: b803 573d 769b 853d bc7a 373d c031 5d3d
000001e0: ce26 793d 951f 2c3d d066 883c 5365 c13c
000001f0: dfa8 0ebb 83fa 39bd c246 e9bc 8e89 72bc
00000200: 3b42 013d 0bb3 503c 41c1 203d 041b 9b3d
00000210: 7928 8a3d 8aab 233d 38d0 703b 3d68 983c
00000220: a10d f03c 2f24 0f3d be80 4c3c ccbc dd3c
00000230: 94bd b43b 93fb 653c 046d 01bb 280c ff3c
00000240: 8ca7 2d3d 9c84 4c3d 1904 283d da30 3e3d
00000250: 0697 9a3d aac7 8f3c 70d4 7d3c 924c 25bc
00000260: 9f58 a43c d9c8 72bb 1a27 d5bc cf39 58bc
00000270: 35f8 d8ba 6263 ec3b 5cf0 353b 7599 063d
00000280: 0b4e 373d 7d50 1b3c a847 0d3d 2a59 fb3c
00000290: 9753 a53c 8941 323d 7085 4b3d acbd 873d
000002a0: ea15 323c f6f1 bb3c 4400 b83c 62cd 5c3d
000002b0: 8cf5 7a3d 3f3c 433c 5106 653d e652 843d
000002c0: 0577 383d d5d7 853c 1d67 093d 0df7 553c
000002d0: 9554 f03b 78a2 a1bc b2d5 2d3c e4b0 25bb
000002e0: f260 9bbc 30f0 b2bb 3b24 7cbb 1bb4 4ebb
000002f0: 074b 923c f9d1 8f3c 65c8 553c 8cbf f8ba
00000300: 63a7 cc3c 73f3 b23c 8557 513d 3ba7 3e3d
00000310: 2b5c 133d 02d4 b63d bee0 f43c 43ad 343d
00000320: a0cc 453d e4aa 083d b9d5 2b3d 24bd 3a3d
00000330: 365e 953c 50e3 e63c aa91 ee3c 73b1 573c
00000340: e7b5 513c 330d cc3b 9959 ff3a fe8f 123b
00000350: ac17 0ebd ed97 693a b5f9 e4bc 59bf 9d3a
00000360: 072f be3c 468f b73c 2d7e da3c 8175 25bc
00000370: 19ae 2c3c 33f9 363d ec57 343d 1d91 8a3d
00000380: 4b90 1f3d ffed 393d eec7 2e3d 6423 063d
00000390: 8ae9 223d b8ff 903c 84a0 553d 1a53 ba3c
000003a0: 623b 2c3d 3467 833c 7bee 043d 3778 573c
000003b0: 7a7e ae3c e5f6 e03c 9798 fe3a ad18 f3bb
000003c0: 8144 c63b 3080 a73b 4306 18bc 23df 2dbc
000003d0: 97c5 e83b 8a24 343d 0e71 d33b df3f 853c
000003e0: 2041 90bb 6620 f63c 5470 263d 5ec4 f43c
000003f0: c7b4 f03c 34a7 f53c 8815 853d bdc6 813d

normalize.running_mean f4 [784]
-0.99999976 -0.9999653 -0.99985987 -0.99945694 -0.99699205 -0.9947092 -0.99307376 -0.9844659
-0.96427447 -0.8961154 -0.7476343 -0.6610005 -0.61804575 -0.6313375 -0.62974596 -0.5934335
-0.6088747 -0.68512845 -0.78646517 -0.9209357 -0.9677612 -0.9836088 -0.9890453 -0.99059564
-0.99525124 -0.9967337 -0.9991752 -0.99999493 -0.9997904 -0.99975944 -0.999772 -0.99747413
-0.9926955 -0.9812541 -0.9463443 -0.86687046 -0.75967234 -0.6163666 -0.40256047 -0.25487587
-0.15578872 -0.15772854 -0.17473054 -0.13498284 -0.16420628 -0.3094483 -0.44788307 -0.65804064
-0.79040205 -0.88357973 -0.9497094 -0.9666394 -0.9791142 -0.9888464 -0.995994 -0.99991983
-0.99858266 -0.9975707 -0.9974127 -0.99556136 -0.9798834 -0.91876125 -0.81699336 -0.73318744
-0.6352731 -0.4745022 -0.28807494 -0.24587259 -0.20191728 -0.19300604 -0.19520153 -0.1953318
-0.2045883 -0.22731698 -0.3067497 -0.5028355 -0.6547799 -0.73520213 -0.83177614 -0.92557245
-0.9632824 -0.9797928 -0.9924695 -0.9983177 -0.9988038 -0.99773407 -0.99598813 -0.986199
-0.94593716 -0.84209156 -0.72829497 -0.6271587 -0.51197517 -0.37806386 -0.2558877 -0.2501031
-0.2183133 -0.21747123 -0.20470546 -0.20153989 -0.20465684 -0.20861991 -0.22287102 -0.3565939
-0.5215965 -0.6312944 -0.7303846 -0.84038424 -0.92250884 -0.9648384 -0.97901165 -0.99544746
-0.99792635 -0.9962194 -0.98907256 -0.97459024 -0.90003234 -0.7721568 -0.64267004 -0.54940426
-0.4603622 -0.34137478 -0.2410159 -0.24862063 -0.21649322 -0.21628568 -0.19780853 -0.18112504
-0.18476631 -0.18413551 -0.18830281 -0.28421587 -0.4236354 -0.5196727 -0.6285251 -0.76187027
-0.8611692 -0.9271138 -0.96539664 -0.99382 -0.9976639 -0.9928075 -0.9847494 -0.95274365
-0.85760665 -0.7040515 -0.5920799 -0.503731 -0.41637447 -0.30425268 -0.22740342 -0.23388648
-0.20106065 -0.19280425 -0.16520704 -0.15690996 -0.14904581 -0.1497436 -0.15423073 -0.22857463
-0.35310185 -0.44344664 -0.5439234 -0.6822182 -0.79849946 -0.8871453 -0.94412196 -0.9869275
-0.9964596 -0.9891141 -0.970212 -0.921849 -0.81813896 -0.6541327 -0.54683703 -0.46672204
-0.40244764 -0.3025313 -0.22214323 -0.22411236 -0.20493731 -0.18239456 -0.15021864 -0.13666357
-0.106465556 -0.119013354 -0.10976244 -0.17274183 -0.30181718 -0.38258263 -0.46917924 -0.6031175
-0.7472079 -0.8411516 -0.91861665 -0.98785436 -0.99487966 -0.9844005 -0.9556137 -0.89538103
-0.7751248 -0.61126 -0.5092655 -0.4257229 -0.3836029 -0.28979507 -0.21407431 -0.21163349
-0.19455446 -0.17494765 -0.14394769 -0.08182113 -0.046782948 -0.06686653 -0.07444417 -0.12537196
-0.23477212 -0.31210095 -0.40143085 -0.5356063 -0.6651746 -0.79015565 -0.89678884 -0.98253703
-0.9949793 -0.9798053 -0.9484485 -0.88256454 -0.7495043 -0.58814555 -0.49269918 -0.3941563
-0.35544983 -0.28585842 -0.21307462 -0.19638239 -0.17422657 -0.1433557 -0.1448307 -0.01985303
0.009097788 0.0021641338 -0.044791315 -0.087325424 -0.17445755 -0.24984518 -0.33675635 -0.48546726
-0.6213899 -0.7352907 -0.87483406 -0.9764174 -0.99116874 -0.97053397 -0.9371046 -0.8640284
00000000: fcff 7fbf bafd 7fbf d1f6 7fbf 69dc 7fbf
00000010: df3a 7fbf 43a5 7ebf 153a 7ebf f505 7cbf
00000020: b1da 76bf d267 65bf f664 3fbf 5437 29bf
00000030: 3f38 1ebf 569f 21bf 0837 21bf 42eb 17bf
00000040: 36df 1bbf 9464 2fbf c855 49bf 71c2 6bbf
00000050: 33bf 77bf c9cd 7bbf 1332 7dbf ad97 7dbf
00000060: c9c8 7ebf f129 7fbf f2c9 7fbf abff 7fbf
00000070: 43f2 7fbf 3cf0 7fbf 0ff1 7fbf 775a 7fbf
00000080: 4b21 7ebf 7833 7bbf 9f43 72bf 39eb 5dbf
00000090: e379 42bf 34ca 1dbf 681c cebe 177f 82be
000000a0: 1487 1fbe 9783 21be 90ec 32be f138 0abe
000000b0: b125 28be 0270 9ebe ee50 e5be 5a75 28bf
000000c0: ca57 4abf 4832 62bf 2820 73bf ae75 77bf
000000d0: 3aa7 7abf 0a25 7dbf 76f9 7ebf bffa 7fbf
000000e0: 1da3 7fbf cb60 7fbf 7056 7fbf 1cdd 7ebf
000000f0: a3d9 7abf f033 6bbf 7a26 51bf 2cb2 3bbf
00000100: 42a1 22bf f4f1 f2be 8f7e 93be 06c6 7bbe
00000110: 67c3 4ebe 60a3 45be e9e2 47be 0f05 48be
00000120: 987f 51be c8c5 68be 4c0e 9dbe d4b9 00bf
00000130: a89f 27bf 3536 3cbf 48ef 54bf 51f2 6cbf
00000140: ad99 76bf b3d3 7abf 7b12 7ebf c091 7fbf
00000150: 9bb1 7fbf 806b 7fbf 14f9 7ebf 8a77 7cbf
00000160: f028 72bf 5093 57bf 8a71 3abf 798d 20bf
00000170: ce10 03bf 9691 c1be b603 83be 830d 80be
00000180: 868d 5fbe c7b0 5ebe 4f9e 51be 7960 4ebe
00000190: 9091 51be 75a0 55be 4d38 64be 7a93 b6be
000001a0: 5987 05bf 839c 21bf 7cfa 3abf 6c23 57bf
000001b0: 8a29 6cbf a6ff 76bf 82a0 7abf a5d5 7ebf
000001c0: 1a78 7fbf 3c08 7fbf dc33 7dbf bf7e 79bf
000001d0: 8568 66bf 11ac 45bf 0686 24bf c2a5 0cbf
000001e0: 98b4 ebbe adc8 aebe dfcc 76be 6896 7ebe
000001f0: 66b0 5dbe fe79 5dbe 528e 4abe d878 39be
00000200: 6133 3dbe 058e 3cbe 74d2 40be be84 91be
00000210: bde6 d8be 4509 05bf 05e7 20bf ee09 43bf
00000220: 9675 5cbf 5457 6dbf 3c24 77bf fd6a 7ebf
00000230: e766 7fbf a228 7ebf 8918 7cbf 02e7 73bf
00000240: 1c8c 5bbf b83c 34bf 8c92 17bf 84f4 00bf
00000250: 092f d5be 02c7 9bbe 71dc 68be f07f 6fbe
00000260: d8e2 4dbe 7a6e 45be 092c 29be 01ad 20be
00000270: 779f 18be 6356 19be a9ee 1dbe 780f 6abe
00000280: c4c9 b4be 700b e3be 903e 0bbf daa5 2ebf
00000290: 766a 4cbf f41b 63bf fab1 71bf 48a7 7cbf
000002a0: fa17 7fbf 9536 7dbf d05f 78bf 4cfe 6bbf
000002b0: 8e71 51bf 3e75 27bf 83fd 0bbf 31f6 eebe
000002c0: 9e0d cebe 62e5 9abe 8479 63be b67d 65be
000002d0: 16db 51be a4c5 3abe ead2 19be 89f1 0bbe
000002e0: 9d0a dabd 46bd f3bd 21cb e0bd 3ce3 30be
000002f0: c887 9abe dfe1 c3be 4338 f0be e965 1abf
00000300: 0449 3fbf b655 57bf 762a 6bbf 06e4 7cbf
00000310: 6fb0 7ebf ac01 7cbf 19a3 74bf b137 65bf
00000320: 946e 46bf 897b 1cbf 395f 02bf 5af8 d9be
00000330: 9967 c4be 0560 94be 4c36 5bbe 73b6 58be
00000340: 4939 47be 7a25 33be 0667 13be d691 a7bd
00000350: 7a9f 3fbd 52f1 88bd 2f76 98bd 8261 00be
00000360: 1a68 70be b2cb 9fbe 5888 cdbe 7f1d 09bf
00000370: e248 2abf a447 4abf f493 65bf 8c87 7bbf
00000380: f7b6 7ebf 85d4 7abf 85cd 72bf c0ef 61bf
00000390: 84df 3fbf b590 16bf 1143 fcbe dbce c9be
000003a0: 85fd b5be 095c 92be 3c30 5abe 7718 49be
000003b0: 7368 32be d6cb 12be 804e 14be d2a2 a2bc
000003c0: e30e 153c 24d4 0d3b 1977 37bd acd7 b2bd
000003d0: 00a5 32be 6ad7 7fbe 546b acbe 2a8f f8be
000003e0: 6913 1fbf 033c 3cbf 20f5 5fbf 7ef6 79bf
000003f0: 3cbd 7dbf ea74 78bf 16e6 6fbf f730 5dbf

normalize.running_var f4 [784]
5.5363705e-13 2.7153877e-07 3.3578306e-06 0.0001768658 0.001913167 0.004411428 0.005072296 0.010024495
0.026948374 0.07742049 0.20552562 0.2552609 0.27539292 0.25769955 0.2573533 0.29159153
0.283795 0.2399456 0.16994682 0.06310712 0.024804365 0.013571493 0.00788431 0.007236046
0.0035785402 0.0027909398 0.00048403346 2.7463938e-07 1.927823e-05 2.1736427e-05 9.362719e-06 0.0034332983
0.009005474 0.01840855 0.05209352 0.13893542 0.26358423 0.40322354 0.55548674 0.61058813
0.66947293 0.6489646 0.64789593 0.6635178 0.6350651 0.57808167 0.5224843 0.35852128
0.22840081 0.12536348 0.057941236 0.04418153 0.02696845 0.015205147 0.003627189 3.860519e-06
0.001370547 0.004104258 0.002884868 0.0044680825 0.020337176 0.089206316 0.21407096 0.3021489
0.36388212 0.45103794 0.56458443 0.5573889 0.5725077 0.59697527 0.6059883 0.583728
0.5490036 0.5397631 0.5261408 0.4349651 0.3641234 0.3029438 0.19026712 0.08969742
0.045173798 0.025530374 0.006790595 0.001217044 0.0005182249 0.0015154595 0.0035126852 0.015424337
0.055000883 0.18589662 0.29584372 0.368122 0.44461405 0.50808126 0.5680608 0.53175294
0.55492026 0.5673176 0.57709605 0.5556083 0.53506607 0.5207988 0.5266856 0.48579428
0.4267913 0.36762005 0.29540136 0.18276201 0.09302937 0.039567836 0.026361652 0.003742992
0.0012340852 0.0034380623 0.010745044 0.028444294 0.119388215 0.25667801 0.36587703 0.42343852
0.4823582 0.50432754 0.55335945 0.5122922 0.5503083 0.54809433 0.546664 0.5405488
0.51905483 0.5081698 0.51266485 0.49675593 0.48070392 0.4436465 0.37661284 0.26731744
0.16721779 0.083283775 0.038097553 0.003651655 0.0012899048 0.0066886693 0.018112602 0.054565635
0.17111963 0.3190958 0.4072261 0.450748 0.50673455 0.5099446 0.5403084 0.5060061
0.5324562 0.53371525 0.53967977 0.5250177 0.50032866 0.48645997 0.49471605 0.4949838
0.50170213 0.4718493 0.43099236 0.34047705 0.23683986 0.13456821 0.062069453 0.01029116
0.0024944579 0.0110594705 0.032662332 0.09653774 0.20829271 0.35920975 0.4439031 0.47756663
0.50049734 0.49775636 0.52137315 0.49568328 0.5173343 0.5185306 0.52320266 0.5049156
0.48015392 0.46459615 0.47062236 0.48124868 0.5094426 0.4990432 0.46871468 0.3950266
0.28786236 0.1836901 0.09571564 0.0082869325 0.0051817647 0.016516773 0.054314915 0.13192208
0.25641876 0.40343547 0.4786797 0.5101591 0.5094136 0.5026907 0.5138594 0.5017682
0.51288 0.5057442 0.50705516 0.49961767 0.4604122 0.4462219 0.4562223 0.4798348
0.51103157 0.5312732 0.5081022 0.43610528 0.3679036 0.24277231 0.123720035 0.012670524
0.003929103 0.022944001 0.06301255 0.13918968 0.28112474 0.42316234 0.48789123 0.541761
0.53513163 0.5029971 0.5103645 0.49963972 0.50731224 0.5034534 0.47056133 0.47010547
0.42548335 0.39889997 0.4386436 0.47740528 0.52286655 0.54063153 0.5252676 0.4522107
0.38973224 0.28678167 0.13512823 0.018370243 0.007499837 0.035161033 0.079343125 0.16120908
00000000: c1d5 1b2b 01c8 9134 1757 6136 0d75 3939
00000010: 3bc3 fa3a bd8d 903b 8135 a63b c83d 243c
00000020: d6c2 dc3c a28e 9e3d 4f75 523e 8fb1 823e
00000030: 4d00 8d3e 32f1 833e d0c3 833e 7c4b 953e
00000040: 944d 913e 4db4 753e 8a06 2e3e 4e3e 813d
00000050: 8632 cb3c f85a 5e3c 312d 013c 5a1c ed3b
00000060: f185 6a3b 33e8 363b dfc5 fd39 2672 9334
00000070: afb7 a137 9f56 b637 9214 1d37 3001 613b
00000080: b28b 133c 87cd 963c 0460 553d 1645 0e3e
00000090: 83f4 863e 5173 ce3e 6134 0e3f 814f 1c3f
000000a0: 9462 2b3f 8b22 263f 82dc 253f 4ddc 293f
000000b0: a093 223f 29fd 133f 88c1 053f 1a90 b73e
000000c0: e7e1 693e 495f 003e ca53 6d3d b1f7 343d
000000d0: f0ec dc3c 021f 793c 22b6 6d3b 9b89 8136
000000e0: eda3 b33a 037d 863b 0e10 3d3b fe68 923b
000000f0: 269a a63c cdb1 b63d 6b35 5b3e 43b3 9a3e
00000100: c24e ba3e 72ee e63e 9b88 103f 0ab1 0e3f
00000110: dd8f 123f 5fd3 183f 0d22 1b3f 336f 153f
00000120: 808b 0c3f ea2d 0a3f 2ab1 063f bfb3 de3e
00000130: 626e ba3e 731b 9b3e 62d5 423e 48b3 b73d
00000140: 2908 393d 1325 d13c a483 de3b 3885 9f3a
00000150: 7cd9 073a 62a2 c63a 1435 663b 5cb6 7c3c
00000160: 9b48 613d af5b 3e3e d478 973e 7d7a bc3e
00000170: 74a4 e33e 9d11 023f 6f6c 113f f620 083f
00000180: 410f 0e3f ba3b 113f 91bc 133f 583c 0e3f
00000190: 17fa 083f 1253 053f ded4 063f 07ba f83e
000001a0: 6484 da3e b238 bc3e d93e 973e f725 3b3e
000001b0: 2f86 be3d e211 223d 64f4 d73c fc4c 753b
000001c0: 07c1 a13a 1d51 613b fb0b 303c 0204 e93c
000001d0: cf81 f43d 4d6b 833e 3c54 bb3e efcc d83e
000001e0: a7f7 f63e 9c1b 013f f7a8 0d3f 9525 033f
000001f0: 01e1 0c3f e94f 0c3f 2cf2 0b3f 6861 0a3f
00000200: c7e0 043f 6a17 023f 013e 033f cb56 fe3e
00000210: d31e f63e a225 e33e 66d3 c03e d5dd 883e
00000220: 243b 2b3e af90 aa3d 2e0c 1c3d 9b50 6f3b
00000230: 0612 a93a a02c db3b e160 943c 3780 5f3d
00000240: fc39 2f3e 8660 a33e f07f d03e 71c8 e63e
00000250: 5bb9 013f bb8b 023f a751 0a3f 9e89 013f
00000260: 0d4f 083f 90a1 083f 7428 0a3f 8f67 063f
00000270: 8a15 003f 4811 f93e 6c4b fd3e 846e fd3e
00000280: 8d6f 003f 3b96 f13e 08ab dc3e 0253 ae3e
00000290: 2686 723e 40cc 093e 8a3c 7e3d 419c 283c
000002a0: 0f7a 233b c832 353c f0c8 053d 94b5 c53d
000002b0: af4a 553e 57ea b73e 4447 e33e 9d83 f43e
000002c0: 9820 003f ecd9 fe3e b678 053f 33ca fd3e
000002d0: 0570 043f 6cbe 043f 9cf0 053f 2642 013f
000002e0: bcd6 f53e 8cdf ed3e 6af5 f03e 3a66 f63e
000002f0: d56a 023f 9782 ff3e 5ffb ef3e ed40 ca3e
00000300: b262 933e 4219 3c3e 9006 c43d eac5 073c
00000310: cbcb a93b 2f4e 873c 5179 5e3d 9516 073e
00000320: 5249 833e 188f ce3e 8115 f53e c999 023f
00000330: ee68 023f 56b0 003f 4a8c 033f e173 003f
00000340: 1b4c 033f 7478 013f 5ece 013f e3cd ff3e
00000350: 26bb eb3e 3277 e43e f895 e93e e8ac f53e
00000360: f7d2 023f 8501 083f fc12 023f 3149 df3e
00000370: dc5d bc3e 4e99 783e ee60 fd3d 0898 4f3c
00000380: b4bf 803b 0ff5 bb3c b90c 813d bd87 0e3e
00000390: 95ef 8f3e bca8 d83e e1cc f93e d9b0 0a3f
000003a0: 63fe 083f 6bc4 003f 3fa7 023f c7d0 ff3e
000003b0: 37df 013f 52e2 003f 6aed f03e aab1 f03e
000003c0: f4d8 d93e 9e3c cc3e e595 e03e 776e f43e
000003d0: 95da 053f d466 0a3f f077 063f 2988 e73e
000003e0: fc8a c73e 0cd5 923e 0e5f 0a3e 317d 963c
000003f0: 31c1 f53b 0405 103d a67e a23d fe13 253e

fc1.weight f4 [128, 784]
-0.0150386 0.0066085234 0.07450147 0.016001299 -0.02182476 -0.106415756 -0.10818658 -0.12167762
-0.1219751 -0.14972068 -0.16733846 -0.043338377 0.064018175 0.044686675 0.111339636 0.09022329
0.07401851 -0.052611664 -0.13675278 -0.16534808 -0.11610295 -0.042064488 -0.07324577 -0.08049005
0.008049367 0.05749097 0.050117068 -0.06064765 -0.04221019 0.020527832 0.0061003277 -0.044953424
0.038367428 0.011958608 -0.062901415 -0.14116868 -0.13671245 -0.13116305 -0.06074116 0.021414319
0.06327746 0.020178847 0.01857692 0.057574026 0.005015682 0.05987642 -0.11087685 -0.15418884
-0.15484284 -0.051592004 -0.04599636 -0.00018151628 -0.0358978 -0.050688293 0.052207794 -0.06265252
0.047419548 0.024453586 -0.0029568474 -0.030112177 -0.044507727 -0.06280748 -0.15949023 -0.15704924
-0.12450353 -0.12804012 -0.10460729 -0.0023033957 -0.029741114 0.031403035 0.086436726 -0.0024549393
-0.011536813 -0.08986609 -0.112818204 -0.08760785 -0.18510178 -0.17554948 -0.098680936 -0.067491144
-0.03858851 -0.027747538 0.01057462 0.036452666 -0.09595285 -0.006326268 -0.029689703 -0.05423827
-0.06597055 -0.041883938 -0.06470972 -0.12032168 -0.10195053 -0.14867882 -0.09492665 -0.028905772
-0.040760055 -0.021999875 0.038185135 -0.07657407 -0.03447415 -0.09478002 -0.119060755 -0.118111655
-0.16005571 -0.062490843 -0.04669455 -0.060637582 -0.042869497 -0.041264605 0.037717998 -0.023490679
0.04904851 0.033866175 0.01811552 0.022822795 -0.040915128 -0.031171544 -0.053390916 -0.071898796
-0.093390115 -0.09303641 -0.007146942 -0.006056775 0.039917637 0.046961322 0.033703577 -0.04612889
0.044326056 -0.021757469 -0.032302354 -0.024219688 -0.09770242 -0.15160894 -0.018320281 -0.07006113
-0.026029414 -0.0045354734 0.0076705776 -0.04867882 0.045665987 0.03523686 0.053766187 0.0016694352
0.002220365 -0.010303439 -0.09172689 -0.050512306 -0.05149755 -0.006327554 -0.009923941 0.023721775
0.024256218 0.029448321 0.042210743 0.016112542 0.098238304 0.017845659 0.018382845 0.0003868268
-0.06385519 -0.113356516 -0.0150009 -0.077168345 -0.04512776 -0.029820215 0.020739203 0.033324897
0.091382466 0.06532627 0.050613213 0.055865787 0.08012372 0.01996562 -0.01977959 -0.09827459
0.02241471 0.019608712 0.06971083 0.031545434 0.07963125 0.030495806 -0.009326567 -0.03694987
0.078900784 0.03663504 0.12057533 0.019050945 -0.01929639 -0.08107473 -0.03754932 -0.041809354
-0.057748567 -0.041177988 0.041058563 0.025833976 0.03165844 -0.007946812 0.06864899 0.047019936
0.11634465 0.11338998 -0.031765062 -0.0452707 -0.011592532 0.087846495 0.0817684 0.06766506
0.030080045 0.015662245 -0.080016434 -0.038064513 0.062459882 0.12701385 0.14126536 0.04047005
-0.07039779 -0.0708311 -0.07601408 0.014922937 -0.08482136 -0.09401962 -0.00843093 -0.018401626
0.025263354 0.035071716 0.026897432 0.07475966 0.0753134 0.059119996 0.006686394 -0.044886895
-0.02649914 -0.006027676 0.052671097 0.025069302 0.021855012 -0.046698675 -0.0820259 -0.063753024
0.017128307 0.021690609 0.029602606 0.021101313 -0.09188848 -0.110875726 -0.03216452 0.046512518
-0.08674673 -0.11370396 0.030715946 0.035774015 0.049934413 0.03501992 0.07411133 0.04915863
00000000: 7664 76bc 508c d83b 3a94 983d 2815 833c
00000010: d7c9 b2bc 81f0 d9bd ed90 ddbd 1e32 f9bd
00000020: 15ce f9bd 6150 19be c65a 2bbe 9583 31bd
00000030: f61b 833d 6009 373d 0906 e43d fdc6 b83d
00000040: 0497 973d 547f 57bd ec08 0cbe 0251 29be
00000050: 62c7 edbd d04b 2cbd e101 96bd f8d7 a4bd
00000060: 7ee1 033c a77b 6b3d 8e47 4d3d ac69 78bd
00000070: 98e4 2cbd fc29 a83c 42e5 c73b 1521 38bd
00000080: 2a27 1d3d 0aee 433c 75d2 80bd 868e 10be
00000090: 59fe 0bbe 9b4f 06be b9cb 78bd 156d af3c
000000a0: 9d97 813d 1c4e a53c a02e 983c bed2 6b3d
000000b0: 975a a43b fa40 753d 6713 e3bd aee3 1dbe
000000c0: 1f8f 1ebe 2352 53bd ae66 3cbd 6855 3eb9
000000d0: 9209 13bd 879e 4fbd d7d7 553d f74f 80bd
000000e0: 003b 423d e352 c83c abc7 41bb d0ad f6bc
000000f0: bc4d 36bd 35a1 80bd 6851 23be 84d1 20be
00000100: b5fb febd f31c 03be 593c d6bd 91f4 16bb
00000110: a3a3 f3bc 78a0 003d bd05 b13d 0ce3 20bb
00000120: e704 3dbc b60b b8bd 3b0d e7bd bf6b b3bd
00000130: 528b 3dbe 3ec3 33be 3b19 cabd cc38 8abd
00000140: fc0e 1ebd ce4e e3bc 2c41 2d3c 644f 153d
00000150: ee82 c4bd 954c cfbb d237 f3bc f328 5ebd
00000160: 911b 87bd 7e8e 2bbd 8886 84bd 376b f6bd
00000170: 71cb d0bd 433f 18be e768 c2bd cccb ecbc
00000180: 04f4 26bd 1539 b4bc 0468 1c3d ded2 9cbd
00000190: c434 0dbd 071c c2bd 20d6 f3bd 86e4 f1bd
000001a0: a5e5 23be 66f6 7fbd c942 3fbd 1d5f 78bd
000001b0: ed97 2fbd 1305 29bd 307e 1a3d 866f c0bc
000001c0: 17e7 483d 42b7 0a3d 0067 943c dff6 ba3c
000001d0: 9f96 27bd 775b ffbc 6fb0 5abd ad3f 93bd
000001e0: 5143 bfbd e089 bebd e530 eabb e977 c6bb
000001f0: ad80 233d 845a 403d c30c 0a3d a6f1 3cbd
00000200: 3d8f 353d b83c b2bc 794f 04bd 5e68 c6bc
00000210: 3518 c8bd 603f 1bbe 6a14 96bc 367c 8fbd
00000220: a33b d5bc 4f9e 94bb 7859 fb3b 7163 47bd
00000230: 420c 3b3d 8754 103d ef39 5c3d f3d0 da3a
00000240: 8b83 113b c1cf 28bc 4fdb bbbd fee5 4ebd
00000250: 18ef 52bd 5f57 cfbb 0798 22bc 2b54 c23c
00000260: fab4 c63c 9b3d f13c 2ce5 2c3d 73fe 833c
00000270: 2a31 c93d 0f31 923c 9f97 963c 04cf ca39
00000280: 83c6 82bd 7627 e8bd 56c6 75bc 700a 9ebd
00000290: e3d7 38bd 8649 f4bc 43e5 a93c b07f 083d
000002a0: bb26 bb3d c8c9 853d cd4f 4f3d 86d3 643d
000002b0: e817 a43d f18e a33c cf08 a2bc 3044 c9bd
000002c0: 0e9f b73c 73a2 a03c 8dc4 8e3d c935 013d
000002d0: b515 a33d 57d2 f93c 75ce 18bc bf58 17bd
000002e0: bc96 a13d a00e 163d 33f0 f63d ba10 9c3c
000002f0: 7613 9ebc 820a a6bd 51cd 19bd 4940 2bbd
00000300: c389 6cbd 40aa 28bd 062d 283d c6a1 d33c
00000310: 48ac 013d 5833 02bc d797 8c3d fa97 403d
00000320: 1b46 ee3d 0139 e83d 151c 02bd c56d 39bd
00000330: 9aee 3dbc dde8 b33d 3176 a73d fb93 8a3d
00000340: 6d6a f63c 1c4e 803c a8df a3bd 89e9 1bbd
00000350: efd5 7f3d eb0f 023e dea7 103e ecc3 253d
00000360: b72c 90bd e50f 91bd 45ad 9bbd 567f 743c
00000370: d2b6 adbd 5c8d c0bd e221 0abc 02bf 96bc
00000380: 18f5 ce3c 5ca7 0f3d 0158 dc3c 981b 993d
00000390: e93d 9a3d cf27 723d 8a19 db3b 52db 37bd
000003a0: b914 d9bc d083 c5bb a6bd 573d 235e cd3c
000003b0: 4809 b33c 1c47 3fbd 32fd a7bd f290 82bd
000003c0: aa50 8c3c 81b0 b13c 2a81 f23c a9dc ac3c
000003d0: 0730 bcbd d012 e3bd f2be 03bd e983 3e3d
000003e0: 45a8 b1bd 9fdd e8bd 02a0 fb3c c687 123d
000003f0: 0788 4c3d 0c71 0f3d aec7 973d 8f5a 493d

fc1.bias f4 [128]
-0.028124752 -0.048447225 0.02389469 -0.070865184 -0.019247409 -0.04429593 -0.0067833317 -0.03119386
-0.032669332 -0.08273037 0.022890026 -0.039477702 -0.020509578 0.047819585 0.07794279 -0.019597353
0.016974775 0.005383246 -0.010955034 -0.037054393 -0.010228392 -0.07351537 0.09591885 0.029718924
-0.035158765 -0.025803583 0.044562344 -0.031230383 -0.028067047 0.015809732 -0.043813027 -0.102561206
-0.033595286 -0.060448542 0.04512931 0.0058653965 -0.03236032 0.069788314 -0.042843457 -0.05905674
-0.006014924 -1.4260368e-06 -0.0326292 -0.0032658437 -0.07183901 -0.09410184 0.07261157 0.06686652
0.031011874 -0.016542684 -0.06982285 -0.014327338 0.04532733 -0.06992188 0.049238604 -0.032136537
0.03140399 -0.031859737 -0.10513841 0.03765836 -0.06325072 -0.03417896 0.019343574 0.053864695
-0.04964078 -0.01781971 -0.06837945 -0.04357197 -0.04158379 -0.012309485 0.026145095 -0.08430629
-0.028996512 -0.001202396 -0.012489204 0.0007208082 -0.04394796 0.019523645 -0.011708242 0.006452146
0.012353464 0.0062692943 0.054716803 0.006022267 0.05149309 -0.078214735 -0.014802521 0.018930461
0.005299086 -0.04918888 -0.013795302 -0.034888543 -0.063413434 0.0091881 -0.015601452 -0.05220001
-0.005918878 0.0047756885 0.045558337 0.036687717 -0.037372794 0.023813942 -0.051602095 -0.03950877
0.0008970915 0.0021824995 -0.011906862 -0.052468933 -0.023443956 0.004699258 -0.042973097 0.0059685456
-0.06594539 0.024908232 0.029295996 0.044140134 -0.06029967 -0.0015678455 -0.013475993 -0.03343597
0.03167839 0.012877043 -0.0638293 0.054011937 0.06963166 -0.043967154 -0.056120645 -0.03817193
00000000: e165 e6bc 9970 46bd ccbe c33c c421 91bd
00000010: beac 9dbc a66f 35bd b646 debb 448a ffbc
00000020: 47d0 05bd 8a6e a9bd dd83 bb3c 5fb3 21bd
00000030: b403 a8bc 78de 433d 78a0 9f3d a18a a0bc
00000040: af0e 8b3c f165 b03b be7c 33bc 59c6 17bd
00000050: fc94 27bc 3a8f 96bd 1a71 c43d 1a75 f33c
00000060: a302 10bd 0962 d3bc 0187 363d dcd6 ffbc
00000070: ddec e5bc 6983 813c 4a75 33bd 9c0b d2bd
00000080: 369b 09bd e498 77bd 83d9 383d 8332 c03b
00000090: 418c 04bd 2ded 8e3d 9f7c 2fbd 7be5 71bd
000000a0: d718 c5bb 4066 bfb5 32a6 05bd c407 56bb
000000b0: 5520 93bd 77b8 c0bd 60b5 943d 50f1 883d
000000c0: 9d0c fe3c 8684 87bc 48ff 8ebd 36bd 6abc
000000d0: 26a9 393d 3433 8fbd 6bae 493d 9aa1 03bd
000000e0: 78a1 003d 5b7f 02bd cf52 d7bd a73f 1a3d
000000f0: 9889 81bd 3dff 0bbd 6a76 9e3c 3aa1 5c3d
00000100: 2154 4bbd a4fa 91bc 860a 8cbd 8678 32bd
00000110: c453 2abd b9ad 49bc 3d2e d63c c7a8 acbd
00000120: 188a edbc b799 9dba 859f 4cbc 9ff4 3c3a
00000130: c702 34bd 0df0 9f3c edd3 3fbc 866c d33b
00000140: 2f66 4a3c a76e cd3b ba1e 603d 7056 c53b
00000150: 6bea 523d 0c2f a0bd 4686 72bc 0e14 9b3c
00000160: f5a3 ad3b 477a 49bd b105 62bc 4ae7 0ebd
00000170: e7de 81bd af89 163c 3c9d 7fbc adcf 55bd
00000180: 26f3 c1bb 617d 9c3b 619b 3a3d dc45 163d
00000190: 3714 19bd 7515 c33c b85c 53bd f3d3 21bd
000001a0: cb2a 6b3a 4408 0f3b 0015 43bc aae9 56bd
000001b0: 8a0d c0bc 3cfc 993b 8f04 30bd ca93 c33b
000001c0: 600e 87bd 590c cc3c 28fe ef3c 49cc 343d
000001d0: c9fc 76bd 2a80 cdba 69ca 5cbc 28f4 08bd
000001e0: 33c1 013d 3cfa 523c f0b8 82bd 9f3b 5d3d
000001f0: 0b9b 8e3d e716 34bd c3de 65bd 2b5a 1cbd

fc2.weight f4 [64, 128]
-0.028568784 -0.040186755 -0.14285173 -0.08849405 0.023097303 -0.076637454 -0.03708881 -0.044196643
0.12341657 0.0016329754 0.02496708 0.042001903 0.04277768 0.04588718 0.05354734 0.052667618
-0.074405305 0.13843952 0.051040858 0.14364871 0.12078124 0.01601953 0.112921566 0.03708052
0.1000198 0.09518953 0.10769042 0.008994159 0.20542371 0.2534908 -0.09923346 -0.15759042
-0.049856864 -0.060497187 0.15425302 0.03046053 -0.0050720684 -0.04668996 0.06128416 0.015431448
0.011061141 0.039519962 -0.10004057 0.07673313 -0.12640257 0.026354529 -0.013117425 0.041699007
-0.07583676 0.11991819 0.12205343 0.17077804 -0.14989042 0.102622926 -0.15752436 0.31559637
-0.02458004 0.11863384 -0.02428466 0.1556924 -0.03331643 -0.034738194 -0.11420958 -0.057426248
-0.012851219 0.10183281 0.124950334 -0.071150504 -0.088055864 0.06991789 -0.08263016 0.022397121
-0.016713755 0.12477491 -0.0567685 0.051277485 -0.072969005 -0.13436879 0.00048061227 0.046811618
-0.1878283 -0.014224089 0.0886427 -0.036938008 -0.063013025 -0.14946437 -0.14482489 -0.08379512
0.19069435 0.08967249 0.03906566 -0.13023534 0.13015448 -0.13569708 -0.04262483 0.05845791
0.018209165 0.112248294 0.15779313 -0.086815126 -0.011683465 0.016237462 0.04757478 0.08401471
-0.08577616 0.18685175 0.10522884 0.015473588 0.104676 0.0053088865 -0.0047348286 -0.047219556
-0.15194362 -0.039116986 -0.011414558 -0.045835853 0.02570212 0.104651414 -0.013047942 0.011172936
-0.2287429 0.119195014 0.14085959 -0.027141877 -0.09009452 -0.047924828 0.0024986796 0.112248994
0.13178508 -0.013113403 -0.062727146 -0.082297795 0.10522025 0.017660055 0.013296648 -0.036133744
0.067642525 0.1188551 -0.10379046 0.092118 -0.07770089 -0.007964011 -0.03324438 -0.017407041
0.123378195 0.042072676 -0.1715213 0.114055015 0.053937666 -0.006942588 0.025591262 0.0986157
-0.11795602 -0.04926185 0.0590005 -0.06867581 -0.1668458 -0.023781631 0.092286 -0.03342969
-0.05154948 0.08159235 0.11404969 -0.031815574 -0.09349496 -0.06088281 0.0992008 -0.032029986
-0.029042765 0.0003050294 -0.0111748325 0.03213011 0.04481873 0.017927561 0.032408357 -0.0277767
0.00804025 -0.0043961657 -0.054988936 -0.00030536388 0.031562217 0.13082865 0.022407256 -0.06525346
0.10542153 0.062822156 0.07403302 -0.056291077 -0.08496631 0.023124754 0.01691245 0.06347058
-0.03935272 -0.097484 -0.10117539 0.034536075 0.06791797 0.097710304 -0.06885833 0.12231107
0.08097887 -0.06013521 -0.00650664 -0.011959517 -0.0053435895 -0.22876027 0.15584521 -0.071868666
-0.026200896 -0.019158226 0.036616728 -0.014932588 -0.14468198 0.028244397 -0.069471225 -0.14391531
0.074521765 0.054841302 -0.018270124 -0.051526375 0.12445927 -0.0821833 0.0776881 -0.008741584
0.010127693 0.11468642 -0.064634964 0.04591645 0.06731066 0.15553792 0.0390938 0.07742434
-0.0643619 -0.024839025 -0.1352141 -0.021064494 0.018961867 -0.006884154 0.022853732 -0.021184148
0.039992496 0.040704668 0.120595306 -0.04120176 -0.034644324 -0.05121003 -0.023671573 -0.20999104
-0.02403438 -0.11654798 0.09763621 -0.04455058 0.0345093 -0.11772833 -0.14990376 0.012917802
00000000: 1509 eabc de9a 24bd b947 12be 5e3c b5bd
00000010: 8e36 bd3c 19f4 9cbd 70ea 17bd 8a07 35bd
00000020: d4c1 fc3d 9009 d63a c387 cc3c 300a 2c3d
00000030: a637 2f3d 32f4 3b3d 7554 5b3d 00ba 573d
00000040: cf61 98bd 17c3 0d3e 3810 513d a618 133e
00000050: 285c f73d 643b 833c 6c43 e73d bee1 173d
00000060: 2ed7 cc3d baf2 c23d cb8c dc3d 3d5c 133c
00000070: 985a 523e 8cc9 813e ea3a cbbd 625f 21be
00000080: b636 4cbd e6cb 77bd 81f4 1d3e 5d88 f93c
00000090: 9833 a6bb f93d 3fbd 1905 7b3d 2fd4 7c3c
000000a0: ca39 353c afdf 213d 12e2 ccbd 4226 9d3d
000000b0: ad6f 01be 74e5 d73c 78ea 56bc 94cc 2a3d
000000c0: 4e50 9bbd ab97 f53d 26f7 f93d 70e0 2e3e
000000d0: e07c 19be f82b d23d 114e 21be d995 a13e
000000e0: 145c c9bc 4cf6 f23d a0f0 c6bc d46d 1f3e
000000f0: cf76 08bd a349 0ebd b6e6 e9bd c937 6bbd
00000100: eb8d 52bc b88d d03d f6e5 ff3d 5bb7 91bd
00000110: a256 b4bd 1c31 8f3d 003a a9bd 2b7a b73c
00000120: 49eb 88bc fd89 ff3d 1686 68bd 5708 523d
00000130: c670 95bd f997 09be b0fa fb39 8abd 3f3d
00000140: 1056 40be 270c 69bc 4e8a b53d 4f4c 17bd
00000150: f90c 81bd 300d 19be fa4c 14be c79c abbd
00000160: 6145 433e 36a6 b73d 5003 203d 6a5c 05be
00000170: 3747 053e 2df4 0abe 6097 2ebd 9071 6f3d
00000180: 632b 953c 6fe2 e53d 8694 213e 21cc b1bd
00000190: 016c 3fbc 6d04 853c c6dd 423d e70f ac3d
000001a0: 69ab afbd 1156 3f3e 3882 d73d ef84 7d3c
000001b0: 5f60 d63d 2bf6 ad3b 9f26 9bbb 4b69 41bd
000001c0: 1c97 1bbe 2239 20bd 2004 3bbc 60be 3bbd
000001d0: 418d d23c 7b53 d63d 09c7 55bc b10e 373c
000001e0: 943b 6abe 841c f43d 7f3d 103e a458 debc
000001f0: 7a83 b8bd d34c 44bd e3c0 233b cde2 e53d
00000200: abf2 063e 99d9 56bc 1777 80bd bf8b a8bd
00000210: b77d d73d d2ab 903c 2fda 593c fa00 14bd
00000220: 2a88 8a3d 4d6a f33d 1890 d4bd 5da8 bc3d
00000230: a521 9fbd 7c7b 02bc 422b 08bd 3699 8ebc
00000240: b5ad fc3d 6654 2c3d 48a3 2fbe ad95 e93d
00000250: beed 5c3d a67e e3bb c4a4 d13c 07f7 c93d
00000260: ed92 f1bd cbc6 49bd 82aa 713d e7a5 8cbd
00000270: a0d9 2abe b2d1 c2bc 7100 bd3d 92ed 08bd
00000280: 8c25 53bd e419 a73d e292 e93d 0c51 02bd
00000290: 497a bfbd 4160 79bd ca29 cb3d e031 03bd
000002a0: 18eb edbc 5aec 9f39 a516 37bc dd9a 033d
000002b0: d893 373d d2dc 923c a0be 043d f68b e3bc
000002c0: 41bb 033c b60d 90bb 143c 61bd 3f19 a0b9
000002d0: 6247 013d f2f7 053e 6c8f b73c 9ba3 85bd
000002e0: 3ee7 d73d e7a8 803d a09e 973d 7991 66bd
000002f0: d102 aebd 2070 bd3c fa8b 8a3c ddfc 813d
00000300: 5130 21bd b1a5 c7bd 0b35 cfbd b375 0d3d
00000310: 9418 8b3d 571c c83d 9905 8dbd 3a7e fa3d
00000320: 40d8 a53d 5750 76bd a735 d5bb daf1 43bc
00000330: 4719 afbb 2240 6abe e395 1f3e e12f 93bd
00000340: 43a3 d6bc b6f1 9cbc 6cfb 153d d0a7 74bc
00000350: 8327 14be cb60 e73c ee46 8ebd 895e 13be
00000360: de9e 983d 46a1 603d 3aab 95bc 520d 53bd
00000370: 80e4 fe3d b84f a8bd f01a 9f3d dc38 0fbc
00000380: a0ee 253c b7e0 ea3d 565f 84bd e312 3c3d
00000390: 2cda 893d 5545 1f3e d220 203d a790 9e3d
000003a0: 2cd0 83bd 367b cbbc 9175 0abe 728f acbc
000003b0: eb55 9b3c 7894 e1bb c037 bb3c 618a adbc
000003c0: 2ccf 233d f0b9 263d acfa f63d 2dc3 28bd
000003d0: 35e7 0dbd 9cc1 51bd e3ea c1bc e407 57be
000003e0: c0e3 c4bc b5b0 eebd 7ef5 c73d ab7a 36bd
000003f0: a059 0d3d 8d1b f1bd 5f80 19be 30a5 533c

fc2.bias f4 [64]
-0.037651125 0.002719071 0.07118218 0.059513994 0.09249432 -0.042096075 0.028719882 0.06932076
-0.04065106 0.09042846 0.066798896 -0.028828606 0.008371276 -0.040662874 0.041241724 0.1009495
0.021960756 0.01025894 0.05205436 0.03642214 0.068406306 -0.024013396 0.15323925 -0.024149068
-0.0108951675 0.13321346 0.13424954 0.0017206914 -0.017500287 0.016661495 0.08825543 -0.046404522
0.042357154 0.09119729 0.06852929 -0.066838555 -0.011863846 0.033541948 -0.019534403 0.0165484
0.10835573 -0.031916 0.022696206 0.045183044 -0.0109598 -0.070399076 -0.028545924 -0.018322656
-0.022620209 0.050655484 0.06497816 -0.016186904 0.10976347 -0.00091268594 -0.07765231 -0.0774681
0.013773211 -0.013118776 -0.05373317 -0.0014162464 -0.014449346 -0.06033346 0.05317396 -0.038910396
00000000: 1138 1abd 7132 323b f6c7 913d f2c4 733d
00000010: a96d bd3d ef6c 2cbd f545 eb3c 0bf8 8d3d
00000020: ba81 26bd 8e32 b93d dccd 883d f829 ecbc
00000030: ad27 093c 1d8e 26bd 15ed 283d 9dbe ce3d
00000040: 0be7 b33c 1d15 283c f436 553d 622f 153d
00000050: 9b18 8c3d beb7 c4bc c0ea 1c3e 44d4 c5bc
00000060: a581 32bc 1c69 083e b678 093e d388 e13a
00000070: c35c 8fbc b07d 883c 43bf b43d ab12 3ebd
00000080: b27e 2d3d a5c5 ba3d 1659 8c3d a7e2 88bd
00000090: 9460 42bc 4863 093d 9d06 a0bc 8390 873c
000000a0: 9ce9 dd3d 5aba 02bd 65ed b93c db11 393d
000000b0: bc90 33bc 642d 90bd 24d9 e9bc 6519 96bc
000000c0: 044e b9bc 207c 4f3d 4513 853d 669a 84bc
000000d0: accb e03d 5141 6fba 2d08 9fbd 98a7 9ebd
000000e0: 09a9 613c 22f0 56bc 5017 5cbd 58a1 b9ba
000000f0: f3bc 6cbc 3820 77bd f0cc 593d 8260 1fbd

output_layer.weight f4 [10, 64]
-0.18272442 -0.2067187 0.096024275 0.1608697 -0.1482468 -0.100242734 0.07317882 0.005341309
-0.10749571 -0.02619597 -0.070355885 -0.10606483 0.038324874 0.11055838 0.16546007 0.073052526
-0.013521773 0.020832103 -0.050978366 -0.11199474 -0.023242837 0.017195035 0.048414264 0.005538142
-0.1600607 -0.12358803 -0.023081467 0.1356686 -0.2228934 -0.052135725 -0.08526206 -0.05540955
-0.03991077 -0.08782708 0.07805079 0.108362876 -0.08046798 -0.07447593 0.059536915 -0.10180155
-0.22423424 0.06856557 -0.034438714 -0.1736517 0.17932008 0.10340015 0.06423791 0.10958882
0.005914109 -0.10609021 -0.15755688 0.14572547 0.056157317 -0.09655768 0.045147777 0.025006233
-0.12440165 0.11433308 0.15378828 -0.06791271 -0.045281623 0.01629881 0.06688404 0.056981176
0.17438665 0.006256258 -0.14025457 -0.15493433 -0.070097275 -0.027906269 0.06164363 -0.17204012
0.04826549 -0.16823728 0.06952979 -0.25928798 0.1632827 -0.18414322 0.0738045 -0.1145661
0.18205462 -0.1757519 -0.101090394 -0.18922022 0.14094971 -0.22427699 -0.0023686339 -0.034943294
0.025353352 0.016504468 -0.10993466 -0.19101149 -0.30694708 -0.018449556 0.026843473 -0.200107
-0.27651185 -0.10988053 -0.024519728 -0.06028875 -0.15208986 -0.013814582 0.0045528086 0.15149999
0.051187664 -0.2385341 0.070407845 0.15091279 0.14413162 0.010902979 -0.2273254 0.122733615
-0.07725906 -0.19412202 0.15807888 0.04518455 -0.07474171 0.18173034 -0.044428144 -0.083600104
0.06890014 -0.10243632 -0.04293254 0.15563168 -0.17975777 0.044700403 0.08433508 0.14271921
-0.19823001 -0.0041758474 0.0506833 0.08741598 -0.051857147 -0.08302284 0.18873684 0.044492036
-0.04844552 0.13572526 -0.19090478 0.036256935 0.06245751 -0.002681994 0.005301562 0.1258578
0.15826067 0.10936743 -0.08531827 -0.16798674 -0.051225454 -0.1337873 0.12787014 0.0171
-0.08503054 0.095238514 0.14795499 -0.17244256 0.081080236 -0.2029164 -0.04916698 -0.11849911
0.093938984 0.065301195 0.11486518 -0.27032647 -0.09794101 -0.08049424 0.034656413 0.05059568
0.12427026 0.069187 -0.2947611 -0.035974603 -0.14113648 -0.024744298 -0.045308404 0.02649899
-0.02054349 -0.15497686 0.07432045 -0.22238763 0.14787653 0.13929798 -0.09898366 0.020987518
-0.22387503 -0.2415803 -0.13863277 -0.18192632 -0.14474459 -0.064319395 0.07259126 0.14315331
-0.019907782 -0.17883669 0.08376527 -0.05150951 0.0013869834 -0.2787668 0.11317343 0.15093644
0.034399036 -0.11183156 -0.014548926 -0.21586883 0.02300825 0.058682032 -0.14349182 0.13403276
-0.24262804 -0.057309102 -0.18888868 0.05913398 -0.02035308 -0.077179074 0.13963178 -0.16211402
-0.011877435 -0.0031014737 -0.11347975 -0.08628662 0.064916395 0.102486685 0.10817141 0.075180374
0.00030703016 0.13021705 0.14349279 -0.16482067 0.12238209 -0.0076322 -0.06495732 -0.025700863
0.09873104 -0.1720726 0.024119139 0.16249326 -0.03130108 -0.10408118 -0.023918228 -0.07294313
0.084338225 -0.22432995 0.10403657 0.14903626 -0.072557464 -0.25452182 -0.028196715 -0.08616845
-0.034517933 0.036965143 0.08099075 0.0874822 -0.081185155 0.043244902 0.060483582 -0.12044672
00000000: 1c1c 3bbe 11ae 53be 60a8 c43d 07bb 243e
00000010: 02ce 17be 104c cdbd c7de 953d 2606 af3b
00000020: b626 dcbd ee98 d6bc bf16 90bd 8538 d9bd
00000030: 8bfa 1c3d 6f6c e23d 5d6e 293e 909c 953d
00000040: 6d8a 5dbc 16a8 aa3c b1ce 50bd 805d e5bd
00000050: c367 bebc 9adc 8c3c 094e 463d 4d79 b53b
00000060: f4e6 23be b91b fdbd 5815 bdbc b6ec 0a3e
00000070: 2b3e 64be 458c 55bd e09d aebd 20f5 62bd
00000080: 7a79 23bd afde b3bd 18d9 9f3d 5bed dd3d
00000090: 65cc a4bd d686 98bd fbdc 733d 557d d0bd
000000a0: a99d 65be 1b6c 8c3d 9c0f 0dbd c0d1 31be
000000b0: af9f 373e 75c3 d33d 2a8f 833d 1a70 e03d
000000c0: 24cb c13b d345 d9bd 9756 21be 0f39 153e
000000d0: 3705 663d 08c0 c5bd e0ec 383d dfd9 cc3c
000000e0: 4bc6 febd 7627 ea3d ad7a 1d3e d215 8bbd
000000f0: 3979 39bd 1585 853c 80fa 883d 1865 693d
00000100: 6a92 323e 4c01 cd3b e59e 0fbe 1ba7 1ebe
00000110: 298f 8fbd b09b e4bc 087e 7c3d 492b 30be
00000120: 09b2 453d 6546 2cbe a265 8e3d 65c1 84be
00000130: 9533 273e 0a90 3cbe d026 973d a2a1 eabd
00000140: 876c 3a3e 4ef8 33be 7b08 cfbd f2c2 41be
00000150: 1f55 103e dea8 65be 153b 1bbb b320 0fbd
00000160: d5b1 cf3c 6134 873c 6c25 e1bd 8498 43be
00000170: 2b28 9dbe 8623 97bc d8e6 db3c d9e8 4cbe
00000180: f692 8dbe 0b09 e1bd 99dd c8bc 56f1 76bd
00000190: 72bd 1bbe 8e56 62bc ba2f 953b d022 1b3e
000001a0: 28aa 513d 4842 74be fd31 903d e288 1a3e
000001b0: 3d97 133e 69a2 323c fdc7 68be c35b fb3d
000001c0: 003a 9ebd ecc7 46be 6edf 213e 6f13 393d
000001d0: 2f12 99bd 8517 3a3e 49fa 35bd 8836 abbd
000001e0: 841b 8d3d 22ca d1bd 08da 2fbd e95d 1f3e
000001f0: 6c12 38be c517 373d dfb7 ac3d fc24 123e
00000200: cffc 4abe 8cd5 88bb 4b99 4f3d 2607 b33d
00000210: 2968 54bd e107 aabd 3b44 413e 483d 363d
00000220: cf6e 46bd 90fb 0a3e 8b7c 43be 2782 143d
00000230: 72d3 7f3d 65c4 2fbb bab8 ad3b dee0 003e
00000240: 160f 223e 08fc df3d 58bb aebd b704 2cbe
00000250: c8d1 51bd 8aff 08be 64f0 023e 4d15 8c3c
00000260: 7e24 aebd 690c c33d 8381 173e c894 30be
00000270: 650d a63d 51c9 4fbe 5163 49bd a9af f2bd
00000280: 1563 c03d a2bc 853d 6f3e eb3d 3b68 8abe
00000290: 4c95 c8bd 2ada a4bd e2f3 0d3d 6a3d 4f3d
000002a0: 6881 fe3d eab1 8d3d edea 96be 1b5a 13bd
000002b0: 1586 10be 8eb4 cabc 4e95 39bd 6914 d93c
000002c0: d24a a8bc 41b2 1ebe 5235 983d 95b9 63be
000002d0: f26c 173e 21a4 0e3e f2b7 cabd 04ee ab3c
000002e0: 7f3f 65be d360 77be c0f5 0dbe e54a 3abe
000002f0: ed37 14be e3b9 83bd baaa 943d c896 123e
00000300: a515 a3bc f720 37be 208d ab3d a3fb 52bd
00000310: 71cb b53a 86ba 8ebe 79c7 e73d 158f 1a3e
00000320: 01e6 0c3d f207 e5bd 9e5e 6ebc b80c 5dbe
00000330: cc7b bc3c 925c 703d 85ef 12be e23f 093e
00000340: 7c73 78be f3bc 6abd 096c 41be 7936 723d
00000350: 81bb a6bc 1010 9ebd a2fb 0e3e 3801 26be
00000360: 9399 42bc 1842 4bbb 1268 e8bd 0ab7 b0bd
00000370: e3f2 843d 8ae4 d13d f988 dd3d 2bf8 993d
00000380: e4f8 a039 9e57 053e c6ef 123e c0c6 28be
00000390: 76a3 fa3d 8917 fabb 5808 85bd 9e8a d2bc
000003a0: 8033 ca3d cd33 30be 8095 c53c a264 263e
000003b0: 9035 00bd 8428 d5bd 29f0 c3bc 3563 95bd
000003c0: 85b9 ac3d c0b6 65be 2011 d53d f69c 183e
000003d0: 0299 94bd af50 82be ccfc e6bc 1679 b0bd
000003e0: ad62 0dbd c368 173d 7ade a53d de29 b33d
000003f0: 6744 a6bd 9121 313d a2bd 773d c5ac f6bd

output_layer.bias f4 [10]
0.080530316 0.08695643 0.11055726 0.076110154 0.032033198 0.08922194 0.09217273 -0.06647031
0.07312393 -0.07563076
00000000: 14ed a43d 3616 b23d d86b e23d a4df 9b3d
00000010: 3e35 033d feb9 b63d 0ec5 bc3d 9621 88bd
00000020: 00c2 953d 4de4 9abd
