Best_Models/ANN/best_model_1.pth (torch, 454208 bytes, 10 tensors)

normalize.weight f4 [784]
0	0x3f8d2c3d	1.1029125
1	0x3f925178	1.1431112
2	0x3f874262	1.0567133
3	0x3f6d4398	0.92681265
4	0x3f9ac5af	1.2091578
5	0x3f96e483	1.1788486
6	0x3f9f25c1	1.2433397
7	0x3f9c5dc6	1.2216117
8	0x3f995264	1.1978269
9	0x3fa5e413	1.2960228
10	0x3fce27e5	1.6105925
11	0x3fbcacc5	1.4740225
12	0x3fc81feb	1.563474
13	0x3fbfd15e	1.4985769
14	0x3fd547ae	1.66625
15	0x3fb814b4	1.4381318
16	0x3fb5debb	1.4208597
17	0x3fa66deb	1.3002294
18	0x3f9d3b51	1.2283727
19	0x3f96d579	1.1783897
20	0x3f8e4f4e	1.1117952
21	0x3f8183f4	1.0118394
22	0x3f8ba410	1.0909443
23	0x3f87d41f	1.0611609
24	0x3fa0880d	1.2541519
25	0x3f9756db	1.1823381
26	0x3f85ca28	1.0452318
27	0x3f734fd3	0.9504368
28	0x3fa53e8d	1.2909714
29	0x3fb59522	1.4186137
30	0x3f9241b7	1.1426305
31	0x3f9163b5	1.1358553
32	0x3f76f82e	0.9647244
33	0x3f648d09	0.892777
34	0x3f888d8a	1.0668194
35	0x3f83b5e0	1.0289879
36	0x3fa43055	1.282725
37	0x3fcf4a22	1.6194499
38	0x3fbae6c8	1.4601679
39	0x3fa8ee2f	1.3197688
40	0x3f2dd212	0.67898667
41	0x3f896810	1.0734882
42	0x3f972ae9	1.180997
43	0x3f9b390d	1.2126786
44	0x3fb32a91	1.3997365
45	0x3fd20e56	1.6410625
46	0x3fd24e36	1.6430118
47	0x3fac9fdf	1.3486289
48	0x3f9a8bd1	1.2073919
49	0x3f6ad95f	0.9173793
50	0x3f208d23	0.6271536
51	0x3f6a526f	0.91532034
52	0x3f89a681	1.0753938
53	0x3f8734f0	1.056303
54	0x3f5639e8	0.8368211
55	0x3f7a2c01	0.97723395
56	0x3f9c6977	1.2219685
57	0x3f96b498	1.1773863
58	0x3fa123f1	1.2589093
59	0x3f988bb5	1.1917635
60	0x3f4bddd0	0.79635334
61	0x3f8ea436	1.1143863
62	0x3f9b16c0	1.2116318
63	0x3fa23a46	1.2674034
64	0x3fa005d4	1.2501779
65	0x3f8f4f45	1.1196066
66	0x3f9667da	1.1750443
67	0x3f3e462f	0.7432584
68	0x3f881c74	1.0633683
69	0x3fa05022	1.2524455
70	0x3fc91339	1.5708991
71	0x3f98ef1c	1.194797
72	0x3f3ee96f	0.7457494
73	0x3f5cac1f	0.86200136
74	0x3f30c024	0.69043183
75	0x3f8d9aae	1.106283
76	0x3fa18070	1.2617321
77	0x3f9fef72	1.2494948
78	0x3f6cc6f8	0.924911
79	0x3f6e4f5e	0.93089855
80	0x3f65b166	0.89723814
81	0x3f948c68	1.1605349
82	0x3f7db07c	0.9909742
83	0x3f8b2042	1.0869219
84	0x3fad430e	1.3536088
85	0x3f9aeddb	1.2103838
86	0x3f6eae97	0.9323515
87	0x3f8a6cd7	1.0814465
88	0x3f7dd8dd	0.9915903
89	0x3f43c516	0.76472604
90	0x3fa11006	1.2583015
91	0x3fb742c4	1.431725
92	0x3fab70aa	1.3393757
93	0x3f404b42	0.75114834
94	0x3f588176	0.8457254
95	0x3f1aadff	0.60421747
96	0x3f431f4e	0.7621964
97	0x3f8d4815	1.1037623
98	0x3f9d3d7e	1.2284391
99	0x3f89c4fa	1.0763237
100	0x3e5959db	0.21225683
101	0x3f10049d	0.5625704
102	0x3f2cdc15	0.6752332
103	0x3f63d99a	0.8900391
104	0x3fa178f0	1.2615032
105	0x3fadfdb6	1.3593051
106	0x3f942640	1.1574173
107	0x3f87ff4d	1.0624787
108	0x3f48b1df	0.7839641
109	0x3f955f8d	1.1669785
110	0x3f6fb721	0.9363881
111	0x3f657e3f	0.8964576
112	0x3f831772	1.024153
113	0x3f824c9b	1.0179628
114	0x3f54a5e6	0.8306564
115	0x3f5e2a0e	0.8678292
116	0x3f7c71d0	0.98611164
117	0x3f486af4	0.782882
118	0x3f9eed06	1.2416084
119	0x3f9ee462	1.2413447
120	0x3f666572	0.89998543
121	0x3f156222	0.58352864
122	0x3f2bddf4	0.6713555
123	0x3f87a6ac	1.0597739
124	0x3f792e4c	0.9733627
125	0x3f93be5d	1.1542469
126	0x3fb1236c	1.3838935
127	0x3f5f0237	0.87112755
128	0x3f892292	1.0713675
129	0x3f455a0c	0.77090526
130	0x3f01e00d	0.507325
131	0x3f1dca52	0.6163684
132	0x3f7f2811	0.9967051
133	0x3f91e738	1.1398687
134	0x3f9a3a40	1.2049026
135	0x3f9885aa	1.1915791
136	0x3f7c7995	0.9862302
137	0x3f84c376	1.037215
138	0x3f6d41be	0.9267844
139	0x3f74c6ab	0.95615643
140	0x3f8409bf	1.0315474
141	0x3f78c62b	0.9717738
142	0x3f564a72	0.83707345
143	0x3f4da8ef	0.803359
144	0x3f9f0a9d	1.2425114
145	0x3f7b69bc	0.9820821
146	0x3f76c2e6	0.9639114
147	0x3f9b4961	1.2131768
148	0x3f398c0e	0.7247933
149	0x3f65599c	0.8958986
150	0x3f5c851d	0.86140615
151	0x3f9009d8	1.1253004
152	0x3f51b59c	0.8191774
153	0x3f958429	1.1680957
154	0x3fb54293	1.4160942
155	0x3f226ffa	0.6345211
156	0x3f84f3d6	1.0386913
157	0x3f6129e0	0.8795452
158	0x3ef4311f	0.47693726
159	0x3eb384a8	0.35062146
160	0x3f534cc5	0.82539016
161	0x3f87783d	1.0583569
162	0x3f7913a6	0.97295606
163	0x3f970264	1.1797605
164	0x3f86a124	1.0517926
165	0x3f8095be	1.0045698
166	0x3f6dfc70	0.92963314
167	0x3f8cb7f5	1.0993639
168	0x3f6c0128	0.92189264
169	0x3f8def86	1.1088722
170	0x3f58c983	0.8468248
171	0x3f61da5e	0.88223827
172	0x3f815e15	1.0106837
173	0x3f8472c9	1.034753
174	0x3f68520a	0.9075018
175	0x3f6ef274	0.93338704
176	0x3f6a30e2	0.9148084
177	0x3f7e6359	0.9937034
178	0x3f409d86	0.7524036
179	0x3f6c43ff	0.92291254
180	0x3f64bd6b	0.8935153
181	0x3f710ee1	0.9416333
182	0x3f919d47	1.1376122
183	0x3f7167aa	0.94298804
184	0x3f6b7e42	0.9198953
185	0x3f4b1070	0.79321957
186	0x3f96a239	1.1768256
187	0x3f82411f	1.0176123
188	0x3f7011fe	0.93777454
189	0x3f404c34	0.75116277
190	0x3f769e06	0.96334875
191	0x3f993e22	1.1972086
192	0x3f893995	1.0720698
193	0x3faa1fcb	1.3290952
194	0x3fa178ab	1.261495
195	0x3f8dfdda	1.1093094
196	0x3f82cd8f	1.0218982
197	0x3f3f46d7	0.7471747
198	0x3f67bf7c	0.90526557
199	0x3f60e4df	0.8784923
200	0x3f95bae2	1.1697657
201	0x3f7c7e08	0.9862981
202	0x3f83b0fe	1.0288389
203	0x3f832956	1.024699
204	0x3fa36c96	1.2767513
205	0x3f5322f9	0.8247524
206	0x3f36bee0	0.71385
207	0x3f4f340b	0.80938786
208	0x3f7f2df7	0.9967951
209	0x3f6cf67f	0.92563623
210	0x3fa3e1d4	1.2803292
211	0x3f45daea	0.7728716
212	0x3f67c953	0.9054157
213	0x3f4aa22d	0.7915371
214	0x3fa1b3b2	1.2632964
215	0x3fb6b99c	1.4275393
216	0x3f5844b4	0.8447983
217	0x3f829e17	1.0204495
218	0x3f7f135f	0.9963893
219	0x3f8b58d1	1.088648
220	0x3f81378b	1.0095075
221	0x3f9a795b	1.2068285
222	0x3fa6b7a6	1.3024795
223	0x3f7e6fd8	0.9938941
224	0x3f87dfe0	1.0615196
225	0x3f52bc02	0.8231813
226	0x3f67451c	0.9033983
227	0x3f78fbb1	0.9725905
228	0x3f75195d	0.95741826
229	0x3f67e29f	0.9058017
230	0x3f312b75	0.69206935
231	0x3f8f22de	1.1182516
232	0x3fb39ad2	1.4031622
233	0x3f453dde	0.77047527
234	0x3f6900af	0.9101667
235	0x3f521de2	0.8207685
236	0x3f25d4e8	0.64777994
237	0x3f8749e8	1.0569429
238	0x3f943496	1.1578548
239	0x3f887bee	1.066282
240	0x3f6b2794	0.91857266
241	0x3fa49402	1.2857668
242	0x3f915794	1.1354852
243	0x3fa9b239	1.3257514
244	0x3f7c4e98	0.98557425
245	0x3f68af6f	0.9089269
246	0x3f7b3efa	0.9814297
247	0x3fa19b00	1.2625427
248	0x3f84cc89	1.0374919
249	0x3f6f29e9	0.93423325
250	0x3f8eab95	1.1146113
251	0x3f7f730a	0.9978491
252	0x3f8ea95f	1.1145438
253	0x3f6f7ea6	0.93552625
254	0x3f521855	0.8206838
255	0x3f7c42de	0.9853953

normalize.bias f4 [784]
0	0xbf7412d0	-0.95341206
1	0x3d8ea13c	0.06964347
2	0x3e0a18ba	0.13485995
3	0x3e5e2659	0.21694316
4	0x3d7f9bdc	0.0624045
5	0x3ec814e3	0.39078435
6	0x3ebf9071	0.37414888
7	0x3ea24c88	0.31699014
8	0x3e8a0aff	0.26961514
9	0x3e246a84	0.16056257
10	0x3db76f5a	0.089567855
11	0x3dda5fbc	0.10662791
12	0x3d6835ec	0.05669205
13	0x3d3d7fe1	0.046264533
14	0xbba99384	-0.005175056
15	0x3d3cca2c	0.046091244
16	0x3ccee132	0.025253866
17	0x3caddd0d	0.02122357
18	0x3d987cba	0.07445665
19	0x3e350963	0.17679362
20	0x3e64fe85	0.22362716
21	0x3e320cbc	0.1738767
22	0x3cfd14fd	0.030893797
23	0x3d34edc1	0.044172052
24	0x3dd42618	0.10358828
25	0x3dc89411	0.097938664
26	0x3df84583	0.12122633
27	0x3f4bcf1d	0.79612905
28	0x3f4a4245	0.7900737
29	0x3deceb63	0.11568334
30	0x3da33786	0.07969575
31	0x3e5a11de	0.21295878
32	0x3e30afff	0.17254637
33	0x3e27cc57	0.16386543
34	0x3df0a150	0.11749518
35	0x3e8836e2	0.26604372
36	0x3e4a4c80	0.19755745
37	0x3d0d505d	0.03450047
38	0x3bd40b03	0.0064710393
39	0xbc384a8a	-0.01124824
40	0xbcb77055	-0.022392431
41	0xbd0d9376	-0.034564458
42	0x3d6406e0	0.05567062
43	0x3c6c351b	0.014416958
44	0xbbb67aff	-0.0055688615
45	0xbcabc912	-0.020969901
46	0x3c9b398e	0.018948343
47	0x3d272449	0.04080609
48	0x3e2a8d41	0.16655447
49	0x3dd18f59	0.102324195
50	0x3dfc8786	0.123305365
51	0x3c0a9921	0.00845936
52	0x3dcad142	0.09903194
53	0x3e266806	0.1625062
54	0x3db7a474	0.08966914
55	0x3e8cb2f8	0.27480292
56	0x3ea59397	0.32339165
57	0x3edeb701	0.43498996
58	0x3de89ef7	0.11358445
59	0x3e2d8bb4	0.16947824
60	0x3e901714	0.28142607
61	0x3e67b6bc	0.22628301
62	0x3de0a879	0.109696336
63	0x3e40a589	0.18813147
64	0x3e44dbb9	0.19224443
65	0x3e4c2ae6	0.1993824
66	0x3ddab916	0.106798336
67	0xbce0af95	-0.027427474
68	0xbd228d3b	-0.03968547
69	0x3c88aefe	0.016685005
70	0xbc1e7323	-0.009671005
71	0xbca54b5b	-0.020177534
72	0xbe40535d	-0.187818
73	0x3cfd7d82	0.030943636
74	0x3db5d96e	0.08879362
75	0x3dd9ae71	0.10628975
76	0x3d98c5bd	0.074595906
77	0x3dbcde39	0.09222073
78	0x3dee2fac	0.116301864
79	0x3d1ef629	0.038808975
80	0x3d38e37d	0.045138825
81	0x3e25b618	0.16182745
82	0x3d837b92	0.064200535
83	0x3d5f26db	0.054480415
84	0x3cb27e70	0.021788806
85	0x3e16a549	0.14711489
86	0x3dffc557	0.124888115
87	0x3e0fc973	0.1404169
88	0x3e8fe1c8	0.28101945
89	0x3e2cccd9	0.16875018
90	0x3dc753ab	0.09732755
91	0x3e0d4786	0.13796815
92	0x3e1a86a8	0.1509043
93	0x3e0b0aaa	0.13578287
94	0x3d3da302	0.046298034
95	0xbcdbd3ed	-0.026834453
96	0xbde3eeff	-0.11129569
97	0x3d020f74	0.03175302
98	0x3c359719	0.011083388
99	0xbd7b749e	-0.06139051
100	0xbe10cf12	-0.14141491
101	0xbdbb5517	-0.09147089
102	0xbdd77d75	-0.10521976
103	0x3cb197b5	0.021678785
104	0x3db46843	0.08808949
105	0x3d8b0273	0.067875765
106	0x3b59ed47	0.0033253
107	0x3de23b92	0.110465184
108	0x3e34b728	0.17647994
109	0x3d94a40c	0.07257852
110	0xbc72c702	-0.014817955
111	0x3e24f2b4	0.16108209
112	0x3e6bf032	0.23040846
113	0x3cd358a5	0.025799105
114	0x3de1b750	0.11021292
115	0x3e24e3d2	0.16102532
116	0x3e2820bc	0.16418737
117	0x3e18471b	0.14870875
118	0x3dd15c0f	0.10222637
119	0x3de3f6b9	0.11131043
120	0x3decdada	0.1156518
121	0x3e030474	0.12794667
122	0xbcbc5ecb	-0.02299442
123	0xbdd53aaa	-0.1041158
124	0xbd38ecb9	-0.04514763
125	0xbd0ba60a	-0.034093894
126	0xbd456e63	-0.048200976
127	0xbd9d914a	-0.07693727
128	0xbe091bcc	-0.1338951
129	0xbdd25cb6	-0.102715895
130	0xbd84a33d	-0.06476448
131	0xbbc85a8b	-0.006114309
132	0x3c487841	0.012235702
133	0x3cc8d939	0.024517642
134	0x3cf4ba1a	0.029873896
135	0x3bc0544e	0.005869425
136	0x3d88dd75	0.066828646
137	0x3da2f5ef	0.07957064
138	0x3d9fd740	0.078047276
139	0x3d8ef1af	0.06979691
140	0x3e1f8f7f	0.15582083
141	0xbbc4f4d0	-0.0060106292
142	0x3dec3cf2	0.11535062
143	0x3e4bad2e	0.19890282
144	0x3d94ccea	0.07265647
145	0x3ddfa22a	0.10919602
146	0x3daff147	0.08590942
147	0x3e16df2b	0.1473357
148	0x3e73f2bb	0.23823063
149	0x3d9a12e9	0.07523138
150	0xbd194f9f	-0.03742945
151	0xbd4c047d	-0.049808968
152	0xbd0a0b02	-0.033701904
153	0xbd30b4db	-0.043141227
154	0x3b68925e	0.0035487632
155	0xbdc3d159	-0.09561414
156	0xbde71bfd	-0.11284635
157	0xbd61d744	-0.055136934
158	0x3dcb5fca	0.0993038
159	0x3d94c01b	0.07263204
160	0xbc809934	-0.015698053
161	0xbd96ff77	-0.07372945
162	0xbd7e5432	-0.062092014
163	0x3c912082	0.017715696
164	0x3d8b6947	0.068071894
165	0xbd0c786c	-0.03429453
166	0x3c9365ce	0.01799288
167	0x3db458a2	0.08805968
168	0x3d93d19f	0.072177164
169	0x3d8ced85	0.06881241
170	0x3e8dbeea	0.27684718
171	0x3e4a8677	0.19777857
172	0x3d857fc9	0.06518514
173	0x3da2e11e	0.07953094
174	0x3dc1e7ca	0.094680384
175	0x3e5e6a4c	0.21720237
176	0x3e4c370b	0.19942872
177	0x3e46e794	0.19424278
178	0x3d1226fb	0.035681706
179	0xbc5acdb5	-0.013354708
180	0x3c391d93	0.011298555
181	0xbd0ef471	-0.034901086
182	0xbd452aba	-0.04813645
183	0xbce5b5a7	-0.02804072
184	0xbd0fd600	-0.035116196
185	0x3d32d1bb	0.043657046
186	0x3d46ad22	0.048504956
187	0x3d7ec55b	0.06219993
188	0x3dcb2169	0.09918482
189	0xbddfcb4e	-0.10927449
190	0xbdc9758a	-0.09836872
191	0xbd218139	-0.039429877
192	0xbade73c0	-0.0016971752
193	0x3d1785f3	0.03699298
194	0x3d9da603	0.0769768
195	0x3d4b4f2d	0.049636055
196	0x3e0b7645	0.13619335
197	0x3dd6d3c5	0.104896106
198	0x3e217ed1	0.15771033
199	0x3e6f0255	0.23340733
200	0x3d155a6c	0.036463186
201	0x3d48c015	0.04901131
202	0x3dbfd438	0.093666494
203	0x3e6f63a9	0.23377861
204	0x3dce6a9c	0.10078928
205	0x3e0565b1	0.13027073
206	0xbb9dfb7f	-0.0048212404
207	0x3c1bb98e	0.009504689
208	0xbc85e4ad	-0.016344393
209	0xbd00e56b	-0.03146879
210	0x3d4c1071	0.049820367
211	0xbc35ed08	-0.011103876
212	0x3d6aed22	0.057355054
213	0x3d2dad3a	0.04240153
214	0x3c3939fd	0.011305329
215	0x3d6ad2e3	0.057330023
216	0x3dc1d027	0.0946353
217	0xbd3181f7	-0.043336835
218	0xbd78b7ca	-0.06072215
219	0xbd550e6d	-0.05201571
220	0x3c663145	0.014049833
221	0x3c1d5cb4	0.009604622
222	0x3cda7238	0.026665792
223	0x3dd21315	0.10257546
224	0x3e2c439a	0.16822663
225	0x3e208f4c	0.15679663
226	0x3e1eb0b9	0.15497102
227	0x3d84bbc6	0.064811274
228	0x3d2badb3	0.0419137
229	0x3e0896d7	0.13338791
230	0x3e1002a3	0.14063506
231	0x3e6185f9	0.22023763
232	0x3e04a65f	0.1295409
233	0x3d05c28e	0.032656245
234	0x3de266eb	0.11054786
235	0x3d35cd47	0.04438522
236	0x3d477002	0.048690803
237	0xbbe8fdb5	-0.0071103224
238	0x3d75fe1a	0.060056783
239	0x3d88f4f5	0.06687347
240	0x3d858413	0.06519332
241	0x3d891d42	0.066950336
242	0xbc625280	-0.013813615
243	0x3c078bbb	0.00827306
244	0x3decd327	0.115637116
245	0x3d0523e1	0.03250492
246	0xbd10f74b	-0.035392087
247	0xbbcff65c	-0.006346507
248	0x3d26b4e4	0.040699854
249	0x3d4e48a3	0.05036224
250	0x3dde5c75	0.108574785
251	0x3e220abf	0.15824412
252	0x3e341ae1	0.17588378
253	0x3e4a9718	0.197842
254	0x3e081571	0.13289429
255	0x3d85ddc8	0.06536442

normalize.running_mean f4 [784]
0	0xbf7ffff4	-0.9999993
1	0xbf7fff15	-0.999986
2	0xbf7ff65e	-0.999853
3	0xbf7fe59d	-0.9995974
4	0xbf7f821d	-0.9980791
5	0xbf7ef36d	-0.9959019
6	0xbf7e6c52	-0.99384034
7	0xbf7ba7cc	-0.9830291
8	0xbf74a8d5	-0.9557012
9	0xbf6675ee	-0.90023696
10	0xbf4197a3	-0.75622004
11	0xbf254405	-0.64556915
12	0xbf153496	-0.58283365
13	0xbf17dda2	-0.5932256
14	0xbf192efb	-0.5983731
15	0xbf1375df	-0.5760173
16	0xbf17b1b6	-0.5925554
17	0xbf3100e8	-0.6914201
18	0xbf4e97b5	-0.80700237
19	0xbf6c1dc4	-0.9223292
20	0xbf77abde	-0.96746624
21	0xbf7c827a	-0.9863659
22	0xbf7d6b15	-0.9899152
23	0xbf7e1af8	-0.992599
24	0xbf7f3ae0	-0.9969921
25	0xbf7fe006	-0.9995121
26	0xbf7fdbae	-0.9994458
27	0xbf7fd7d4	-0.999387
28	0xbf7fffaf	-0.9999952
29	0xbf7ffe39	-0.9999729
30	0xbf7fe131	-0.9995299
31	0xbf7f7640	-0.9978981
32	0xbf7e8487	-0.9942097
33	0xbf7b4b5a	-0.9816185
34	0xbf712e98	-0.9421172
35	0xbf5fcb74	-0.8741982
36	0xbf422dac	-0.7585094
37	0xbf1874b3	-0.5955307
38	0xbece2782	-0.40264517
39	0xbe6dbd0a	-0.23216644
40	0xbe05e630	-0.13076091
41	0xbe119e41	-0.14220525
42	0xbe25120a	-0.16120163
43	0xbdffecf2	-0.124963656
44	0xbe27b723	-0.16378455
45	0xbea2354e	-0.31681293
46	0xbeeb1b2f	-0.45919177
47	0xbf2a9d00	-0.66645813
48	0xbf4e29c8	-0.80532503
49	0xbf66d810	-0.90173435
50	0xbf73ecb3	-0.9528305
51	0xbf797b6f	-0.9745397
52	0xbf7c48ae	-0.985484
53	0xbf7efed6	-0.996076
54	0xbf7f4845	-0.9971965
55	0xbf7fc72d	-0.99913293
56	0xbf7fff42	-0.9999887
57	0xbf7fc2f8	-0.99906874
58	0xbf7fc3a4	-0.999079
59	0xbf7f3630	-0.9969206
60	0xbf7c0b9b	-0.9845521
61	0xbf6cbf4a	-0.92479384
62	0xbf52b7b2	-0.82311547
63	0xbf3963af	-0.7241773
64	0xbf1cd9b5	-0.61269695
65	0xbee99806	-0.45623797
66	0xbe90d28a	-0.2828563
67	0xbe5b444c	-0.21412772
68	0xbe37dc69	-0.17955174
69	0xbe3e2cbd	-0.18571754
70	0xbe3148a3	-0.17312865
71	0xbe2fd9eb	-0.17172973
72	0xbe3e2616	-0.18569216
73	0xbe684535	-0.2268265
74	0xbe9f2f4e	-0.31090778
75	0xbeff7504	-0.49893963
76	0xbf253c48	-0.64545107
77	0xbf3e252b	-0.74275464
78	0xbf5b521d	-0.8567217
79	0xbf6f8868	-0.93567514
80	0xbf780fb3	-0.96898955
81	0xbf7c5125	-0.98561317
82	0xbf7e0623	-0.99228114
83	0xbf7f833a	-0.9980961
84	0xbf7fe01e	-0.9995135
85	0xbf7f461c	-0.99716353
86	0xbf7f142b	-0.9964015
87	0xbf7e05bb	-0.99227494
88	0xbf7415af	-0.95345587
89	0xbf573e97	-0.8407988
90	0xbf36e938	-0.71449614
91	0xbf1901a9	-0.5976816
92	0xbef8a376	-0.4856221
93	0xbeb7ef69	-0.35924843
94	0xbe7147a2	-0.23562482
95	0xbe571890	-0.21005464
96	0xbe3f5c92	-0.18687657
97	0xbe40f47f	-0.18843268
98	0xbe2eb396	-0.17060694
99	0xbe2a72da	-0.16645375
100	0xbe2cd55c	-0.16878265
101	0xbe44b5d5	-0.19209988
102	0xbe5ede35	-0.21764453
103	0xbeb37125	-0.3504726
104	0xbef50966	-0.47858733
105	0xbf1b8983	-0.607567
106	0xbf3c3aed	-0.73527414
107	0xbf59205f	-0.8481502
108	0xbf6fad38	-0.93623686
109	0xbf766c8c	-0.9625938
110	0xbf79dd44	-0.9760325
111	0xbf7e3773	-0.9930336
112	0xbf7f6e15	-0.99777347
113	0xbf7e583d	-0.9935339
114	0xbf7dacf1	-0.9909201
115	0xbf7ad935	-0.9798768
116	0xbf67ca52	-0.9054309
117	0xbf436a32	-0.76333916
118	0xbf1e6cfc	-0.61885047
119	0xbf062cf5	-0.5241235
120	0xbee00fe9	-0.43762138
121	0xbea68e20	-0.32530308
122	0xbe6640a0	-0.2248559
123	0xbe5623b1	-0.20912053
124	0xbe55aaa9	-0.20865883
125	0xbe4c5d6e	-0.19957516
126	0xbe347dbc	-0.17626089
127	0xbe2c83aa	-0.16847101
128	0xbe1fed04	-0.15617758
129	0xbe252686	-0.16127977
130	0xbe46da1c	-0.1941914
131	0xbe91308b	-0.28357348
132	0xbec84d82	-0.39121634
133	0xbef4bb28	-0.4779904
134	0xbf1eaebc	-0.61985373
135	0xbf4514ce	-0.7698487
136	0xbf621b94	-0.8832333
137	0xbf6eb361	-0.9324246
138	0xbf769fab	-0.96337384
139	0xbf7e5d2c	-0.9936092
140	0xbf7ef82e	-0.9959744
141	0xbf7cd2e3	-0.9875929
142	0xbf7ba5b6	-0.9829973
143	0xbf76493c	-0.96205497
144	0xbf5b4159	-0.8564659
145	0xbf309203	-0.68972796
146	0xbf0db955	-0.5536092
147	0xbef70b05	-0.48250595
148	0xbecc53f5	-0.39907804
149	0xbe93f117	-0.28894874
150	0xbe594998	-0.2121948
151	0xbe555c7c	-0.20836061
152	0xbe585825	-0.21127374
153	0xbe49f09b	-0.1972069
154	0xbe24c0fb	-0.16089241
155	0xbe0c95b9	-0.1372899
156	0xbdf7e2fa	-0.12103839
157	0xbdd42d5d	-0.10360215
158	0xbe06a494	-0.13148719
159	0xbe5c6563	-0.21523051
160	0xbea686f4	-0.32524836
161	0xbecbfe2a	-0.3984235
162	0xbf06a733	-0.52598876
163	0xbf32083b	-0.6954381
164	0xbf529bc1	-0.8226891
165	0xbf651d25	-0.89497596
166	0xbf6faf6b	-0.9362704
167	0xbf7d307e	-0.9890212
168	0xbf7e9959	-0.9945274
169	0xbf7c21e4	-0.98489213
170	0xbf7a3fa9	-0.9775339
171	0xbf708715	-0.9395612
172	0xbf4e6438	-0.8062167
173	0xbf21809d	-0.63086873
174	0xbf00a36f	-0.5024938
175	0xbedf6b90	-0.4363675
176	0xbebbb5ad	-0.36662045
177	0xbe87e57a	-0.26542264
178	0xbe5e4f34	-0.21709901
179	0xbe496a1c	-0.19669384
180	0xbe3d0c1c	-0.1846165
181	0xbe2f4496	-0.17116007
182	0xbdff5c17	-0.124687366
183	0xbd9d9bed	-0.07695756
184	0xbd7465ad	-0.059667278
185	0xbd359345	-0.0443299
186	0xbdaa0ac7	-0.08302837
187	0xbe1e128a	-0.1543676
188	0xbe866c71	-0.2625461
189	0xbeac3531	-0.33634332
190	0xbee3766c	-0.44426286
191	0xbf1e39d1	-0.6180697
192	0xbf422365	-0.7583526
193	0xbf57f456	-0.843572
194	0xbf6b5342	-0.91923916
195	0xbf7c330e	-0.98515403
196	0xbf7df96e	-0.99208724
197	0xbf7b48f2	-0.9815818
198	0xbf76ef08	-0.9645848
199	0xbf676b75	-0.9039834
200	0xbf4596e3	-0.7718336
201	0xbf1823f6	-0.5942987
202	0xbef2305f	-0.4730253
203	0xbecb222e	-0.39674515
204	0xbeac530a	-0.33657104
205	0xbe81d876	-0.2536046
206	0xbe5f5753	-0.21810655
207	0xbe31bfef	-0.17358373
208	0xbe26f8ff	-0.16305922
209	0xbe17f2ae	-0.14838669
210	0xbdbf2408	-0.09333044
211	0xbd0e775d	-0.034781802
212	0xbc631b15	-0.013861437
213	0xbbe49212	-0.0069754208
214	0xbd385570	-0.045003355
215	0xbdf192fc	-0.11795613
216	0xbe51bfce	-0.20483324
217	0xbe8b0856	-0.27154797
218	0xbec1f5e1	-0.37882903
219	0xbf0ef93f	-0.5584907
220	0xbf321aad	-0.69571954
221	0xbf4965d6	-0.78671014
222	0xbf663b65	-0.8993438
223	0xbf7b9d2d	-0.98286706
224	0xbf7d89ce	-0.990384
225	0xbf783b08	-0.96965075
226	0xbf739617	-0.95150894
227	0xbf62381b	-0.8836686
228	0xbf3e9e7d	-0.74460584
229	0xbf0e26be	-0.55527866
230	0xbee5facc	-0.44917905
231	0xbebd7ced	-0.37009373
232	0xbe97ea35	-0.29670873
233	0xbe74199e	-0.23837897
234	0xbe447a56	-0.19187292
235	0xbe1d1c0a	-0.15342727
236	0xbe0ab1b6	-0.13544354
237	0xbde228fe	-0.11042975
238	0xbd91470a	-0.07093628
239	0x3d185489	0.037189994
240	0x3d4ea091	0.050446097
241	0x3d516b1a	0.05112753
242	0xbb6776f2	-0.00353187
243	0xbd8f7c5a	-0.0700614
244	0xbe0be68b	-0.13662164
245	0xbe4e571c	-0.20150417
246	0xbe9e4c64	-0.30917656
247	0xbef47c4a	-0.47751075
248	0xbf215178	-0.63014936
249	0xbf3e39c2	-0.7430688
250	0xbf5fb35e	-0.8738307
251	0xbf796656	-0.9742178
252	0xbf7cd003	-0.987549
253	0xbf76e65e	-0.9644526
254	0xbf716afe	-0.9430388
255	0xbf5ea9a0	-0.8697758

normalize.running_var f4 [784]
0	0x31d07276	6.0666094e-09
1	0x33ee2919	1.1090214e-07
2	0x35f7591c	1.8428868e-06
3	0x3896a46b	7.1831826e-05
4	0x3a47a351	0.00076155836
5	0x3b3d2b57	0.0028864944
6	0x3b9006b1	0.004395329
7	0x3c3f09e6	0.011660075
8	0x3d0f459d	0.034978498
9	0x3d9ef661	0.07761837
10	0x3e47cda4	0.1951204
11	0x3e8c1644	0.27360737
12	0x3e9c6375	0.3054463
13	0x3e9b0346	0.30275935
14	0x3e9909e8	0.2989037
15	0x3e9d9af1	0.30782273
16	0x3e9900ff	0.29883572
17	0x3e73c917	0.23807178
18	0x3e179a17	0.14804874
19	0x3d84a30b	0.064764105
20	0x3ccfdf29	0.025374966
21	0x3c1e928d	0.009678495
22	0x3c08e648	0.008355685
23	0x3bd0ff7e	0.0063781133
24	0x3b0e27ad	0.002169113
25	0x396faa72	0.00022856312
26	0x39078d4e	0.00012927243
27	0x39c38d86	0.00037298742
28	0x33f15d53	1.12394126e-07
29	0x34a0812f	2.9896316e-07
30	0x39832b6e	0.00025018625
31	0x3ae260fb	0.0017271334
32	0x3bc51735	0.0060147294
33	0x3caca1db	0.021073272
34	0x3d715081	0.058914665
35	0x3e050770	0.12991118
36	0x3e7c7d5e	0.24657199
37	0x3ecf44e9	0.40482262
38	0x3f09aea8	0.5378213
39	0x3f1d0916	0.6134199
40	0x3f2a6a43	0.6656839
41	0x3f29141c	0.6604631
42	0x3f28c135	0.6591981
43	0x3f29fd19	0.6640182
44	0x3f1ee91d	0.6207445
45	0x3f0eefdd	0.5583475
46	0x3efe88d5	0.4971377
47	0x3ea7796b	0.32709822
48	0x3e51cd9e	0.20488593
49	0x3dd8e36c	0.10590252
50	0x3d6ecb6b	0.058299463
51	0x3d042d3c	0.0322697
52	0x3c86c061	0.016449155
53	0x3b8863f7	0.0041623074
54	0x3b3cac1a	0.0028789104
55	0x3a553e0f	0.00081345526
56	0x345a4a98	2.0329969e-07
57	0x3a1b27e1	0.0005918723
58	0x39a49b1f	0.00031396092
59	0x3b26f736	0.002547694
60	0x3c726bb4	0.014796186
61	0x3daa6b7e	0.08321284
62	0x3e41f7ec	0.18942231
63	0x3e931db6	0.28733605
64	0x3ebcabec	0.36849916
65	0x3ee661f9	0.44996622
66	0x3f0a99c5	0.54140884
67	0x3f0a835d	0.54106694
68	0x3f0fafcd	0.56127626
69	0x3f13840c	0.5762336
70	0x3f1413aa	0.57842505
71	0x3f0e4c1c	0.55584884
72	0x3f0822d4	0.53178144
73	0x3f056acf	0.521161
74	0x3f008ac7	0.5021176
75	0x3ed4c686	0.4155771
76	0x3eb4e816	0.35333318
77	0x3e880a65	0.2657043
78	0x3e1de3d8	0.15418947
79	0x3d90dc30	0.070732474
80	0x3d15cac7	0.036570337
81	0x3c84bdd4	0.016203798
82	0x3be3257e	0.0069319597
83	0x3a8aef2f	0.0010599847
84	0x39261eff	0.0001584254
85	0x3ba01df5	0.0048863837
86	0x3b783b9e	0.0037877331
87	0x3bfd78d6	0.007735352
88	0x3d475ffb	0.04867552
89	0x3e3064dd	0.17225976
90	0x3e99cd5f	0.30039498
91	0x3ebf6408	0.37381005
92	0x3ee1fbe8	0.44137502
93	0x3ef65ecc	0.481192
94	0x3f0a4b71	0.54021364
95	0x3f05d5e1	0.5227948
96	0x3f0a1a1a	0.5394608
97	0x3f0d8f13	0.5529644
98	0x3f0fabbd	0.56121427
99	0x3f0a71e8	0.5408006
100	0x3f045708	0.516953
101	0x3f021b57	0.5082297
102	0x3f06258a	0.5240103
103	0x3ef47b43	0.4775029
104	0x3ee56b80	0.44808578
105	0x3ec2b1be	0.38026232
106	0x3e8cccc0	0.27499962
107	0x3e3314ec	0.1748845
108	0x3d9b0277	0.075688295
109	0x3d481aa8	0.048853546
110	0x3d06e427	0.032932427
111	0x3bba6edc	0.005689485
112	0x3aadfe48	0.0013274634
113	0x3c0dff3d	0.008666811
114	0x3c15ddee	0.00914715
115	0x3c906d6b	0.0176303
116	0x3dd0dd7f	0.10198497
117	0x3e850dd4	0.25987113
118	0x3ebd3f2e	0.36962265
119	0x3edd54ee	0.4322886
120	0x3eef86b2	0.46782452
121	0x3eff3217	0.49842903
122	0x3f06d21e	0.52664363
123	0x3f05ca7a	0.5226208
124	0x3f07030c	0.52739024
125	0x3f07e70a	0.5308691
126	0x3f0807c0	0.53136826
127	0x3f0595d2	0.5218173
128	0x3f00c379	0.5029827
129	0x3efd3c18	0.4945991
130	0x3f00edab	0.5036265
131	0x3ef4ac69	0.4778779
132	0x3ef8381d	0.4848031
133	0x3ee844ed	0.45365086
134	0x3ebced8e	0.3689999
135	0x3e825844	0.25457966
136	0x3e065cfe	0.13121411
137	0x3dabfa46	0.08397345
138	0x3d2b8951	0.041879002
139	0x3b9ed6f1	0.0048474004
140	0x3b4d74eb	0.0031350206
141	0x3c9d1426	0.019174647
142	0x3ca7fe8a	0.020507116
143	0x3d2df5fa	0.04247091
144	0x3e2253d4	0.1585229
145	0x3ea1d5c6	0.3160841
146	0x3ed5e077	0.41772816
147	0x3ee4770d	0.4462208
148	0x3ef44d9c	0.4771546
149	0x3efc7cc2	0.49313933
150	0x3f02b932	0.51063836
151	0x3eff3077	0.49841663
152	0x3f02cb6c	0.5109165
153	0x3f01cadf	0.5070018
154	0x3f01ec55	0.5075124
155	0x3f009581	0.50228125
156	0x3ef4277d	0.47686377
157	0x3ef0b3d9	0.47012213
158	0x3ef69a83	0.48164758
159	0x3ef292fd	0.47377768
160	0x3efba214	0.49147093
161	0x3ef73047	0.4827902
162	0x3edcb90c	0.4310993
163	0x3ea32ea3	0.31871518
164	0x3e4fc2ac	0.20289105
165	0x3e022dda	0.12712803
166	0x3d98f769	0.07469065
167	0x3bfa6fda	0.0076427283
168	0x3b80b56a	0.0039278762
169	0x3cadd41d	0.021219308
170	0x3ce46962	0.027882282
171	0x3d85204c	0.06500301
172	0x3e5e2ea5	0.21697481
173	0x3ebdbc62	0.37057787
174	0x3ee7c387	0.45266363
175	0x3ef4ee47	0.4783804
176	0x3efc736f	0.4930682
177	0x3efc65d6	0.49296445
178	0x3efc6276	0.4929387
179	0x3efa428d	0.488789
180	0x3eff04d0	0.4980836
181	0x3efef3d2	0.49795395
182	0x3ef9a29e	0.4875688
183	0x3ef6b6f4	0.48186457
184	0x3eea55a0	0.45768452
185	0x3ee4a108	0.44654107
186	0x3eedc93e	0.46442598
187	0x3ef5b60a	0.47990447
188	0x3f029607	0.51010174
189	0x3f034696	0.5127958
190	0x3ef2eb34	0.4744507
191	0x3ebf92be	0.37416643
192	0x3e89b957	0.26899216
193	0x3e35bc5d	0.17747636
194	0x3dc10be0	0.09426093
195	0x3c258382	0.010102155
196	0x3bcca4f5	0.0062452503
197	0x3cb3fb6e	0.021970477
198	0x3d23ec47	0.040020254
199	0x3dd8f134	0.10592881
200	0x3e819b8f	0.25313994
201	0x3ecc82fa	0.39943677
202	0x3ef2ce75	0.4742314
203	0x3f00c761	0.5030423
204	0x3efe05e3	0.49613866
205	0x3efefbeb	0.49801573
206	0x3ef70f1d	0.48253718
207	0x3ef9be4b	0.48777995
208	0x3efec4e5	0.49759594
209	0x3efa17b0	0.48846197
210	0x3ef283be	0.47366136
211	0x3ef0b241	0.47010997
212	0x3edfe610	0.4373021
213	0x3ed63f58	0.41845202
214	0x3ee04280	0.43800735
215	0x3ef2c4fe	0.47415918
216	0x3f0300bd	0.51173
217	0x3f067479	0.52521473
218	0x3efd6458	0.4949062
219	0x3ecef5fe	0.40422052
220	0x3ea79bdd	0.32736102
221	0x3e7e18da	0.24814168
222	0x3de6ac0b	0.11263283
223	0x3c57c50f	0.013169541
224	0x3c1bfe8e	0.00952114
225	0x3d1ddc25	0.038540024
226	0x3d66a73a	0.056311823
227	0x3e0c1443	0.13679604
228	0x3e907008	0.28210473
229	0x3edcfd72	0.43162113
230	0x3efcd0eb	0.49378142
231	0x3f079942	0.5296823
232	0x3f078740	0.5294075
233	0x3eff06fe	0.49810022
234	0x3ef89f78	0.48559165
235	0x3efd115e	0.49427313
236	0x3efe33fb	0.49649033
237	0x3ef5d844	0.4801656
238	0x3ee60f76	0.4493367
239	0x3ee34dca	0.44395286
240	0x3ed0c32c	0.40773904
241	0x3ec8a57c	0.39188755
242	0x3ed69571	0.4191089
243	0x3eef7143	0.467661
244	0x3f0706ba	0.5274464
245	0x3f090106	0.53517187
246	0x3f03d20a	0.5149237
247	0x3eeb4f16	0.45958775
248	0x3ebd5053	0.36975345
249	0x3e90ff7c	0.2831992
250	0x3e0d3650	0.1379025
251	0x3cac5d36	0.02104054
252	0x3c2a4ba3	0.01039401
253	0x3d3c6a35	0.045999724
254	0x3d87b900	0.06627083
255	0x3e18edf6	0.14934525

fc1.weight f4 [128, 784]
0	0x3e382b9d	0.17985387
1	0x3dc39e3e	0.09551667
2	0xbd4128ed	-0.04715817
3	0x3d5942b9	0.053042147
4	0xbdd21b62	-0.10259129
5	0x3dc8cf8d	0.09805212
6	0x3da9da8a	0.08293636
7	0xbe9430de	-0.28943533
8	0xbd7d98dc	-0.061913356
9	0xbe5e7c6b	-0.21727149
10	0xbe8821ea	-0.26588374
11	0xbea94faa	-0.3306859
12	0xbddd0999	-0.10792846
13	0xbc6aea2c	-0.0143380575
14	0x3e513c82	0.20433238
15	0x3e4b2dd9	0.19841708
16	0xbebb0ab9	-0.36531618
17	0xbebb17f1	-0.36541703
18	0xbe31727c	-0.17328829
19	0xbe958ad5	-0.29207483
20	0xbe338757	-0.17532097
21	0xbe052ea3	-0.13006072
22	0xbd58a6ea	-0.052893557
23	0x3df38d43	0.11892178
24	0x3e586d07	0.2113534
25	0x3ca681ba	0.02032553
26	0x3c846a32	0.01616392
27	0xbe078342	-0.13233665
28	0xbe4cb6ff	-0.19991682
29	0x3cf316ab	0.029673895
30	0x3e5ca77f	0.2154827
31	0x3df8be2f	0.1214565
32	0x3e8cbde3	0.27488622
33	0x3d5090e2	0.05091942
34	0x3d54d73f	0.051963087
35	0xbde33328	-0.11093742
36	0xbe08f0d6	-0.13373122
37	0xbedb9f18	-0.42894816
38	0xbf164eab	-0.5871379
39	0xbebf5553	-0.37369785
40	0xbd9ad0b0	-0.07559335
41	0xbe0080c5	-0.12549122
42	0xbdd5df4a	-0.1044298
43	0x3c4cbdab	0.012496392
44	0xbea4e1a3	-0.32203397
45	0xbf357f6b	-0.7089755
46	0xbf38a623	-0.72128505
47	0xbee17bc1	-0.4403973
48	0xbe58844e	-0.2114422
49	0x3d496fe7	0.049178984
50	0xbccda08f	-0.025100974
51	0x3ce4c712	0.027926955
52	0x3e47c916	0.19510302
53	0x3e57e6c7	0.21084128
54	0x3c4ea169	0.012611725
55	0xbdd915ae	-0.10599838
56	0xbdf06c3e	-0.117393956
57	0x3d1ee5a9	0.03879324
58	0xbd14fb85	-0.03637268
59	0x3e9f96f4	0.31169856
60	0x3bca5b5e	0.0061754426
61	0x3e2bf38c	0.16792125
62	0xbdd05aa8	-0.10173541
63	0xbe14cda0	-0.14531565
64	0xbe26c4b5	-0.16285975
65	0xbe57a817	-0.21060215
66	0x3e42b1b9	0.19013108
67	0xbbaaad6c	-0.005208662
68	0xbd89c5b0	-0.06727159
69	0xbd58b6be	-0.05290865
70	0xbdd30086	-0.10302834
71	0xbe138623	-0.14406638
72	0xbda2cf33	-0.07949676
73	0xbd9d4390	-0.07678902
74	0xbd4d1c27	-0.050075676
75	0xbcc6b3b9	-0.02425562
76	0xbeb5e654	-0.3552729
77	0xbe081e81	-0.13292886
78	0x3e02ea49	0.12784685
79	0x3e118956	0.14212546
80	0x3e13dbe9	0.14439358
81	0x3e130c0e	0.14360067
82	0x3e3e0c7c	0.1855945
83	0xbe1ef747	-0.15524016
84	0x3d907b6b	0.0705479
85	0xbe0995ac	-0.13436002
86	0x3dc0942c	0.094032615
87	0x3e21f393	0.15815572
88	0xbdfc1b3f	-0.12309884
89	0xbdb6b0c6	-0.089204356
90	0x3e170119	0.14746512
91	0x3e866bb1	0.26254037
92	0x3e4a3032	0.19744948
93	0xbd86be01	-0.06579209
94	0xbdb3df66	-0.08782844
95	0xbe5f7eac	-0.21825665
96	0x3a846184	0.0010099863
97	0xbd071585	-0.032979507
98	0xbdecf2f6	-0.115697786
99	0x3bd79b7d	0.006579815
100	0x3c1ef8cd	0.009702873
101	0xbe28db17	-0.16489826
102	0xbc5b60fa	-0.01338982
103	0x3e488d6a	0.19585195
104	0x3e7acaf9	0.2449149
105	0x3da1eea3	0.079068445
106	0x3dcb8602	0.09937669
107	0x3e6794ea	0.226154
108	0x3e0749bb	0.1321172
109	0x3e7f8139	0.24951638
110	0xbc205d78	-0.00978791
111	0xbd8147e3	-0.063125394
112	0xbd97d5df	-0.074138395
113	0xbc36a513	-0.011147755
114	0x3e0930ae	0.13397476
115	0x3e243846	0.16037092
116	0x3d39b21b	0.04533587
117	0x3e01e4f3	0.12684993
118	0x3ec10991	0.3770261
119	0x3e140b75	0.14457496
120	0x3d09a9c3	0.033609163
121	0xbe55951a	-0.20857659
122	0xbdfe226c	-0.12408909
123	0xbe3745b8	-0.1789769
124	0xbe2f7540	-0.17134571
125	0xbdc72897	-0.09724539
126	0xbdb2c44e	-0.087288484
127	0x3d402c40	0.0469172
128	0x3ca01b82	0.019544367
129	0xbdc759b3	-0.09733906
130	0xbbb88268	-0.00563078
131	0x3c501d7d	0.012702343
132	0x3d87ed18	0.06637019
133	0x3dcdf850	0.100571275
134	0x3dda357e	0.10654734
135	0x3df69865	0.12040786
136	0x3e16117a	0.14655104
137	0x3e0837b8	0.13302505
138	0x3e2746c3	0.16335587
139	0xbd836ae8	-0.06416875
140	0xbd934790	-0.07191384
141	0x3e783920	0.24240541
142	0x3e0384b4	0.12843591
143	0x3daa03a2	0.08301474
144	0xbe6c8688	-0.23098195
145	0x3dc851d7	0.09781235
146	0x3df6de59	0.12054128
147	0xbcb23b32	-0.021756742
148	0xbc36d082	-0.011158111
149	0xbe556689	-0.20839895
150	0xbda6bbde	-0.081413016
151	0xbe42898f	-0.18997787
152	0xbd87d742	-0.06632854
153	0xbdac05f8	-0.08399576
154	0xbe7cd045	-0.24688824
155	0xbb7fe6ee	-0.0039047557
156	0xbe0c3bef	-0.13694738
157	0xbe626df8	-0.22112262
158	0xbe2f54de	-0.17122218
159	0xbce5327d	-0.027978176
160	0x3da2a0ca	0.07940824
161	0x3c7d9801	0.015478135
162	0x3e33011e	0.17480895
163	0x3d2dfe20	0.04247868
164	0x3db4fb35	0.088369764
165	0x3e8101ef	0.25196788
166	0x3e729818	0.23690832
167	0x3cd2546d	0.025675023
168	0x3dfa7cdc	0.12230846
169	0x3e2953ff	0.16535948
170	0x3cbcf484	0.023065813
171	0x3d2818d1	0.04103929
172	0xbd889dd6	-0.0667073
173	0xbc829678	-0.01594089
174	0xbda983eb	-0.082771145
175	0xbd49d694	-0.049276903
176	0xbc7a633f	-0.015282451
177	0xbe4903d5	-0.19630368
178	0xbe063db7	-0.1310948
179	0xbd80784a	-0.06272943
180	0x3d928693	0.07154574
181	0xbdb830b2	-0.08993663
182	0xbe06f772	-0.1318033
183	0x3ccc7a1d	0.024960572
184	0xbe3c265d	-0.1837401
185	0xbdc94a80	-0.09828663
186	0xbe9a1662	-0.30095202
187	0xbdf76f9d	-0.120818354
188	0x3beca7bf	0.0072221453
189	0x3e365b67	0.17808305
190	0x3de279a6	0.11058359
191	0x3e0be2a7	0.1366068
192	0xbc2fad2a	-0.010722438
193	0x3e961764	0.2931472
194	0x3e4fe845	0.20303448
195	0xbd285f02	-0.04110623
196	0x3ccac386	0.024751436
197	0xbd85bd77	-0.06530278
198	0xbd3542db	-0.04425321
199	0x3c29b16b	0.010357241
200	0xbc141c93	-0.009040016
201	0xbd1a1f35	-0.037627418
202	0xbb374eed	-0.0027970627
203	0x3e256a6d	0.1615388
204	0xbd647d95	-0.055783827
205	0xbe189a7b	-0.1490268
206	0xbdb46e85	-0.088101424
207	0xbcdfc4cc	-0.02731552
208	0x3d937011	0.07199109
209	0xbcd5b298	-0.026086137
210	0x3cfc183f	0.03077328
211	0xbc0671b4	-0.00820582
212	0xbdf23d48	-0.11828095
213	0xbdab3873	-0.08360376
214	0xbe5cfa9f	-0.2157998
215	0xbe11dfe6	-0.14245567
216	0x3be28399	0.0069126603
217	0x3e618bde	0.22026011
218	0xbdec7d8b	-0.11547383
219	0x3e9656b4	0.29363024
220	0xbdd82606	-0.105541274
221	0x3df94048	0.12170464
222	0x3ea3adb2	0.31968457
223	0x3d16182c	0.036644146
224	0xbd1e4390	-0.03863865
225	0xbc478d5c	-0.012179699
226	0xbdd469de	-0.10371755
227	0x3d198691	0.03748185
228	0x3c2ef33f	0.010678112
229	0x3ccc8b43	0.024968749
230	0x3ccebdcd	0.025236988
231	0x3db702bb	0.08936068
232	0xbbf46464	-0.0074582566
233	0x3db1df71	0.08685196
234	0x3d41d6d0	0.047324
235	0x3d4c1b0e	0.04983049
236	0x3e54f006	0.20794687
237	0xbd3690a7	-0.044571545
238	0xbca589dc	-0.020207338
239	0x3d65e95f	0.056130763
240	0xbc2d53eb	-0.01057909
241	0xbd1e5e6f	-0.038664278
242	0xbd26fd0e	-0.040768676
243	0x3db0349a	0.08603783
244	0x3e3d81f9	0.18506612
245	0x3ea4a237	0.3215501
246	0xbcaa1bca	-0.020765204
247	0x3d887760	0.06663394
248	0x3d6d0d1b	0.057873826
249	0x3e1f96ad	0.15584822
250	0x3e528cc8	0.20561516
251	0x3d3afa33	0.045648765
252	0xba92dfd8	-0.0011205627
253	0x3c1e2312	0.009651916
254	0xbc17d65b	-0.009267415
255	0xbce9b2e0	-0.028527677

fc1.bias f4 [128]
0	0xbde76c2a	-0.112999275
1	0xbdf4b4ae	-0.119485244
2	0xbd60c12a	-0.054871716
3	0xbd4ab2dd	-0.049486984
4	0xbd280d09	-0.041028056
5	0xbe92be52	-0.28660828
6	0xbe9171b9	-0.28407076
7	0xbe93eeff	-0.28893277
8	0xbe188722	-0.14895299
9	0xbe2bd441	-0.16780187
10	0xbdf1372a	-0.117781
11	0xbe851cc7	-0.25998518
12	0xbe804e67	-0.25059816
13	0xbe369b19	-0.17832603
14	0xbe495268	-0.19660342
15	0xbe918185	-0.28419128
16	0xbe051050	-0.12994504
17	0xbe1f8fa1	-0.15582134
18	0xbdd9a81b	-0.10627767
19	0xbe3da332	-0.18519285
20	0xbe21eb4d	-0.15812416
21	0xbdc90bf5	-0.09816734
22	0xbccbb415	-0.024866143
23	0xbcf982e3	-0.03045792
24	0xbd330e51	-0.043714825
25	0xbe82b0f7	-0.25525638
26	0xbe3afaca	-0.18259731
27	0xbe8e77b2	-0.27825695
28	0xbe23b88d	-0.1598837
29	0xbe21a19a	-0.15784302
30	0xbe88beb5	-0.26707998
31	0xbe557fd1	-0.2084954
32	0xbd20b9d0	-0.039239705
33	0xbe8e5c71	-0.27804902
34	0xbe470003	-0.19433598
35	0xbe80386e	-0.25043052
36	0xbe479584	-0.1949063
37	0xbdb601d6	-0.08887069
38	0xbe88312b	-0.26600012
39	0xbe09dbfb	-0.13462822
40	0xbd1b34b5	-0.037892062
41	0xbe5d93b4	-0.21638376
42	0xbe093969	-0.13400806
43	0xbe5b2ce0	-0.21403837
44	0xbd85b449	-0.06528527
45	0xbe93cbfa	-0.2886656
46	0xbdddd711	-0.10832036
47	0xbe16f77e	-0.14742848
48	0xbd679596	-0.05653914
49	0xbe99bf7d	-0.30028906
50	0xbe97300a	-0.29528838
51	0xbeb8fcfd	-0.36130515
52	0xbdab5888	-0.08366495
53	0xbdf44f2f	-0.119291656
54	0xbe771cc5	-0.24132068
55	0xbe37bef4	-0.17943937
56	0xbe8487f3	-0.2588497
57	0xbb92d7da	-0.004481298
58	0xbe7e2eea	-0.24822584
59	0xbe7075e1	-0.23482467
60	0xbe3a8fd3	-0.18218927
61	0xbdedb6d0	-0.11607134
62	0xbe7eac17	-0.24870335
63	0xbe59cb75	-0.21269019
64	0xbe34d290	-0.17658448
65	0xbb0a5a79	-0.0021111055
66	0xbe4e46fe	-0.20144269
67	0xbe1d0072	-0.15332201
68	0xbeb969a2	-0.36213404
69	0xbd8b7d86	-0.06811051
70	0xbda45230	-0.080234885
71	0xbeb25ebc	-0.34837902
72	0xbe5e7345	-0.2172366
73	0xbe9e7763	-0.3095046
74	0xbe66dcb1	-0.22545125
75	0xbdc4f78b	-0.096175276
76	0xbeb8e3f7	-0.36111423
77	0xbda9ecab	-0.08297094
78	0xbe6b945e	-0.23005816
79	0xbe19c4fb	-0.15016548
80	0xbe2310ff	-0.15924452
81	0xbe029320	-0.12751436
82	0xbd3f9fba	-0.046783186
83	0xbe2f2e00	-0.17107391
84	0xbe431d00	-0.19054031
85	0xbdd8117e	-0.10550211
86	0xbe8eac3a	-0.27865773
87	0xbe0e3f35	-0.13891299
88	0xbd57d5ed	-0.05269425
89	0xbe68a2b9	-0.22718324
90	0xbe8f8ea7	-0.28038523
91	0xbe5767a0	-0.21035624
92	0xbea6792b	-0.3251432
93	0xbe88a968	-0.26691747
94	0xbe5c1716	-0.21493182
95	0xbe5d74c3	-0.21626572
96	0xbeb39db8	-0.35081267
97	0xbea0d0e0	-0.3140936
98	0xbe4b2987	-0.1984006
99	0xbe2d6c75	-0.16935904
100	0xbdf9796f	-0.12181365
101	0xbde198e4	-0.1101549
102	0xbe9b8fa4	-0.30383027
103	0xbd2df316	-0.042468153
104	0xbd826a46	-0.06367926
105	0xbe36ffee	-0.17871067
106	0xbd8f77a6	-0.07005243
107	0xbe406767	-0.18789445
108	0xbe836986	-0.25666445
109	0xbe3afabd	-0.18259712
110	0xbe3f5a76	-0.18686852
111	0xbe231213	-0.15924864
112	0xbe896676	-0.26835984
113	0xbe07f9ec	-0.13278931
114	0xbe6c8bd6	-0.23100218
115	0xbe34f334	-0.176709
116	0xbe6c4ca4	-0.23076111
117	0xbe09ca44	-0.13456064
118	0xbd54f83a	-0.05199454
119	0xbde4802f	-0.111572616
120	0xbdba54de	-0.090982184
121	0xbe36062a	-0.17775789
122	0xbd4533b1	-0.048145
123	0xbe48ee20	-0.19622087
124	0xbe1983d0	-0.14991689
125	0xbeb6accc	-0.3567871
126	0xbe401e4a	-0.18761554
127	0xbe84053d	-0.25785246

fc2.weight f4 [64, 128]
0	0xbd89c873	-0.06727686
1	0xbea7ed69	-0.32798317
2	0xbe48f4d3	-0.19624643
3	0xbd099dd0	-0.033597767
4	0x3ea53c5e	0.3227262
5	0x3e3e7d97	0.18602596
6	0xbe7c7e2f	-0.2465751
7	0x3e84af33	0.25914916
8	0xbe6def90	-0.23235917
9	0xbd6e57ac	-0.05818908
10	0x3df7cccf	0.12099611
11	0x3e0e6d44	0.13908869
12	0xbc6f6a9d	-0.014612821
13	0x3dd6bbf4	0.10485068
14	0xbe3ff6ff	-0.18746565
15	0xbe911d7d	-0.2834281
16	0x3dbd22e6	0.09235172
17	0x3dda6bc8	0.10665089
18	0xbcf6805b	-0.030090502
19	0x3db81bf6	0.08989708
20	0x3ea61d2a	0.32444125
21	0xbd771385	-0.06032135
22	0x3bc8c152	0.006126561
23	0xbdc53058	-0.096283615
24	0xbeae0fe8	-0.3399651
25	0xbc3c11b6	-0.011478832
26	0xba4b3f66	-0.00077532826
27	0x3c0d618c	0.008629214
28	0x3d8ee8c5	0.06977991
29	0x3ddb8175	0.10718051
30	0x3c962f76	0.018333178
31	0x3dc8875f	0.09791445
32	0xbe61009b	-0.21972887
33	0x3e32b862	0.17453149
34	0x3c1a0168	0.009399749
35	0xbd04e2f7	-0.032443013
36	0xbe3677cd	-0.17819138
37	0xbe7990a4	-0.24371582
38	0x3d4c1a85	0.04982998
39	0x3e6823e8	0.22669947
40	0x3dc1d534	0.094644934
41	0x3d622781	0.055213455
42	0xbd2aff22	-0.04174722
43	0x3e654cb7	0.22392546
44	0xbd8e5ab8	-0.06950897
45	0x3de2f2f3	0.11081495
46	0x3dfffa93	0.12498965
47	0xbba27f33	-0.004959011
48	0xbe9bb726	-0.3041317
49	0xbe3fcec7	-0.18731223
50	0x3dc28f6c	0.09500012
51	0x3c6fb17f	0.014629721
52	0x3f041fbf	0.5161094
53	0xbd4f5542	-0.050618418
54	0x3e0019ff	0.12509917
55	0x3df1e46d	0.11811147
56	0xbe8250f4	-0.25452387
57	0xbd71d373	-0.059039544
58	0xbc6181aa	-0.0137638245
59	0xbde96a07	-0.11397176
60	0x3c88fde4	0.016722627
61	0x3dc33a43	0.09532597
62	0x3ead1a97	0.3380935
63	0x3cdac19a	0.026703645
64	0xbe04595b	-0.12924711
65	0x3d876a0d	0.066120245
66	0x3e15023b	0.14551632
67	0x3c85e5a9	0.016344862
68	0x3c42dcfe	0.011893509
69	0xbeeb8e14	-0.46006835
70	0xbd1d20c1	-0.038361315
71	0x3e1dcbc8	0.15409768
72	0x3e5bda4c	0.21469992
73	0xbe379137	-0.17926489
74	0xbf0a1428	-0.53937006
75	0x3d90cb78	0.070700586
76	0xbe1e8954	-0.15482074
77	0x3bcd078b	0.0062570027
78	0xbe121e7b	-0.1426944
79	0xbe6a7f22	-0.2290006
80	0xbc7fe904	-0.01561952
81	0xbe7d0a00	-0.24710846
82	0x3e33f2fc	0.1757316
83	0xbecda1d5	-0.4016253
84	0x3e2f0d59	0.17094935
85	0xbdf305af	-0.118663184
86	0xbe32c559	-0.17458095
87	0xbe44dae8	-0.19224131
88	0x3d49b0cb	0.04924087
89	0xbead612c	-0.338632
90	0xbe577f6b	-0.210447
91	0x3dbcdd45	0.09221891
92	0xbe7dfe0c	-0.24803942
93	0xbe227185	-0.15863617
94	0xbda2c899	-0.07948417
95	0x3c54bfcb	0.01298518
96	0xbdd58ddd	-0.10427449
97	0xbe67f580	-0.22652245
98	0xbec4968e	-0.38396114
99	0x3eae8464	0.3408538
100	0xbdaed613	-0.08536925
101	0x3d96c604	0.07361987
102	0xbc9ffa60	-0.019528568
103	0xbe9e942f	-0.3097243
104	0x3cbf2142	0.023331288
105	0x3df26c0f	0.11837017
106	0xbb1aab62	-0.0023600687
107	0x3e019276	0.12653527
108	0x3dc3babd	0.09557102
109	0x3db48240	0.08813906
110	0x3e2aea23	0.16690879
111	0xbe0cbb1c	-0.13743252
112	0x3e00b8a9	0.12570442
113	0x3e47428b	0.19458978
114	0xbe73a4ca	-0.23793331
115	0xbdcc5ac8	-0.09978253
116	0xbd03120d	-0.031999636
117	0xbd71c519	-0.059025858
118	0xbd079b29	-0.033106957
119	0xbe22287b	-0.15835755
120	0x3de7e712	0.1132337
121	0xbf37160f	-0.71518034
122	0xbd733bc9	-0.059383187
123	0xbe7f9d90	-0.24962449
124	0xbda5d8f3	-0.080980204
125	0x3e483fa6	0.1955553
126	0x3e080e51	0.13286711
127	0x3e783c17	0.24241672
128	0x3de38548	0.11109406
129	0xbe049776	-0.12948403
130	0xbed12c5d	-0.4085416
131	0xbe38a055	-0.18029912
132	0x3e81efbc	0.25378215
133	0xbe44a044	-0.19201761
134	0xbe699e5a	-0.22814313
135	0x3e37815f	0.17920445
136	0x3db5369d	0.08848307
137	0xbe993934	-0.29926455
138	0x3dd957ab	0.106124245
139	0xbe765466	-0.24055633
140	0x3d948720	0.072523355
141	0x3d07a437	0.03311559
142	0x3e72344b	0.2365276
143	0x3dd26320	0.10272813
144	0x3e22e0a4	0.15906006
145	0xbe44983b	-0.19198696
146	0x3c5891ff	0.013218402
147	0x3e04a4f8	0.12953556
148	0xbec294f5	-0.3800427
149	0xbda8c5d0	-0.08240855
150	0x3e0b7a5e	0.13620898
151	0xbbc37ae7	-0.005965579
152	0x3d19ae1c	0.03751956
153	0xbea649ac	-0.32478082
154	0xbe209eb1	-0.15685536
155	0xbecc930c	-0.39955938
156	0xbdf87d01	-0.121332176
157	0xbd1ffbe4	-0.03905858
158	0xbe56b861	-0.20968772
159	0xbe5c816f	-0.2153375
160	0xbe38fe88	-0.18065846
161	0xbcdfc3ff	-0.027315138
162	0x3d9a263f	0.07526826
163	0x3de526ba	0.11189027
164	0x3b1d1677	0.002396969
165	0xbc0685f6	-0.00821065
166	0x3d58cf15	0.052931864
167	0x3e1cad35	0.15300448
168	0x3dd7b983	0.105334304
169	0x3da17034	0.07882729
170	0xbdc49117	-0.09597986
171	0x3df5c305	0.12000088
172	0x3a5d6074	0.00084448536
173	0x3e689da4	0.22716385
174	0xbe8000bb	-0.25000557
175	0xbe4598da	-0.1929659
176	0xbf04783f	-0.5174598
177	0xbd96814f	-0.073488824
178	0xbed79c35	-0.42111364
179	0x3da36987	0.07979112
180	0xbe7f5877	-0.2493609
181	0x3d41fc83	0.047359955
182	0x3da0c322	0.07849719
183	0x3d922cdb	0.07137462
184	0x3e269842	0.16269019
185	0xbc017323	-0.007900986
186	0xbcc17a65	-0.023617933
187	0xbdf96482	-0.121773735
188	0xbdbf680e	-0.09346019
189	0x3e4d8864	0.2007156
190	0x3d56db0d	0.052454997
191	0xbcfcac03	-0.03084374
192	0x3bd1145a	0.0063806
193	0xbd97ea01	-0.074176796
194	0x3dbdde6c	0.09270939
195	0x3dc3ec96	0.095666096
196	0x3cfd450c	0.030916713
197	0x3b8cd332	0.0042976374
198	0xbd892e07	-0.06698232
199	0x3dbed56f	0.09318053
200	0xbdaf3c52	-0.08556427
201	0xbca5e33f	-0.020249961
202	0x3e03700e	0.12835714
203	0xbe2454d0	-0.16047978
204	0xbe053473	-0.13008289
205	0xbefece6f	-0.4976687
206	0xbe05f9aa	-0.1308352
207	0xbea52111	-0.3225179
208	0x3e79a4e5	0.24379309
209	0xbeaf28bb	-0.34210762
210	0xba9bb111	-0.0011878331
211	0x3d35bb8c	0.04436831
212	0x3d9683b2	0.07349338
213	0x3d8ba554	0.06818643
214	0x3e4c1c02	0.19932559
215	0xbdccbc80	-0.09996891
216	0x3e258b81	0.16166498
217	0x3d671c8d	0.056423713
218	0x3e723f08	0.23656857
219	0xbd88a6d5	-0.06672446
220	0xbe38c99a	-0.18045655
221	0xbdf62c04	-0.12020114
222	0x3d026d8c	0.031842753
223	0xbdb8af9b	-0.09017869
224	0x3de35a08	0.111011565
225	0x3e3daf20	0.18523836
226	0xbda1d1df	-0.07901358
227	0xbc063c87	-0.008193142
228	0xbdad5b75	-0.0846471
229	0xbe56bd83	-0.2097073
230	0x3d3edd06	0.046597503
231	0x3e80aec5	0.2513334
232	0xbea19e06	-0.31565875
233	0x3c797e37	0.015227846
234	0xbd40a6c8	-0.047034055
235	0x3ddd2d28	0.107996285
236	0x3cfde1ec	0.030991517
237	0x3d4d1af9	0.05007455
238	0x3da8664a	0.08222635
239	0xbdd401aa	-0.1035188
240	0x3c0afab9	0.0084826285
241	0xbe4a4c73	-0.19755726
242	0xbdbd6748	-0.09248215
243	0x3da4d3fb	0.080482446
244	0x3e756a60	0.2396636
245	0x3e37b560	0.17940283
246	0xbf1bb59c	-0.6082399
247	0xbcbed875	-0.023296574
248	0x3bf1e5d6	0.007382135
249	0xbe889211	-0.2667394
250	0xbf0c9ec0	-0.54929733
251	0xbe7b3fef	-0.24536107
252	0xbd44a2a3	-0.048006665
253	0x3e242840	0.16030979
254	0xbe847fc1	-0.25878718
255	0x3d84619a	0.064639285

fc2.bias f4 [64]
0	0xbe4a1054	-0.19732791
1	0x3c3c81fe	0.011505602
2	0x3e9a75ab	0.301679
3	0x3d7c2086	0.061554454
4	0xbe2bd3e0	-0.16780043
5	0x3be62091	0.007022925
6	0xbddfecfd	-0.10933874
7	0xbc6927a0	-0.014230639
8	0x3d6f1416	0.058368765
9	0x3deb1f57	0.11480587
10	0x3ced550f	0.028971223
11	0xbd94b313	-0.07260718
12	0xbdc04c87	-0.093895964
13	0x3d90d1e5	0.07071284
14	0xbe4031d5	-0.1876901
15	0xbd4dbc93	-0.050228667
16	0xbe1b570e	-0.15169927
17	0x3c3c2557	0.011483512
18	0x3db11d15	0.08648125
19	0x3dba51e1	0.090976484
20	0x3b3c5b7a	0.0028741048
21	0xbba3f66e	-0.005003742
22	0x3cc86d44	0.024466164
23	0xbd248d88	-0.040174037
24	0xbdc93d0b	-0.09826096
25	0x3e2d376c	0.16915673
26	0xbe131308	-0.14362729
27	0xbdc80669	-0.09766848
28	0xbd84d906	-0.064867064
29	0x3ddddb79	0.10832877
30	0xbc92d69b	-0.017924597
31	0x3c974d3c	0.018469445
32	0xbb9ff339	-0.0048812893
33	0x3d4efdcb	0.050535005
34	0xbde815b6	-0.11332266
35	0xbd3c55da	-0.045980312
36	0x3e3a084b	0.18167226
37	0xbdf3dffa	-0.119079545
38	0x3e2bee24	0.16790062
39	0x3cf5cafd	0.030004019
40	0x3d858a13	0.06520476
41	0xbe2f04fe	-0.17091748
42	0xbc9755df	-0.018473564
43	0x3e1cbc60	0.15306234
44	0x3e1b8dc8	0.15190804
45	0xbcde541f	-0.027139721
46	0x3e048cca	0.12944332
47	0xbc5ad964	-0.013357494
48	0xbcac84a7	-0.021059347
49	0x3dc63c56	0.09679477
50	0x3d269452	0.040668793
51	0x3dd86f05	0.1056805
52	0xbda89181	-0.08230878
53	0xbe1e6241	-0.15467168
54	0xba8c0d42	-0.0010685103
55	0x3e9aee40	0.30259895
56	0x3bcf6c5e	0.006330057
57	0x3d4ff1ae	0.050767593
58	0xbbac4086	-0.005256715
59	0xbd041df3	-0.032255124
60	0xbd1ad002	-0.037796028
61	0x3d9acbb4	0.075583845
62	0x3d6d9335	0.058001716
63	0x3d902abc	0.07039401
