Best_Models/ANN/best_model_0.pth (torch, 454208 bytes, 10 tensors)

normalize.weight f4 [784]
1.1235662 1.3438481 1.1703914 1.1082196 1.158088 1.0907059 1.2647836 1.1592671
1.074908 1.3646853 1.4941434 1.5457336 1.6227002 1.6333772 1.7671052 1.4334743
1.445684 1.3475397 0.98619664 1.3749533 1.310834 1.1694124 1.1575218 1.0583366
1.0794384 1.122632 1.3119187 1.1803019 1.2294519 1.3976237 1.3234491 1.2882202
0.9570723 0.6468206 1.0731398 1.0226847 1.289266 1.6542528 1.4194298 1.2851835
1.161307 1.342587 1.558985 1.394344 1.4153314 1.6414349 1.653728 1.5197625
1.1686705 0.88845557 0.5669119 0.8593907 0.9613383 0.92570215 0.9861062 1.2234786
1.3194294 1.1898917 1.2004064 0.9260784 0.7704312 1.0511067 1.1387821 1.3173124
1.3799708 0.97728103 0.9765083 0.51941806 1.0087066 1.3734595 1.5277026 1.2780039
0.8153796 1.1469744 0.9525555 0.9825157 1.3596168 1.1550802 1.0723062 0.9509789
0.84242254 0.9676347 1.0168705 1.1715938 1.1518172 0.9683521 1.1199305 1.0745378
0.83262193 0.8402362 1.2956858 1.3725625 1.0601296 0.77828145 0.994423 0.8321632
0.6964107 1.2026694 1.2779795 0.92018116 0.7590583 0.82248235 0.9936153 0.9920248
1.1625367 1.1823574 1.0202607 1.1217275 0.67054355 1.0618068 0.76089835 0.86324495
1.0973248 0.8655543 0.83175665 0.6213088 0.9301844 0.9106506 1.3222283 1.1451293
0.82681584 0.94758356 0.6573879 1.201386 1.2062982 0.84400666 1.412078 0.84522176
1.2229139 0.67493457 0.7928835 0.64929175 0.6774148 1.2887814 1.037488 1.211914
1.1353959 0.98337466 0.82370293 0.96121854 0.86184645 0.9333858 0.8509373 0.7480173
1.2814052 0.999738 1.0672774 1.0642579 0.8564201 0.39496055 0.81661105 0.9084583
1.0071819 0.9300355 1.1179951 0.8265582 1.0919806 0.97346663 0.57151175 0.43759227
0.5663348 0.8852311 1.0151273 1.1581401 1.2842089 1.1568352 0.98232025 0.9636302
0.89314586 0.9198879 0.7935048 0.80755013 1.081897 1.2098213 0.9295878 1.0423547
0.6666332 0.99121207 0.820472 0.9068786 0.8272624 0.9730098 1.3345068 0.3852034
0.7507236 0.90032506 1.1293366 0.8583137 0.94968903 0.749939 1.0542983 1.2397199
1.2663119 1.4441279 1.2147367 1.0003612 1.0466157 0.780751 0.94967026 0.87438345
0.87799627 1.1373442 1.0830892 1.0564303 1.3232514 0.853865 0.8629404 0.8804157
1.0569028 0.9598164 1.2594534 0.8690161 1.0613816 1.0483727 1.1439228 1.5322021
1.2531334 1.0745714 1.1163259 1.3621616 1.1900997 1.235099 1.1578808 1.158054
1.0635315 1.101936 0.9416371 0.782751 0.6509308 0.9974453 0.8560605 1.1533504
1.4780822 0.77628905 0.8781941 0.92961526 0.64074486 0.9732633 1.2301261 0.9875989
0.6706412 1.1340182 1.1367682 1.1343831 1.2711521 1.061379 1.0468504 1.2737037
1.0944768 1.0952798 0.9244977 0.9662929 0.99329376 1.0471352 0.9533237 0.96842366
00000000: 04d1 8f3f 3703 ac3f 63cf 953f 24da 8d3f
00000010: 3a3c 943f 409c 8b3f 6ee4 a13f dd62 943f
00000020: 9696 893f 02ae ae3f 1740 bf3f 99da c53f
00000030: a4b4 cf3f 8112 d13f 8130 e23f 167c b73f
00000040: 2c0c b93f 2e7c ac3f 6277 7c3f 78fe af3f
00000050: 69c9 a73f 4eaf 953f ad29 943f 9377 873f
00000060: 0a2b 8a3f 68b2 8f3f f4ec a73f 2214 973f
00000070: ae5e 9d3f 55e5 b23f c866 a93f 66e4 a43f
00000080: b102 753f 0996 253f a55c 893f 55e7 823f
00000090: ab06 a53f 8ebe d33f e0af b53f e580 a43f
000000a0: b5a5 943f e4d9 ab3f d28c c73f dd79 b23f
000000b0: 9429 b53f 8a1a d23f 5cad d33f 9487 c23f
000000c0: ff96 953f d371 633f 2321 113f 0701 5c3f
000000d0: 441a 763f d1fa 6c3f 7571 7c3f f29a 9c3f
000000e0: 10e3 a83f 5f4e 983f eba6 993f 7913 6d3f
000000f0: fb3a 453f aa8a 863f 9dc3 913f b19d a83f
00000100: e2a2 b03f 172f 7a3f 73fc 793f 95f8 043f
00000110: 4c1d 813f 85cd af3f c28b c33f a295 a33f
00000120: b8bc 503f 0fd0 923f adda 733f 2686 7b3f
00000130: ec07 ae3f abd9 933f 5441 893f 5a73 733f
00000140: 01a9 573f e8b6 773f d028 823f c9f6 953f
00000150: bf6e 933f ece5 773f e259 8f3f 748a 893f
00000160: b626 553f b819 573f 08d9 a53f 21b0 af3f
00000170: 54b2 873f 743d 473f 8192 7e3f a608 553f
00000180: f947 323f 12f1 993f d594 a33f fe90 6b3f
00000190: a551 423f 348e 523f 935d 7e3f 56f5 7d3f
000001a0: 01ce 943f 7d57 973f e797 823f c494 8f3f
000001b0: bea8 2b3f 49e9 873f 3cca 423f 9ffd 5c3f
000001c0: 2475 8c3f f794 5d3f 01ee 543f 180e 1f3f
000001d0: 9120 6e3f 6620 693f c73e a93f 9993 923f
000001e0: 34aa 533f d694 723f 934a 283f 04c7 993f
000001f0: fb67 9a3f d210 583f f9be b43f 7460 583f
00000200: 7188 9c3f 83c8 2c3f 6afa 4a3f fc37 263f
00000210: 0e6b 2d3f caf6 a43f 68cc 843f ff1f 9b3f
00000220: a754 913f 71be 7b3f 32de 523f 6b12 763f
00000230: f8a1 5c3f 5ff2 6e3f 07d7 593f 107e 3f3f
00000240: 1605 a43f d4ee 7f3f 8c9c 883f 9a39 883f
00000250: 593e 5b3f 4538 ca3e 6c0d 513f b990 683f
00000260: 56eb 803f ce16 6e3f 771a 8f3f 5199 533f
00000270: 05c6 8b3f 1c35 793f 984e 123f 180c e03e
00000280: 51fb 103f 819e 623f b1ef 813f ef3d 943f
00000290: f560 a43f 2d13 943f 5779 7b3f 78b0 763f
000002a0: 35a5 643f c67d 6b3f 2123 4b3f 9bbb 4e3f
000002b0: 9a7b 8a3f 6ddb 9a3f 77f9 6d3f e16b 853f
000002c0: 79a8 2a3f 13c0 7d3f 740a 523f 3229 683f
000002d0: 78c7 533f 2c17 793f 1ed1 aa3f 6139 c53e
000002e0: 6c2f 403f b47b 663f 1a8e 903f 72ba 5b3f
000002f0: d21e 733f 01fc 3f3f 3ff3 863f 24af 9e3f
00000300: 8216 a23f 2fd9 b83f 7e7c 9b3f d60b 803f
00000310: 81f7 853f 4cdf 473f 971d 733f 98d7 5f3f
00000320: 5dc4 603f 7f94 913f aba2 8a3f 1c39 873f
00000330: 4d60 a93f e696 5a3f a9e9 5c3f ec62 613f
00000340: 9748 873f 87b6 753f c535 a13f d777 5e3f
00000350: 5adb 873f 1431 863f 106c 923f 331f c43f
00000360: ad66 a03f 8e8b 893f c4e3 8e3f 505b ae3f
00000370: 3055 983f b917 9e3f 7035 943f 1d3b 943f
00000380: cd21 883f 3d0c 8d3f 210f 713f 5f62 483f
00000390: 67a3 263f 9358 7f3f c826 5b3f fca0 933f
000003a0: cc31 bd3f e1ba 463f 54d1 603f 44fb 6d3f
000003b0: db07 243f c927 793f c674 9d3f 48d3 7c3f
000003c0: 24af 2b3f 8227 913f 9f81 913f 7733 913f
000003d0: 1db5 a23f 44db 873f 32ff 853f b908 a33f
000003e0: d117 8c3f 2132 8c3f e2ab 6c3f f95e 773f
000003f0: 8048 7e3f 8708 863f 060d 743f 9dea 773f

normalize.bias f4 [784]
1.2534196 0.585666 0.14698254 0.2174166 -0.00046484778 0.23915485 0.28438488 0.35854033
0.43134502 0.34361932 0.045999322 0.12746288 0.027945338 0.047291577 0.065236636 0.048340015
0.13253506 0.06577618 0.17929606 0.23209864 0.23063749 0.26383716 -0.045666073 0.03220693
-0.08625691 0.03584784 0.03565715 -0.118597195 0.00203196 0.44508606 0.2815293 0.23551616
0.08551138 0.071993455 0.21208774 0.29935637 0.23175937 0.09881982 0.06841882 0.101037905
-0.0576491 -0.02661431 0.051672142 0.018701416 0.019690199 0.10738135 0.0025272882 0.06697344
0.23391306 0.25078467 0.039387364 -0.039360918 -0.01015901 -0.07441925 0.10188239 0.23955324
0.49427325 0.38592818 0.4294432 0.33381414 0.21014409 0.24371271 0.25883344 0.20158863
0.13705322 0.12917812 0.094636545 -0.052061748 -0.0802477 -0.032492727 0.022961799 -0.027637666
0.0398115 -0.02066013 -0.013961681 0.057834875 0.080354765 0.11635268 0.06408604 -0.016953254
0.12427783 -0.07146469 0.004148322 0.0754221 0.13879485 0.6940646 0.36554852 0.18706958
0.37853047 0.29175627 0.13843381 0.1219432 0.09746808 0.03677129 0.048948124 0.022526154
0.03998939 0.0201646 0.0039197374 0.034301717 0.016577188 -0.1495084 -0.09669935 0.00073957234
0.005881257 0.05055092 0.008740367 0.080549486 0.047630284 -0.0594338 -0.0683831 0.23545232
0.10125857 0.24726807 0.09738634 0.102615274 0.29581505 0.19737947 0.079627626 0.08869813
0.15656139 0.0985615 0.05017451 0.027637452 0.044850472 -0.028642826 0.034339394 0.045914426
-0.008608745 -0.08676295 -0.04687878 0.06831983 0.023433637 -0.031245405 -0.036399987 0.0065173507
0.1751171 0.03768372 -0.123650216 0.010690885 0.14109382 0.044443645 -0.08725218 0.24800323
0.12171022 0.11825355 0.054094724 0.18823434 0.22375046 0.1453734 -0.00014807761 0.084935926
0.03284789 0.025764298 0.027284615 0.029121704 -0.055629104 -0.00062442623 0.02675784 0.027770028
0.06759871 -0.08436796 -0.07309521 0.03657067 0.029516391 0.04322522 -0.1374367 0.14419943
0.18175596 0.010362166 0.05085745 0.19024211 0.13786462 0.09670147 0.07722766 0.17864935
0.23410186 0.07918883 -0.028909186 0.031050516 -0.010692282 0.056602888 0.08525627 0.015533103
-0.01882827 -0.031918086 -0.025760118 0.0651664 0.15532179 -0.075885 -0.054175116 -0.04328739
-0.08340724 -0.014082675 0.023286387 0.09233319 0.070337005 -0.1338855 0.12938558 0.08865092
0.12671529 0.12595427 0.10469323 0.13169347 0.09593073 0.024038916 -0.060478143 0.011154366
0.002724716 0.056209277 0.02046304 -0.09562256 -0.012935917 0.010871161 -0.007632757 0.027990289
0.12662105 -0.07634576 -0.09584433 -0.08060044 -0.082270145 -0.04157559 0.14295898 0.07875645
0.004085203 -0.21981357 0.035848938 0.17285329 0.1218528 0.063392326 0.098724894 0.08790902
0.05376813 0.07127274 -0.04957852 -0.020757543 -0.0023752218 0.0028053054 0.058719393 -0.061229806
-0.014129961 -0.014782522 -0.021713238 -0.042325575 0.062069505 -0.03448159 -0.12032401 -0.055724986
-0.06314504 -0.001371133 0.17209461 -0.005322715 -0.09910169 -0.093071446 -0.09194324 0.09347397
00000000: 0e70 a03f 35ee 153f 9782 163e 75a2 5e3e
00000010: d0b6 f3b9 02e5 743e e59a 913e 9992 b73e
00000020: 41d9 dc3e dfee af3e c969 3c3d a185 023e
00000030: 9fed e43c d0b4 413d c99a 853d 2e00 463d
00000040: 45b7 073e a9b5 863d 6399 373e 44ab 6d3e
00000050: 3c2c 6c3e aa15 873e 590c 3bbd 6aeb 033d
00000060: 76a7 b0bd 2fd5 123d 3b0d 123d 16e3 f2bd
00000070: a22a 053b 52e2 e33e 9c24 903e 262b 713e
00000080: 9720 af3d 4e71 933d 872d 593e 3d45 993e
00000090: 5452 6d3e 0c62 ca3d 2b1f 8c3d f6ec ce3d
000000a0: 7621 6cbd 4106 dabc 2ba6 533d b633 993c
000000b0: 574d a13c c1ea db3d dca0 253b 5f29 893d
000000c0: e886 6f3e d966 803e a554 213d ea38 21bd
000000d0: fa71 26bc 1f69 98bd b7a7 d03d 724d 753e
000000e0: 6211 fd3e 6198 c53e fbdf db3e b0e9 aa3e
000000f0: 0330 573e d38f 793e d185 843e 406d 4e3e
00000100: ae57 0c3e 4547 043e ced0 c13d b33e 55bd
00000110: e858 a4bd 1817 05bd 621a bc3c 6368 e2bc
00000120: 6211 233d 6f3f a9bc 89bf 64bc 43e4 6c3d
00000130: 0a91 a43d 504a ee3d 8b3f 833d 8de1 8abc
00000140: 6085 fe3d 145c 92bd a6ee 873b e776 9a3d
00000150: 3d20 0e3e 38ae 313f 2d29 bb3e 2b8f 3f3e
00000160: bfce c13e 1461 953e 98c1 0d3e 5bbd f93d
00000170: 589d c73d 7e9d 163d d47d 483d c588 b83c
00000180: eacb 233d 3b30 a53c 2471 803b f57f 0c3d
00000190: e2cc 873c bb18 19be 4f0a c6bd dcdf 413a
000001a0: 8fb7 c03b 7b0e 4f3d c233 0f3c 21f7 a43d
000001b0: f917 433d db70 73bd 700c 8cbd 6a1a 713e
000001c0: a760 cf3d d733 7d3e 7d72 c73d f527 d23d
000001d0: 1275 973e d81d 4a3e cf13 a33d 5da7 b53d
000001e0: a151 203e 9dda c93d c983 4d3d f067 e23c
000001f0: 21b5 373d 5ca4 eabc 77a7 0c3d c410 3c3d
00000200: b20b 0dbc c6b0 b1bd f703 40bd 44eb 8b3d
00000210: e6f7 bf3c 5df6 ffbc 2718 15bd 808f d53b
00000220: e651 333e 3f5a 1a3d 533c fdbd d228 2f3c
00000230: e67a 103e 8a0a 363d 45b1 b2bd 8ff4 7d3e
00000240: 3543 f93d eb2e f23d 6e92 5d3d 81c0 403e
00000250: d71e 653e c4dc 143e 4845 1bb9 e3f2 ad3d
00000260: 828b 063d a60f d33c fc83 df3c a490 ee3c
00000270: 58db 63bd 89b0 23ba 4233 db3c f87d e33c
00000280: 3171 8a3d 1cc9 acbd f1b2 95bd 20cb 153d
00000290: 5ccc f13c ee0c 313d 35bc 0cbe 04a9 133e
000002a0: 3c1e 3a3e 13c6 293c e74f 503d d4ce 423e
000002b0: 622c 0d3e 6c0b c63d 8929 9e3d dbef 363e
000002c0: 66b8 6f3e c12d a23d f5d2 ecbc a75d fe3c
000002d0: ae2e 2fbc 6ed8 673d d79a ae3d 8e7e 7e3c
000002e0: be3d 9abc 8abc 02bd e206 d3bc f675 853d
000002f0: ad0c 1f3e 9869 9bbd bae6 5dbd 1e4e 31bd
00000300: 6ad1 aabd 05bb 66bc 18c3 be3c 2f19 bd3d
00000310: d90c 903d 4819 09be a77d 043e 9d8e b53d
00000320: a7c1 013e 28fa 003e 6769 d63d a7da 063e
00000330: 5577 c43d 43ed c43c eeb7 77bd cdc0 363c
00000340: 2691 323b b33b 663d 1ba2 a73c c3d5 c3bd
00000350: 2bf1 53bc f41c 323c 351c fabb e44b e53c
00000360: f3a8 013e 2a5b 9cbd 084a c4bd d811 a5bd
00000370: 407d a8bd 2a4b 2abd d763 123e 104b a13d
00000380: 2bdd 853b cf16 61be 56d6 123d 7400 313e
00000390: f68d f93d d6d3 813d 4730 ca3d a509 b43d
000003a0: f83b 5c3d 71f7 913d d912 4bbd b90b aabc
000003b0: 9ca9 1bbb 37d9 373b bf83 703d 1bcc 7abd
000003c0: 5a81 67bc 6432 72bc f6df b1bc 955d 2dbd
000003d0: 983c 7e3d 913c 0dbd 6f6c f6bd e23f 64bd
000003e0: 3052 81bd 97b7 b3ba 9239 303e 2b6a aebb
000003f0: d4f5 cabd 3e9c bebd bd4c bcbd 486f bf3d

normalize.running_mean f4 [784]
-0.99999976 -0.99999654 -0.9998083 -0.9992324 -0.99891245 -0.99786645 -0.99425966 -0.9834145
-0.9641346 -0.8983657 -0.7390773 -0.6262083 -0.583768 -0.599255 -0.5989209 -0.56962633
-0.5856411 -0.6584861 -0.801126 -0.9327612 -0.97147727 -0.98570776 -0.99122936 -0.99536437
-0.997495 -0.9984078 -0.9989782 -0.99998796 -0.9999905 -0.99995154 -0.99870265 -0.99754393
-0.9960832 -0.9863575 -0.949647 -0.8651917 -0.7427082 -0.5645673 -0.36100608 -0.19211636
-0.09310616 -0.108646676 -0.11356349 -0.06355272 -0.111417845 -0.26222515 -0.4219638 -0.6295459
-0.78672665 -0.8894895 -0.9519093 -0.97709763 -0.98561156 -0.99072534 -0.99584436 -0.9991217
-0.9999477 -0.99974775 -0.99865866 -0.9971555 -0.98841274 -0.9288894 -0.8109858 -0.69750905
-0.571494 -0.4069798 -0.2487933 -0.19239469 -0.16542596 -0.16587959 -0.15859893 -0.15076274
-0.17550874 -0.19508141 -0.2687748 -0.4505228 -0.6080331 -0.71310276 -0.8316692 -0.92765677
-0.9666038 -0.9814071 -0.9925837 -0.9980862 -0.999747 -0.998891 -0.996848 -0.99111223
-0.9479602 -0.8357838 -0.6922601 -0.560202 -0.4606736 -0.32217348 -0.2087382 -0.18776561
-0.17739563 -0.17042376 -0.1585283 -0.15378122 -0.1744107 -0.17966805 -0.20138809 -0.31712228
-0.4604408 -0.57680196 -0.7020547 -0.8357843 -0.9233593 -0.96220106 -0.983102 -0.99704957
-0.9996216 -0.9956714 -0.99131733 -0.9731158 -0.90565026 -0.754092 -0.58135104 -0.47255766
-0.40103006 -0.2716597 -0.19567291 -0.18867819 -0.18125127 -0.16695562 -0.14948659 -0.13898553
-0.15044707 -0.14990994 -0.15350364 -0.24478345 -0.36775467 -0.44855437 -0.5891616 -0.76130867
-0.86927295 -0.92944837 -0.96385354 -0.99426544 -0.998507 -0.98842156 -0.9766186 -0.9513001
-0.86417013 -0.6679402 -0.5001426 -0.42706683 -0.35771984 -0.24725233 -0.18331745 -0.18902743
-0.18369314 -0.15003917 -0.12280774 -0.120282106 -0.11530171 -0.10940955 -0.11047922 -0.16633242
-0.29231688 -0.3629837 -0.48251027 -0.6715493 -0.8024728 -0.8818383 -0.9408389 -0.98152626
-0.9981977 -0.9827113 -0.9678545 -0.9236178 -0.811836 -0.60243 -0.45042256 -0.3892256
-0.3302797 -0.2364511 -0.18189774 -0.17565796 -0.17865875 -0.1447642 -0.10611642 -0.083397225
-0.07249925 -0.06296114 -0.06698492 -0.11893657 -0.2318711 -0.29849753 -0.3940056 -0.57671815
-0.74523073 -0.8303345 -0.9141197 -0.97726023 -0.99581593 -0.97761434 -0.957468 -0.8967993
-0.7625508 -0.5570508 -0.41918436 -0.34902492 -0.309693 -0.23997438 -0.17779513 -0.16095422
-0.15520865 -0.11560345 -0.07794238 -0.020875046 -0.006946943 -0.0148760285 -0.017923053 -0.07293694
-0.1636011 -0.22600234 -0.3204943 -0.50036216 -0.6772616 -0.770684 -0.88664323 -0.9719374
-0.99533397 -0.97446954 -0.9448006 -0.8697991 -0.72840923 -0.5174946 -0.39751288 -0.3133201
-0.28900078 -0.2267637 -0.16446014 -0.14609063 -0.13217941 -0.10181651 -0.072066665 0.036635906
0.061496954 0.05985612 0.027664293 -0.03698365 -0.11369601 -0.15980242 -0.24322928 -0.42509532
-0.6087652 -0.7133527 -0.84312075 -0.96791905 -0.9936012 -0.9724309 -0.9337184 -0.8594843
00000000: fcff 7fbf c6ff 7fbf 70f3 7fbf b2cd 7fbf
00000010: bab8 7fbf 2d74 7fbf cd87 7ebf 0dc1 7bbf
00000020: 86d1 76bf 4bfb 65bf 2c34 3dbf 304f 20bf
00000030: d271 15bf c768 19bf e152 19bf 08d3 11bf
00000040: 93ec 15bf 8c92 28bf 9816 4dbf 70c9 6ebf
00000050: bcb2 78bf 5857 7cbf 35c1 7dbf 33d0 7ebf
00000060: d55b 7fbf a797 7fbf 09bd 7fbf 36ff 7fbf
00000070: 61ff 7fbf d3fc 7fbf faaa 7fbf 0a5f 7fbf
00000080: 4fff 7ebf ed81 7cbf 111c 73bf 347d 5dbf
00000090: 2022 3ebf 7c87 10bf cad5 b8be 27ba 44be
000000a0: 71ae bebd 2682 debd fa93 e8bd ee27 82bd
000000b0: 0a2f e4bd 6042 86be a40b d8be ec29 21bf
000000c0: eb66 49bf 95b5 63bf 54b0 73bf 1223 7abf
000000d0: 0a51 7cbf 2da0 7dbf a8ef 7ebf 71c6 7fbf
000000e0: 93fc 7fbf 78ef 7fbf 18a8 7fbf 9545 7fbf
000000f0: 9e08 7dbf b2cb 6dbf c49c 4fbf f48f 32bf
00000100: 6e4d 12bf a85f d0be acc3 7ebe 1d03 45be
00000110: 6c65 29be 57dc 29be c267 22be 8c61 1abe
00000120: 90b8 33be 6cc3 47be da9c 89be edaa e6be
00000130: 0fa8 1bbf e78d 36bf 46e8 54bf ea7a 6dbf
00000140: 5973 77bf 7f3d 7bbf f719 7ebf 9482 7fbf
00000150: 6bef 7fbf 52b7 7fbf 6e31 7fbf 88b9 7dbf
00000160: 85ad 72bf edf5 55bf f537 31bf 6669 0fbf
00000170: 69dd ebbe ecf3 a4be 77bf 55be a145 40be
00000180: 33a7 35be 9183 2ebe 3e55 22be d378 1dbe
00000190: b898 32be e7fa 37be ae38 4ebe da5d a2be
000001a0: e6be ebbe 4ba9 13bf dbb9 33bf f6f5 55bf
000001b0: 4661 6cbf cf52 76bf 93ac 7bbf a43e 7fbf
000001c0: 34e7 7fbf 52e4 7ebf f9c6 7dbf 1e1e 79bf
000001d0: b2d8 67bf 2c0c 41bf 6cd3 14bf 14f3 f1be
000001e0: d053 cdbe fb16 8bbe 7b5e 48be db34 41be
000001f0: ef99 39be 6af6 2abe 0313 19be 3952 0ebe
00000200: cc0e 1abe fe81 19be 0f30 1dbe 83a8 7abe
00000210: 574a bcbe eba8 e5be 4bd3 16bf 20e5 42bf
00000220: ac88 5ebf 54f0 6dbf 1bbf 76bf 2e88 7ebf
00000230: 289e 7fbf 3209 7dbf ad03 7abf 6788 73bf
00000240: 413a 5dbf 21fe 2abf 5809 00bf 81a8 dabe
00000250: 0e27 b7be b72f 7dbe 92b7 3bbe 6890 41be
00000260: 0e1a 3cbe dea3 19be a082 fbbd 7756 f6bd
00000270: 4e23 ecbd 1d12 e0bd ee42 e2bd 0c53 2abe
00000280: 8faa 95be 00d9 b9be 960b f7be a8ea 2bbf
00000290: db6e 4dbf 28c0 61bf d1da 70bf 4e45 7bbf
000002a0: e289 7fbf f892 7bbf 50c5 77bf 3772 6cbf
000002b0: 7cd4 4fbf da38 1abf c99d e6be 9448 c7be
000002c0: 6c1a a9be 3d20 72be 6743 3abe aedf 33be
000002d0: 52f2 36be 113d 14be 9153 d9bd 2acc aabd
000002e0: 7d7a 94bd c5f1 80bd 642f 89bd 0495 f3bd
000002f0: 9e6f 6dbe abd4 98be 1abb c9be cda3 13bf
00000300: 71c7 3ebf cd90 54bf c003 6abf ba2d 7abf
00000310: cbed 7ebf ef44 7abf 9f1c 75bf a494 65bf
00000320: 8736 43bf e29a 0ebf 559f d6be 65b3 b2be
00000330: 1590 9ebe d8bb 75be ed0f 36be 2fd1 24be
00000340: 04ef 1ebe 80c1 ecbd 41a0 9fbd 2502 abbc
00000350: 2ea3 e3bb 96ba 73bc 5ed3 92bc f65f 95bd
00000360: 0c87 27be 286d 67be d417 a4be bc17 00bf
00000370: 0461 2dbf 8c4b 45bf 0dfb 62bf e4d0 78bf
00000380: 35ce 7ebf d676 79bf 74de 71bf 27ab 5ebf
00000390: 0779 3abf 877a 04bf cf86 cbbe 7e6b a0be
000003a0: e9f7 93be be34 68be 3d68 28be c898 15be
000003b0: 0a5a 07be 2d85 d0bd b097 93bd 880f 163d
000003c0: 3be4 7b3d b12b 753d 3aa0 e23c 2b7c 17bd
000003d0: 74d9 e8bd 3fa3 23be 1911 79be 18a6 d9be
000003e0: 09d8 1bbf 489e 36bf c3d6 57bf 8bc9 77bf
000003f0: a65c 7ebf 3bf1 78bf 2b08 6fbf 2a07 5cbf

normalize.running_var f4 [784]
2.6127827e-16 4.91493e-08 1.744741e-05 0.00044222522 0.0004575243 0.00087321206 0.0037696366 0.010992406
0.027682574 0.07792594 0.2086617 0.27525827 0.28778958 0.2791348 0.27885145 0.3034988
0.28625938 0.26105106 0.15612337 0.048906628 0.020025132 0.011597661 0.0054986738 0.002273967
0.001263947 0.0008538922 0.0005378538 9.510091e-08 3.9021666e-07 3.016214e-06 0.0017416266 0.0027432775
0.0034047633 0.012146963 0.047835443 0.13360913 0.26639178 0.421988 0.55967784 0.62080693
0.6535537 0.6282452 0.6394751 0.6508834 0.63020104 0.58446324 0.51260656 0.37296242
0.21703632 0.10925159 0.05108247 0.025824292 0.018185059 0.010831203 0.0059581897 0.0007903017
1.1396976e-05 0.0001026539 0.0017134752 0.0026784362 0.010674569 0.0703205 0.19898304 0.32316384
0.40572336 0.47639167 0.54242104 0.5479132 0.5522574 0.5678807 0.5756947 0.5549443
0.52367157 0.52409226 0.5175667 0.44824785 0.38821736 0.3074163 0.1741077 0.0807811
0.04067942 0.02045978 0.008456269 0.0015988447 0.00013709924 0.0011464623 0.0030391414 0.0073887925
0.052973777 0.17626426 0.31841525 0.41202322 0.4687174 0.4997871 0.5397971 0.5331348
0.54031783 0.56189835 0.5560525 0.5405704 0.50856715 0.5031801 0.5130856 0.48806477
0.45771667 0.4030475 0.3074389 0.18653108 0.09306438 0.044693906 0.017623542 0.0016414007
0.00014672693 0.0045211595 0.008361496 0.028665828 0.106391154 0.25275835 0.4058823 0.4713896
0.4876624 0.50816697 0.5215612 0.5106958 0.52774507 0.52697355 0.52030694 0.51359737
0.49440625 0.48737314 0.48585343 0.48249733 0.4863285 0.4686769 0.38198322 0.25610518
0.15340826 0.0809654 0.042424582 0.003955781 0.00076200435 0.014782175 0.028878277 0.054180462
0.15025039 0.32986632 0.46318373 0.48340565 0.5013709 0.5093001 0.5274951 0.5033492
0.520476 0.52261806 0.5203863 0.5073859 0.48621896 0.48061952 0.4888596 0.48663655
0.512164 0.49919516 0.45462862 0.32662135 0.22567272 0.13907897 0.06569269 0.016162878
0.0008178461 0.024009945 0.040031735 0.09839112 0.20699596 0.384509 0.50342345 0.50038415
0.51966393 0.51199996 0.5161659 0.50057524 0.5050235 0.507829 0.50720936 0.48471597
0.45936888 0.44467673 0.45970806 0.471486 0.5087749 0.5208855 0.49555656 0.3907935
0.28244922 0.19829673 0.09992507 0.019594988 0.004008781 0.030718548 0.048785787 0.12568615
0.25775778 0.4195193 0.5244046 0.5377239 0.5261976 0.49681786 0.50834435 0.50257754
0.50125295 0.4977898 0.48137686 0.46887562 0.44139686 0.41309652 0.42793486 0.46639034
0.5221983 0.5342534 0.52208537 0.43261632 0.33839232 0.26098016 0.12848337 0.02561555
0.0031238014 0.030572748 0.06426069 0.1604073 0.2830721 0.45270854 0.53704596 0.5717946
0.53798443 0.50212395 0.50946105 0.49786657 0.48790374 0.4762288 0.44028547 0.43113106
0.3933794 0.38050446 0.41293287 0.4586165 0.53123444 0.5588051 0.5475899 0.47808993
0.39205983 0.31295478 0.17526138 0.02459306 0.0043745995 0.032106902 0.08243726 0.16897622
00000000: de9d 9625 3a18 5333 075c 9237 77da e739
00000010: dfdf ef39 45e8 643a 020c 773b 7e19 343c
00000020: 91c6 e23c a397 9f3d 6aab 553e a7ee 8c3e
00000030: 2859 933e c2ea 8e3e 9ec5 8e3e 3264 9b3e
00000040: 9790 923e 7ca8 853e cede 1f3e 5152 483d
00000050: bf0b a43c 1e04 3e3c 382e b43b d606 153b
00000060: 06ab a53a bcd7 5f3a c2fe 0c3a 473a cc33
00000070: f87e d134 296a 4a36 4b47 e43a 8fc8 333b
00000080: 7322 5f3b 0e04 473c 19ef 433d d5d0 083e
00000090: 8164 883e d00e d83e 0c47 0f3f 34ed 1e3f
000000a0: 4c4f 273f add4 203f a4b4 233f 4ba0 263f
000000b0: db54 213f 629f 153f 2f3a 033f eef4 be3e
000000c0: c53e 5e3e 4cbf df3d da3b 513d 778d d33c
000000d0: d5f8 943c 5c75 313c eb3c c33b 402c 4f3a
000000e0: a435 3f37 e547 d738 b096 e03a b488 2f3b
000000f0: 63e4 2e3c 3204 903d 36c2 4b3e bb75 a53e
00000100: f9ba cf3e 9ce9 f33e 1bdc 0a3f 0a44 0c3f
00000110: be60 0d3f a160 113f ba60 133f d410 0e3f
00000120: 570f 063f e92a 063f 407f 043f be80 e53e
00000130: 6dc4 c63e ab65 9d3e 4a49 323e 9070 a53d
00000140: 779f 263d 459b a73c 2a8c 0a3c 5390 d13a
00000150: 4cc2 0f39 e444 963a 552c 473b af1d f23b
00000160: 08fb 583d 9e7e 343e 5307 a33e b5f4 d23e
00000170: bafb ef3e 18e4 ff3e 2530 0a3f 867b 083f
00000180: 4552 0a3f 92d8 0f3f 7559 0e3f d262 0a3f
00000190: 7531 023f 69d0 003f 9459 033f a0e3 f93e
000001a0: d759 ea3e 3e5c ce3e a268 9d3e 0102 3f3e
000001b0: 8a98 be3d f510 373d 3f5f 903c 4524 d73a
000001c0: b6da 1939 3c26 943b a8fe 083c 99d4 ea3c
000001d0: 9be3 d93d 8b69 813e cecf cf3e fa59 f13e
000001e0: e3ae f93e 3b17 023f 0985 053f f6bc 023f
000001f0: 4d1a 073f bde7 063f d632 053f 1e7b 033f
00000200: d122 fd3e f988 f93e c8c1 f83e e409 f73e
00000210: 0d00 f93e 6bf6 ef3e 4e93 c33e 3820 833e
00000220: 0e17 1d3e 30d1 a53d 66c5 2d3d 7f9f 813b
00000230: 3fc1 473a f030 723c 2392 ec3c 55ec 5d3d
00000240: 3ddb 193e 3de4 a83e 6b26 ed3e f280 f73e
00000250: d859 003f 7e61 023f eb09 073f 7edb 003f
00000260: ea3d 053f 4cca 053f 0938 053f 0be4 013f
00000270: b1f1 f83e c313 f63e ce4b fa3e 6d28 f93e
00000280: 2e1d 033f 8296 ff3e 15c5 e83e ea3a a73e
00000290: c016 673e b86a 0e3e e489 863d 0368 843c
000002a0: b964 563a 81b0 c43c 51f8 233d 4981 c93d
000002b0: c0f6 533e 5dde c43e 5ce0 003f 2d19 003f
000002c0: b208 053f 6e12 033f 7323 043f b325 003f
000002d0: 3849 013f 1501 023f 79d8 013f b12c f83e
000002e0: 6632 eb3e abac e33e db5e eb3e 9d66 f13e
000002f0: 123f 023f c158 053f 97b9 fd3e 1616 c83e
00000300: 2f9d 903e 4c0e 4b3e 84a5 cc3d ab85 a03c
00000310: 185c 833b 77a5 fb3c 9bd3 473d dfb3 003e
00000320: d4f8 833e 3ccb d63e 613f 063f 46a8 093f
00000330: e3b4 063f e95e fe3e db22 023f eca8 003f
00000340: 1d52 003f 4ede fe3e 0777 f63e 7710 f03e
00000350: c5fe e13e 6381 d33e 471a db3e b7ca ee3e
00000360: caae 053f d5c4 083f 63a7 053f e37f dd3e
00000370: c241 ad3e 319f 853e 2591 033e b4d7 d13c
00000380: b1b8 4c3b b373 fa3c 1c9b 833d d041 243e
00000390: d4ee 903e 6ac9 e73e d87b 093f 2261 123f
000003a0: 59b9 093f 328b 003f 0a6c 023f 5ee8 fe3e
000003b0: 85ce f93e 43d4 f33e 196d e13e 36bd dc3e
000003c0: 0669 c93e 7bd1 c23e f06b d33e c8cf ea3e
000003d0: fbfe 073f da0d 0f3f da2e 0c3f 34c8 f43e
000003e0: 11bc c83e 9c3b a03e b877 333e 6377 c93c
000003f0: cd58 8f3b 8782 033d ded4 a83d 1a08 2d3e

fc1.weight f4 [128, 784]
-0.28313473 -0.23104899 -0.019308371 0.0073668277 0.06162951 -0.38303304 -0.0592115 -0.26880804
0.13500498 0.070499636 -0.040849216 -0.35466236 -0.26613447 0.28514668 0.26787883 0.08830622
-0.068454884 -0.16378644 -0.0712514 0.09387475 -0.16341779 -0.4540839 -0.057363592 -0.04711023
0.20709117 0.17327014 -0.010445221 0.1491904 -0.11323607 -0.20954274 -0.16432947 -0.05544813
-0.20617141 -0.115919635 0.110018544 -0.13215397 -0.2913507 -0.28620195 0.045336362 0.20085222
0.02586509 0.057932917 0.07887118 0.11906785 0.19144796 0.2201455 -0.2143487 -0.24687259
-0.39175776 -0.3499371 -0.16224994 -0.007104987 0.26839736 0.12533759 0.18171015 0.035967134
-0.0939835 -0.20811248 -0.0068469723 0.0050850194 -0.2327441 0.2359025 0.12796703 -0.007791581
-0.4199096 -0.09734825 -0.10319639 -0.065408744 0.07155588 0.15363184 0.15212916 0.25735095
-0.15937342 -0.0824116 -0.045274727 -0.1424607 -0.21490411 -0.06987521 0.097203225 0.06568939
0.08701053 0.16095662 0.06431526 0.104354605 -0.10135119 -0.28758225 -0.012455748 0.26929507
-0.088413365 0.3042693 0.0401262 -0.31687185 -0.29081175 0.049584016 0.056863762 -0.19282475
-0.009594553 0.14921422 -0.06540779 -0.00029091653 -0.0005251622 -0.13408062 0.040467087 -0.15211287
0.019136492 -0.02546537 0.03719837 0.011694118 -0.07408037 0.042677313 0.17943896 -0.07981392
-0.13204123 -0.21377935 0.12133817 -0.16227351 0.10851105 0.08703931 -0.23522258 -0.17956792
-0.13051537 -0.060485452 0.050977748 -0.020125927 0.10278086 0.07262408 0.21165699 0.1257512
0.25833234 0.0013030928 0.0074049933 0.033705283 -0.122896716 -0.0756689 -0.060284153 0.024572605
-0.18805732 -0.08159884 0.1127272 -0.023777718 -0.14686994 0.12074963 -0.017237945 -0.04674971
0.2796132 0.044218086 -0.16919537 -0.11843248 -0.058490872 -0.18285535 -0.022005334 0.08700853
-0.060731612 0.06136679 0.03245127 0.082275875 0.1923964 0.02086175 -0.02081853 -0.07406712
-0.21224704 -0.054794878 -0.09343894 -0.15715848 -0.18311407 -0.04292459 0.02057559 0.041080438
0.13549794 0.36197346 0.069561355 0.05774742 0.28118363 -0.0876892 -0.12256921 -0.04492761
-0.024823423 -0.06381367 -0.014415933 -0.008274016 -0.111779444 -0.046741746 0.1653267 0.004040295
0.067549035 0.22273578 0.24761522 0.21242581 -0.03517296 -0.13870524 -0.21734849 -0.28222513
-0.21963324 -0.29617056 -0.22314525 -0.11943073 0.104001746 0.11277901 0.048532978 0.17106842
0.14387219 -0.13187353 -0.10836478 0.04308985 -0.04669279 -0.14726475 0.0032590146 -0.17890866
-0.119337246 -0.218109 0.0464229 0.041284602 0.10497371 0.18673022 0.3023236 0.38120675
0.09995078 -0.18971409 -0.3845764 -0.41139096 -0.27777782 -0.20103386 -0.022302477 -0.19624461
0.16483316 0.30755782 0.08830087 0.2569187 0.1292456 -0.05161686 -0.06742782 0.046611648
-0.13464753 -0.08708412 0.20499977 -0.106404886 0.013779526 -0.24402085 -0.081403464 0.1384075
-0.013789798 0.30423883 0.52809584 0.067247204 0.007644879 -0.13377383 -0.28329998 -0.14389378
-0.0025993448 0.0054342854 0.13126197 0.24474321 0.24395958 0.2602444 0.12715253 0.08746213
00000000: 09f7 90be 1b98 6cbe 972c 9ebc 6e65 f13b
00000010: 3a6f 7c3d e81c c4be c287 72bd 35a1 89be
00000020: bf3e 0a3e 1d62 903d 8251 27bd 4e96 b5be
00000030: c742 88be bffe 913e 6a27 893e e4d9 b43d
00000040: 1332 8cbd a2b7 27be 41ec 91bd 6841 c03d
00000050: fe56 27be af7d e8be 16f6 6abd a8f6 40bd
00000060: b50f 543e ba6d 313e 6f22 2bbc 5ec5 183e
00000070: 50e8 e7bd 5f92 56be fc45 28be 941d 63bd
00000080: 991e 53be 4667 edbd 6751 e13d 5f53 07be
00000090: eb2b 95be 1089 92be 9fb2 393d 34ac 4d3e
000000a0: 06e3 d33c 114b 6d3d 3787 a13d d8d9 f33d
000000b0: ef0a 443e d26d 613e 3a7e 5bbe 2bcc 7cbe
000000c0: 7994 c8be f52a b3be d924 26be f3d0 e8bb
000000d0: 616b 893e 7f58 003e 3a12 3a3e 4652 133d
000000e0: 6c7a c0bd 701b 55be 915c e0bb 3ca0 a63b
000000f0: 7854 6ebe 6d90 713e ca09 033e 8550 ffbb
00000100: 64fe d6be 855e c7bd a158 d3bd 05f5 85bd
00000110: e48b 923d aa51 1d3e bfc7 1b3e 81c3 833e
00000120: c932 23be 6ac7 a8bd fe71 39bd 38e1 11be
00000130: d30f 5cbe bc1a 8fbd 7c12 c73d 2988 863d
00000140: 9432 b23d d0d1 243e b8b7 833d deb7 d53d
00000150: 3691 cfbd fb3d 93be 3213 4cbc 0be1 893e
00000160: 1112 b5bd 30c9 9b3e 5f5b 243d 073d a2be
00000170: 47e5 94be 9c18 4b3d fae9 683d da73 45be
00000180: 7932 1dbc 9dcb 183e 85f4 85bd 2886 98b9
00000190: 0aab 09ba 6e4c 09be d1c0 253d 7ac3 1bbe
000001a0: 22c4 9c3c c09c d0bc 515d 183d b098 3f3c
000001b0: 73b7 97bd 68ce 2e3d d9be 373e 7b75 a3bd
000001c0: d135 07be f9e8 5abe 2580 f83d 072b 26be
000001d0: 0b3b de3d aa41 b23d 30de 70be a7e0 37be
000001e0: d2a5 05be 98bf 77bd 0bce 503d 21df a4bc
000001f0: c67e d23d efbb 943d 9cbc 583e ecc4 003e
00000200: 2344 843e 8acc aa3a 96a5 f23b 8d0e 0a3d
00000210: 46b1 fbbd 4cf8 9abd 84ec 76bd 7d4c c93c
00000220: 1992 40be 4b1d a7bd 85dd e63d 7dc9 c2bc
00000230: 1365 16be 954b f73d 9736 8dbc a07c 3fbd
00000240: 7629 8f3e 061e 353d 8d41 2dbe ba8c f2bd
00000250: 2094 6fbd 6f3e 3bbe 8844 b4bc 8731 b23d
00000260: b6c1 78bd be5b 7b3d 9feb 043d 4180 a83d
00000270: 9003 453e 43e6 aa3c 9f8b aabc 81b0 97bd
00000280: 4a57 59be 9870 60bd ea5c bfbd 27ee 20be
00000290: 4182 3bbe b2d1 2fbd 248e a83c f643 283d
000002a0: f9bf 0a3e 9654 b93e 2f76 8e3d 8f88 6c3d
000002b0: 4df7 8f3e 6596 b3bd 9105 fbbd 0306 38bd
000002c0: 7e5a cbbc beb0 82bd ce30 6cbc bd8f 07bc
000002d0: 9fec e4bd 4674 3fbd 674b 293e 7364 843b
000002e0: 2657 8a3d d914 643e d88e 7d3e 2786 593e
000002f0: 8611 10bd bf08 0ebe 9a90 5ebe d07f 90be
00000300: 89e7 60be aba3 97be 3080 64be 1998 f4bd
00000310: defe d43d aef8 e63d 84ca 463d 8f2c 2f3e
00000320: 3b53 133e db09 07be 5bee ddbd fc7e 303d
00000330: f040 3fbd 92cc 16be 3195 553b d533 37be
00000340: 1667 f4bd f757 5fbe f025 3e3d 0b1a 293d
00000350: 75fc d63d 3536 3f3e 29ca 9a3e 882d c33e
00000360: ffb2 cc3d 6944 42be 33e7 c4be d6a1 d2be
00000370: e538 8ebe d2db 4dbe afb3 b6bc 59f4 48be
00000380: 06ca 283e 3878 9d3e 16d7 b43d d98a 833e
00000390: f558 043e 336c 53bd 9917 8abd dbeb 3e3d
000003a0: 0be1 09be 2959 b2bd 76eb 513e ceea d9bd
000003b0: 85c3 613c 9ae0 79be dcb6 a6bd b2ba 0d3e
000003c0: 9bee 61bc 31c5 9b3e 4a31 073f e7b8 893d
000003d0: e581 fa3b 02fc 08be b20c 91be e458 13be
000003e0: c559 2abb 1712 b23b 8a69 063e f79d 7a3e
000003f0: 8ad0 793e c13e 853e 4634 023e 581f b33d

fc1.bias f4 [128]
-0.19899194 -0.29982114 -0.38961238 -0.18589093 -0.13947381 -0.15795678 -0.24130167 -0.200981
-0.15519917 -0.2824312 -0.2326951 -0.2451553 -0.100101136 -0.21630204 -0.16626737 -0.22185045
-0.19474857 -0.21957308 -0.2688301 -0.04704941 -0.17355575 -0.18349996 -0.18461645 -0.051834524
-0.18739255 -0.37088662 -0.2949267 -0.3226453 -0.27261797 -0.15520166 -0.10120755 -0.33868074
-0.122133434 -0.10182824 -0.34230927 -0.32243234 -0.2935506 -0.21071106 -0.20256834 -0.21767923
-0.43565965 -0.13688482 -0.29345617 -0.33859745 -0.123808734 -0.20956059 -0.19539961 0.11275572
-0.097287826 -0.2830727 -0.11308212 -0.07621222 -0.24908826 -0.16810974 -0.0944578 -0.040553182
-0.29743686 -0.06150405 -0.2991855 -0.1981536 -0.2238247 -0.26420385 -0.26708695 -0.24338531
-0.10866935 -0.2446118 -0.30549425 -0.27327713 -0.056886848 -0.21980847 -0.23779288 -0.23347694
-0.2183276 -0.3262231 -0.12430487 -0.171868 -0.31082448 -0.109613135 -0.34993824 -0.13251562
-0.15745504 -0.01155133 -0.15421365 -0.25805947 -0.14664844 -0.10951968 -0.11225306 -0.07790723
-0.0682443 -0.19546933 -0.26021156 -0.10058654 -0.30141512 -0.37023595 -0.11996031 -0.21225783
-0.07036524 -0.28567258 -0.21864787 -0.50009847 -0.2536154 -0.38355473 -0.2279836 -0.32518026
-0.14173137 -0.2656918 -0.25501478 -0.19664939 -0.3851602 -0.08688504 -0.18294801 -0.27490926
-0.2691165 -0.16095255 -0.34312713 -0.33784887 -0.18007608 -0.2224557 -0.2287131 -0.18032351
-0.35583845 -0.009700318 -0.23025224 -0.229911 -0.5061372 -0.34890708 -0.25029528 -0.164272
00000000: 8bc4 4bbe 2882 99be 467b c7be 315a 3ebe
00000010: 39d2 0ebe 6cbf 21be c917 77be f7cd 4dbe
00000020: 88ec 1ebe d29a 90be a047 6ebe fe09 7bbe
00000030: d301 cdbd 487e 5dbe fe41 2abe c42c 63be
00000040: 2b6c 47be c4d7 60be 19a4 89be e2b6 40bd
00000050: 99b8 31be 6ae7 3bbe 180c 3dbe 7050 54bd
00000060: d5e3 3fbe dae4 bdbe a200 97be c431 a5be
00000070: 9594 8bbe 2fed 1ebe e745 cfbd 9067 adbe
00000080: 1821 fabd 538b d0bd 2943 afbe da15 a5be
00000090: 444c 96be a4c4 57be 136e 4fbe 4ee7 5ebe
000000a0: c80e dfbe 892b 0cbe e33f 96be a55c adbe
000000b0: 6f8f fdbd 0d97 56be d616 48be 79ec e63d
000000c0: d73e c7bd e8ee 90be 9997 e7bd 2715 9cbd
000000d0: fe10 7fbe f624 2cbe 1773 c1bd 181b 26bd
000000e0: a549 98be aceb 7bbd d82e 99be c7e8 4abe
000000f0: 4d32 65be ba45 87be 9fbf 88be 003a 79be
00000100: 098e debd 847b 7abe be69 9cbe fbea 8bbe
00000110: 2f02 69bd 7915 61be fa7f 73be 9414 6fbe
00000120: 4591 5fbe b706 a7be 8d93 febd 2afe 2fbe
00000130: 6324 9fbe da7c e0bd 1b2b b3be 2db2 07be
00000140: e53b 21be ca41 3dbc 2fea 1dbe 5f20 84be
00000150: 022b 16be db4b e0bd efe4 e5bd d38d 9fbd
00000160: abc3 8bbd 1d29 48be 733a 85be 5100 cebd
00000170: 1553 9abe 918f bdbe c0ad f5bd 1e5a 59be
00000180: a71b 90bd ad43 92be 3ae5 5fbe 7406 00bf
00000190: e1d9 81be 4961 c4be 8874 69be 077e a6be
000001a0: 0722 11be c108 88be 4c91 82be 755e 49be
000001b0: b833 c5be c9f0 b1bd b956 3bbe e8c0 8cbe
000001c0: a3c9 89be bfd0 24be 5cae afbe 87fa acbe
000001d0: dd65 38be 6dcb 63be c433 6abe baa6 38be
000001e0: 7530 b6be 15ee 1ebc 3ec7 6bbe ca6d 6bbe
000001f0: 3592 01bf f3a3 b2be b426 80be eb36 28be

fc2.weight f4 [64, 128]
0.3181902 0.10063358 0.28808147 0.10443737 -0.16679451 0.1142759 0.13695167 -0.24735121
0.21129352 -0.15326358 0.2436432 -0.0101629235 0.11197572 -0.08424001 -0.056888066 0.17979813
0.23836213 0.24824603 0.090937965 -0.41107655 0.04231631 0.3348462 0.21337435 0.17676468
0.08841752 -0.5360168 -0.3903516 -0.4596339 -0.09095825 0.07372104 -0.3091959 0.06249502
0.005534826 -0.51666087 0.14818995 -0.0001495792 -0.39704758 0.27647206 -0.22645219 -0.13824812
0.002239779 0.16216825 0.066642374 -0.19809787 0.10590138 -0.25372243 0.07344789 -0.25091365
-0.3952039 0.00885206 0.171619 0.13939114 0.1707751 0.35091898 -0.044533517 -0.118445285
-0.20383441 -0.14834656 0.14107257 0.07048601 0.13400356 -0.13400696 0.05950776 0.1540468
0.07359447 0.17381056 -0.054944865 -0.14763837 -0.16011065 0.22706929 0.023397518 -0.20005558
0.08663354 -0.02718336 0.16007608 0.12852018 0.11848482 -0.19394618 0.24319129 0.019869903
-0.30581787 0.33132455 0.3172187 -0.100216396 0.40981644 -0.14984229 0.051766474 0.090214655
-0.05984072 -0.053938102 0.18621567 0.07328323 0.086086184 -0.07640761 0.10478893 0.16909327
-0.025835358 -0.3567547 -0.021181216 0.060257986 -0.03134538 -0.016787246 -0.01686666 -0.23553503
0.01783467 -0.10210158 0.07833377 -0.07159732 -0.021913148 -0.106797785 0.03055313 -0.23429649
-0.106050536 0.040816575 -0.179091 -0.17857249 0.25695664 -0.42038706 0.0007295221 -1.1736498e-05
-0.07495689 0.121433534 0.026494304 0.19180085 0.11267605 -0.101763286 0.11703151 -0.110166386
0.2768519 -0.07630539 -0.36055112 -0.3998195 -0.2218423 0.036408357 0.013055671 0.27312392
-0.29975066 -0.2122033 -0.076420076 -0.16177694 0.21345693 -0.22524452 0.11606405 -0.013532246
-0.28229764 -0.2808384 0.28778026 0.22969691 -0.1782489 -0.22222205 -0.114105746 0.25365356
0.0037199645 -0.022245426 0.1822235 -0.31138605 0.016990133 -0.5901085 0.13902456 -0.009322576
0.38450506 0.16322424 0.19255419 -0.04759602 -0.27094096 -0.2019539 0.12243807 0.29351133
0.15515181 0.0572207 0.29287484 0.23691578 -0.12615417 -0.17759436 -0.45311573 0.049874954
-0.31178504 0.34279168 0.01483669 -0.054994024 -0.056963798 0.037519015 -0.18905127 0.054707747
-0.21489076 0.28126568 0.27068737 0.18511842 0.040915366 -0.054408964 0.12412872 0.07757029
0.20926382 -0.10939186 -0.009979638 0.124212265 0.046226934 0.123665154 0.026002586 0.15379818
0.013546196 0.18636791 -0.1359246 0.030176252 -0.20218827 -0.06033851 -0.20033102 0.19773674
-0.14030688 0.06536724 0.29529598 -0.06425263 -0.18018265 0.3531255 0.17486686 -0.41077155
0.03240939 0.034085114 -0.021578414 0.30933094 0.015014553 0.21921435 0.044754162 -0.02435801
-0.019464921 0.21391337 -0.11440379 -0.012852012 0.36087096 -0.029249197 -0.4219314 0.16015878
0.10322595 -0.30718502 -0.34261197 -0.16158485 0.065711536 -0.17999518 -0.10932731 0.1810178
-0.27464598 -0.13793465 0.23212138 0.11775466 0.13966046 0.29052618 0.2516919 0.25302273
0.25129485 0.069836445 -0.039293975 -0.16649844 -0.08667214 -0.10996916 -0.38546208 -9.3690935e-05
00000000: d3e9 a23e fa18 ce3d 6a7f 933e 43e3 d53d
00000010: 2ecc 2abe 7c09 ea3d 0f3d 0c3e a349 7dbe
00000020: 545d 583e 21f1 1cbe 9a7d 793e 6482 26bc
00000030: 8753 e53d 0786 acbd 7603 69bd 001d 383e
00000040: 3415 743e 3534 7e3e af3d ba3d a078 d2be
00000050: de53 2d3d f670 ab3e ce7e 5a3e cd01 353e
00000060: 3f14 b53d 6638 09bf 2adc c7be 2255 ebbe
00000070: 5248 babd 0efb 963d ed4e 9ebe c7fa 7f3d
00000080: 7c5d b53b e343 04bf 1bbf 173e 5cd8 1cb9
00000090: d249 cbbe bf8d 8d3e 15e3 67be ea90 0dbe
000000a0: 42c9 123b 6f0f 263e cc7b 883d 2bda 4abe
000000b0: d3e2 d83d e8e7 81be d96b 963d c177 80be
000000c0: 2a58 cabe 3b08 113c e4bc 2f3e 8dbc 0e3e
000000d0: abdf 2e3e a7ab b33e c768 36bd 7193 f2bd
000000e0: f8b9 50be 29e8 17be 5475 103e f85a 903d
000000f0: 3b38 093e 1f39 09be 69be 733d 72be 1d3e
00000100: b3b8 963d 65fb 313e de0d 61bd 832e 17be
00000110: 0cf4 23be da84 683e 27ac bf3c 5fdb 4cbe
00000120: ed6c b13d a3af debc fcea 233e cb9a 033e
00000130: 2ba8 f23d d499 46be 2307 793e 35c6 a23c
00000140: 2994 9cbe 5fa3 a93e 7d6a a23e 413e cdbd
00000150: 76d3 d13e 4270 19be 1509 543d 76c2 b83d
00000160: 8b1b 75bd 33ee 5cbd 52af 3e3e 8515 963d
00000170: f44d b03d 987b 9cbd 949b d63d c926 2d3e
00000180: aca4 d3bc 8da8 b6be 3b84 adbc 14d1 763d
00000190: 0364 00bd 6885 89bc f32b 8abc 1830 71be
000001a0: 041a 923c a21a d1bd 756d a03d 9ea1 92bd
000001b0: 3483 b3bc ccb8 dabd 8f4a fa3c 6beb 6fbe
000001c0: 0631 d9bd 482f 273d a263 37be b5db 36be
000001d0: d28f 833e f93c d7be 663d 3f3a e0e7 44b7
000001e0: ff82 99bd 25b2 f83d 950a d93c 7167 443e
000001f0: b3c2 e63d 4569 d0bd 37ae ef3d ea9e e1bd
00000200: 88bf 8d3e 0046 9cbd 289a b8be 24b5 ccbe
00000210: a12a 63be ee20 153d 74e7 553c e6d6 8b3e
00000220: eb78 99be d24b 59be 2182 9cbd dba8 25be
00000230: 7494 5a3e 80a6 66be fdb2 ed3d 5bb6 5dbc
00000240: 5189 90be 0dca 8fbe ef57 933e ab35 6b3e
00000250: e186 36be 2d8e 63be 46b0 e9bd e1de 813e
00000260: a6ca 733b 0a3c b6bc cc98 3a3e fe6d 9fbe
00000270: e42e 8b3c 5a11 17bf 745c 0e3e b8bd 18bc
00000280: d9dd c43e 4124 273e ed2c 453e 0bf4 42bd
00000290: c6b8 8abe 01cd 4ebe d0c0 fa3d 1e47 963e
000002a0: 1ee0 1e3e 4160 6a3d b1f3 953e 0d9a 723e
000002b0: 8f2e 01be 4cdb 35be c9fe e7be ae49 4c3d
000002c0: 4aa2 9fbe 6482 af3e 9715 733c 6a41 61bd
000002d0: df52 69bd 8aad 193d a896 41be 3b15 603d
000002e0: 530c 5cbe 0e02 903e 8997 8a3e af8f 3d3e
000002f0: df96 273d efdb 5ebd 3337 fe3d 2cdd 9e3d
00000300: 4149 563e d708 e0bd a381 23bc 0063 fe3d
00000310: 7458 3d3d 2844 fd3d 6003 d53c 457d 1d3e
00000320: ddf0 5d3c 3bd7 3e3e d12f 0bbe 3034 f73c
00000330: 710a 4fbe 8325 77bd 9323 4dbe 807b 4a3e
00000340: 9bac 0fbe 42df 853d 0931 973e e296 83bd
00000350: cd81 38be decc b43e 4c10 333e a650 d2be
00000360: b5bf 043d d59c 0b3d 37c5 b0bc a060 9e3e
00000370: 9aff 753c ba79 603e 2450 373d 738a c7bc
00000380: e674 9fbc 1b0c 5b3e 894c eabd 3f91 52bc
00000390: 14c4 b83e 039c efbc 6407 d8be aa00 243e
000003a0: 2068 d33d 5b47 9dbe d66a afbe 8076 25be
000003b0: c593 863d a850 38be ffe6 dfbd bb5c 393e
000003c0: 669e 8cbe be3e 0dbe 3ab1 6d3e 5b29 f13d
000003d0: 2703 0f3e d9bf 943e c3dd 803e 328c 813e
000003e0: b8a9 803e 6906 8f3d b8f2 20bd 917e 2abe
000003f0: 2a81 b1bd 8337 e1bd 495b c5be f07b c4b8

fc2.bias f4 [64]
-0.16203348 0.11945205 0.09826676 -0.008921704 -0.054001264 0.084907755 -0.06493812 0.10092923
-0.07196957 -0.1620937 0.07371752 0.23617275 -0.06743286 0.030683171 -0.037214477 0.06879816
0.25005016 0.197755 -0.059850156 -0.039062127 -0.259622 -0.048546534 0.12155876 0.1919323
0.047142815 -0.06123965 -0.07607117 0.2677976 0.008428542 0.088590436 -0.025793394 -0.030607674
0.2009894 0.09320222 0.062414158 0.065831155 -0.16233793 -0.02902695 0.004656925 -0.043390337
0.18807232 -0.07663707 -0.06946912 0.009009691 -0.115548044 -0.12105415 -0.11860405 -0.04133105
0.116634704 0.010410559 0.030756017 0.0086921565 -0.1399514 0.14335336 -0.07124947 -0.09171795
-0.11176755 -0.026272444 0.14975762 -0.09884046 0.0076471576 0.2363795 0.08537642 0.01042052
00000000: 1bec 25be 47a3 f43d 1540 c93d 572c 12bc
00000010: 6e30 5dbd 1ee4 ad3d 47fe 84bd fcb3 ce3d
00000020: c864 93bd e4fb 25be 36f9 963d 45d7 713e
00000030: 3d1a 8abd 465b fb3c 356e 18bd 0de6 8c3d
00000040: 9306 803e 4980 4a3e 7025 75bd 9cff 1fbd
00000050: 2ded 84be bbd8 46bd cdf3 f83d e789 443e
00000060: d318 413d 6dd6 7abd 34cb 9bbd c41c 893e
00000070: de17 0a3c e76e b53d ab4c d3bc f2bc fabc
00000080: 2ad0 4d3e cee0 be3d fda5 7f3d 7cd2 863d
00000090: ea3b 26be edc9 edbc 1e99 983b 11ba 31bd
000000a0: 0896 403e e5f3 9cbd d345 8ebd 629d 133c
000000b0: 74a4 ecbd 3deb f7bd aee6 f2bd bf4a 29bd
000000c0: 2dde ee3d 0d91 2a3c 0bf4 fb3c 8c69 0e3c
000000d0: 6b4f 0fbe 39cb 123e 3eeb 91bd 9fd6 bbbd
000000e0: 63e6 e4bd 4f39 d7bc 105a 193e de6c cabd
000000f0: 0295 fa3b 780d 723e d5d9 ae3d d4ba 2a3c

output_layer.weight f4 [10, 64]
-0.13788824 -0.38361782 0.0755839 0.07250347 0.24552763 0.06817423 -0.18149324 -0.36905557
0.12895331 -0.3475798 0.066582784 -0.40327397 0.030151738 0.18088509 -0.07793184 -0.29947835
-0.21159741 -0.07511641 0.028570222 0.1580158 -0.16062325 -0.5223163 -0.20150612 0.12849793
-0.07665823 -0.11172656 -0.053588264 0.15620904 0.09396375 0.15534173 0.11697302 0.284851
-0.32922694 -0.47072086 0.047105856 -0.31664315 0.1721349 -0.2844812 0.1856404 0.0019673703
-0.38311958 -0.3207829 0.18407053 0.17572533 -0.35412854 -0.039943084 -0.18498023 -0.11236997
-0.10410088 -0.021407284 -0.45535874 -0.032738525 -0.018638147 0.14870623 0.014887195 0.09568174
-0.42545572 -0.13299175 0.16592026 -0.23312795 -0.08324369 -0.22148539 0.21724124 0.18560386
-0.64673746 0.22348648 -0.28067723 -0.37089992 -0.13526851 -0.47808588 -0.4494356 0.00074625644
0.030482652 0.3422388 0.24458571 -0.17306162 -0.02421243 -0.38548294 -0.16989781 -0.19668579
-0.35687163 -0.2925915 0.0003590022 0.08652921 -0.25173247 0.015691467 -0.2976789 -0.235029
0.14825605 -0.6309147 -0.37895656 -0.2277513 -0.35674447 -0.15775272 0.22274002 -0.37622127
-0.06835542 -0.28738582 0.18968737 -0.048829567 -0.0061090756 -0.25080273 -0.2588067 0.045393642
-0.18813774 -0.49770138 0.3047748 -0.13302483 -0.49849117 0.009515882 -0.45927942 -0.13499571
-0.106399305 0.16160196 0.0006358476 -0.34264183 -0.4044637 -0.065446846 0.18184699 -0.090184815
0.33155522 0.30073768 -0.2875288 0.21010953 0.3145132 -0.031482387 -0.63002783 0.100622594
-0.13333993 0.2312903 0.13977878 0.15681736 -0.35748428 -0.12001892 -0.022563666 -0.43902314
-0.33620048 -0.2995877 0.16109473 0.4224597 -0.23663029 0.13995638 -0.73200434 0.24861264
0.115332566 -0.062062643 -0.3711131 -0.28796408 -0.09350218 -0.49085057 0.17086424 -0.14961039
-0.4517644 0.14522941 -0.11423857 0.10389229 0.21460308 0.1239492 -0.024710778 -0.14309424
0.15395688 -0.04125644 -0.2599856 -0.16923118 -0.14018016 -0.08135741 -0.49844655 -0.26677504
-0.019599386 -0.48200867 -0.3136423 -0.57646763 -0.1664469 -0.10020959 0.110793106 0.27254158
-0.1260874 -0.1483446 -0.38704196 0.017269192 0.14352247 -0.13415009 -0.26489466 0.17902805
0.06302086 0.11425001 -0.041051637 -0.06703536 0.15848659 0.23974869 0.1710609 -0.48916608
0.07672054 -0.35091603 -0.02951443 -0.24596211 -0.43971312 0.15010495 0.24964352 0.20661831
-0.18053856 -0.051220864 -0.1408056 -0.33915496 -0.20539516 0.13367428 0.3142294 -0.2141651
-0.11082509 0.19887315 0.0801013 -0.35127103 -0.45478016 -0.15503046 0.028945712 0.2822298
0.13922332 -0.38681144 0.19068505 -0.28147274 0.300598 0.079323605 0.24159533 -0.18581116
-0.48567322 -0.21804626 0.0875475 -0.18392307 -0.122347556 -0.03077375 -0.09865922 0.28614384
-0.49034163 -0.5382479 -0.124207355 0.32273248 -0.38923538 0.005078583 0.02415686 -0.41368628
-0.3195523 0.036823094 -0.02299243 0.14594513 -0.5052953 -0.44157317 0.1756077 0.18816064
-0.054711968 0.015173494 -0.011393801 0.31942397 -0.2455047 0.12286767 -0.32112578 0.07219062
00000000: 9332 0dbe 8e69 c4be bbcb 9a3d b37c 943d
00000010: 986b 7b3e ee9e 8b3d 5dd9 39be daf4 bcbe
00000020: 560c 043e fbf5 b1be 8e5c 883d ed79 cebe
00000030: c700 f73c f139 393e bb9a 9fbd 3a55 99be
00000040: feac 58be a2d6 99bd 190c ea3c e5ce 213e
00000050: 6c7a 24be 85b6 05bf 9f57 4ebe f694 033e
00000060: fdfe 9cbd e5d0 e4bd 5e7f 5bbd 43f5 1f3e
00000070: 1170 c03d e711 1f3e 8d8f ef3d fed7 913e
00000080: 6f90 a8be 5302 f1be 12f2 403d 0d1f a2be
00000090: 2244 303e 85a7 91be 8418 3e3e ffee 003b
000000a0: 4028 c4be a83d a4be fc7c 3c3e 57f1 333e
000000b0: 5650 b5be 5c9b 23bd 756b 3dbe 3a22 e6bd
000000c0: d832 d5bd 545e afbc c824 e9be d518 06bd
000000d0: 07af 98bc 7246 183e 6ce9 733c caf4 c33d
000000e0: 55d5 d9be fd2e 08be 00e7 293e 18b9 6ebe
000000f0: ab7b aabd 11cd 62be 7d74 5e3e f00e 3e3e
00000100: 9690 25bf a4d9 643e edb4 8fbe 98e6 bdbe
00000110: d483 0abe acc7 f4be 6c1c e6be 6ca0 433a
00000120: c1b6 f93c ed39 af3e ad74 7a3e 1137 31be
00000130: 2559 c6bc 055e c5be b1f9 2dbe 0068 49be
00000140: e1b7 b6be 8ece 95be 7638 bc39 3a36 b13d
00000150: 14e3 80be 648b 803c 5e69 98be 71ab 70be
00000160: 6fd0 173e a083 21bf 9806 c2be a337 69be
00000170: 36a7 b6be ee89 21be f615 643e 13a0 c0be
00000180: edfd 8bbd 3c24 93be 683d 423e 8301 48bd
00000190: a42e c8bb 3769 80be 5082 84be afee 393d
000001a0: 2ea7 40be b7d2 febe 710b 9c3e a937 08be
000001b0: 3c3a ffbe 80e8 1b3c ac26 ebbe 513c 0abe
000001c0: e1e7 d9bd fc7a 253e 03af 263a c06e afbe
000001d0: de15 cfbe ff08 86bd 1936 3a3e d1b2 b8bd
000001e0: 9bc1 a93e 4afa 993e fa36 93be f426 573e
000001f0: e007 a13e adf3 00bd 8149 21bf 3813 ce3d
00000200: 438a 08be 5dd7 6c3e 2b22 0f3e bb94 203e
00000210: 2e08 b7be 7bcc f5bd 70d7 b8bc a4c7 e0be
00000220: 7822 acbe 8f63 99be 04f6 243e a34c d83e
00000230: 364f 72be ba50 0f3e a364 3bbf 5094 7e3e
00000240: 7b33 ec3d 6635 7ebd 8902 bebe 0770 93be
00000250: 127e bfbd c450 fbbe 09f7 2e3e 7733 19be
00000260: aa4d e7be 05b7 143e e9f5 e9bd 7bc5 d43d
00000270: e9c0 5b3e 14d9 fd3d 426e cabc 4c87 12be
00000280: dfa6 1d3e 83fc 28bd d51c 85be f04a 2dbe
00000290: 638b 0fbe b79e a6bd 6334 ffbe bd96 88be
000002a0: e48e a0bc d7c9 f6be b995 a0be 6293 13bf
000002b0: 0e71 2abe af3a cdbd 7fe7 e23d 928a 8b3e
000002c0: 0e1d 01be a6e7 17be 5d2a c6be 1f78 8d3c
000002d0: 8ef7 123e a45e 09be 46a0 87be 2153 373e
000002e0: 1511 813d e9fb e93d c325 28bd d649 89bd
000002f0: 4f4a 223e ae80 753e 972a 2f3e fa73 fabe
00000300: a91f 9d3d 44ab b3be 3fc8 f1bc 7edd 7bbe
00000310: 1422 e1be 1db5 193e 8da2 7f3e c093 533e
00000320: 1adf 38be f8cc 51bd 582f 10be b8a5 adbe
00000330: 1c53 52be e9e1 083e ade2 a03e 194e 5bbe
00000340: 44f8 e2bd 67a5 4b3e 260c a43d ccd9 b3be
00000350: f2d8 e8be 4ec0 1ebe 8f1f ed3c 6d80 903e
00000360: 8f90 0e3e 260c c6be f142 433e 321d 90be
00000370: fbe7 993e 6a74 a23d c464 773e 4845 3ebe
00000380: 29aa f8be 8547 5fbe 1b4c b33d 5456 3cbe
00000390: 5b91 fabd 3b19 fcbc d80d cabd 7281 923e
000003a0: 0f0e fbbe 9dca 09bf 6d60 febd 313d a53e
000003b0: dc49 c7be 3e6a a63b 9be4 c53c b0ce d3be
000003c0: 5c9c a3be d0d3 163d 9f5a bcbc a472 153e
000003d0: 085b 01bf e115 e2be 81d2 333e 2fad 403e
000003e0: a819 60bd 3f9a 783c 11ad 3abc 8a8b a33e
000003f0: 9665 7bbe 0ca2 fb3d 996a a4be add8 933d

output_layer.bias f4 [10]
0.021582358 -0.11758023 0.17454404 0.1389783 -0.102938995 -0.29304346 0.057804517 0.051080972
-0.1771679 -0.09868913
00000000: 7ccd b03c e7cd f0bd acbb 323e 5450 0e3e
00000010: aed1 d2bd cb09 96be 6ec4 6c3d 483a 513d
00000020: 816b 35be 871d cabd
