Best_Models/ANN/best_model_2.pth (torch, 454208 bytes, 10 tensors)

normalize.weight f4 [784]
00000000: 6961 8d3f 4be2 a53f 47a7 873f 6d63 843f
00000010: 0065 853f 741d 823f 2315 8e3f f637 833f
00000020: 0617 863f c48d 8a3f 0e69 b13f 1b1a a93f
00000030: f4a7 a13f 7ad5 b33f 63e7 b43f e488 a43f
00000040: b12e 953f 1a9a a33f c8e1 933f 2a0a 993f
00000050: cf34 9d3f f231 913f 0cb7 6a3f d557 853f
00000060: 2da6 873f 4aef 8c3f 33dc 8b3f 26c0 823f
00000070: d728 7f3f 868f 803f a535 803f f641 683f
00000080: e3a2 803f 7ba5 733f 3a81 843f 0afc 8a3f
00000090: e3da 903f 3c49 b83f 90f0 b83f c432 9c3f
000000a0: 69f5 633f bd64 8b3f e6f4 963f 2368 863f
000000b0: 7754 933f 8de1 be3f 0cd5 ad3f 5ff1 953f
000000c0: 9f04 903f 2048 703f de43 6c3f c8a8 4c3f
000000d0: 91bc 7e3f 3ea8 753f 4220 7d3f ed27 813f
000000e0: 8f1b 833f a2c7 913f c4c1 853f 7c6a 893f
000000f0: 2cfe 863f 2a06 733f 01cf 943f 5613 923f
00000100: 6ef8 983f d632 913f cbbc 903f e09b 4c3f
00000110: 1196 813f 9273 953f edc4 a73f 5e08 963f
00000120: 208a 5e3f c4d5 6c3f d273 893f 3b7c 783f
00000130: a03e 963f 4c2b 913f 6e9e 903f 8453 533f
00000140: a931 773f 9162 833f 0095 853f 4e66 943f
00000150: 1539 6d3f 69eb 823f ecf0 633f 7dc0 8d3f
00000160: 203c 6a3f 7429 833f 473a 8c3f 3071 9c3f
00000170: 2365 9a3f f25e 5b3f d747 8e3f eaf0 7a3f
00000180: 18f1 533f d132 903f e80a 973f f594 843f
00000190: 89ff 583f 4349 663f e8d6 5b3f e11e 7a3f
000001a0: 7a90 963f 8da2 9e3f 0363 963f aa38 7b3f
000001b0: c9ee 833f 0ff0 753f 5add 6c3f c441 843f
000001c0: c0d8 8c3f ca46 823f 8832 713f 6449 843f
000001d0: 9f9f 5c3f 1357 853f 8dd5 8e3f 5294 873f
000001e0: 9594 763f a5fc 823f 5912 5e3f db0f 873f
000001f0: 38e7 7d3f d8ac 9a3f fe9f a03f 96fe 7f3f
00000200: d6c4 8c3f a419 5b3f 3b37 5b3f 8fe0 553f
00000210: ab68 723f 5987 903f ae4b 8e3f 95bb 923f
00000220: 5bff 903f 09bb 6c3f 9ef8 633f 48d2 733f
00000230: 6acf 5b3f a4d0 6a3f ff44 543f 92aa 6b3f
00000240: 93b1 8b3f 240d 813f 8241 923f bf75 873f
00000250: b81e 783f cd50 5a3f ad9f 573f 7e07 6f3f
00000260: 3b0c 6c3f a283 9b3f b2c1 973f cfb5 663f
00000270: 4d81 803f 9a49 5d3f 0a3f 4a3f 117b 633f
00000280: 67db 703f 5bde 873f 9211 863f 8046 913f
00000290: 2751 9d3f 7217 843f 043c 673f f33f 873f
000002a0: 5bef 873f a9db 753f e5eb 763f 83f0 763f
000002b0: b799 883f c457 903f 2b23 843f 7aa5 823f
000002c0: 5aa3 593f 4086 683f 1ea6 893f 52f5 893f
000002d0: e8e6 673f f9bb 883f 3c53 9c3f 34b5 693f
000002e0: af91 6a3f 3f02 733f bc9c 943f d3bb 823f
000002f0: 4b5d 723f 2e0c 7d3f 6ff0 853f 36dc 9c3f
00000300: c39c 993f 05f8 9a3f 3859 943f 2e99 a23f
00000310: fdc9 5e3f 1edb 833f 40d3 783f 685f 6e3f
00000320: 8e20 8a3f 566e 9b3f db63 853f 25b4 873f
00000330: f54d 933f 47c0 5f3f 43b6 453f 8f22 813f
00000340: b3d7 553f 1f27 7e3f 2a24 933f 06a5 823f
00000350: 8aaa 2e3f dba5 7f3f 6d8d 9b3f d27a a93f
00000360: 01e8 7c3f ea84 883f 5c2a 853f 42a5 863f
00000370: 1157 863f d1b6 9e3f 5aa8 8e3f 7076 733f
00000380: 93d3 863f 2a58 4f3f b7a3 833f 1d03 6f3f
00000390: 81c0 923f 140b 8e3f fe0b 673f 894b 923f
000003a0: 0858 a33f 6e86 793f f20f 883f 7d06 743f
000003b0: bf57 423f a154 8b3f 7ad7 8f3f 5c2e 953f
000003c0: 28d9 633f bd8a 963f 8296 803f 52bd 8a3f
000003d0: 78de 863f 8bf1 6c3f 18a6 743f 1ac2 963f
000003e0: 49c6 873f 6c27 8a3f d58a 843f acda 6c3f
000003f0: 6c02 763f 1a89 6e3f 6e3f 753f 1ab5 763f
1.1045352 1.2959684 1.0597924 1.0342842 1.0421448 1.0165238 1.11002 1.0251453
1.0475776 1.0824513 1.3860185 1.3211092 1.262938 1.4049523 1.4133114 1.2854276
1.1654874 1.2781403 1.1553278 1.1956227 1.2281741 1.1343367 0.9168556 1.0417429
1.0597588 1.1010525 1.0926574 1.0214889 0.9967169 1.00438 1.0016371 0.9072565
1.0049709 0.9517438 1.0351937 1.0858166 1.1316799 1.4397349 1.4448414 1.2202992
0.8904634 1.0890118 1.1793487 1.050053 1.1510152 1.4912583 1.3580642 1.1714286
1.125141 0.93860054 0.9229106 0.7994504 0.9950648 0.9595984 0.98877347 1.0090309
1.0242785 1.1389048 1.0449758 1.0735621 1.0546317 0.9493128 1.1625673 1.1412151
1.1950815 1.1343639 1.1307615 0.79925346 1.0123922 1.1675894 1.3106972 1.1721303
0.8692951 0.9251368 1.073847 0.9706456 1.1737862 1.1341338 1.1298349 0.8254931
0.9656015 1.0264455 1.0436096 1.1593721 0.92665225 1.0228091 0.8903949 1.1074368
0.91497993 1.0247025 1.0955285 1.2222042 1.2062114 0.8569175 1.1115674 0.98023856
0.82789755 1.1265508 1.1800203 1.0357958 0.84764916 0.8995554 0.85874796 0.9770337
1.1762841 1.2393357 1.1748966 0.9813334 1.0307246 0.96069425 0.92525256 1.033257
1.1003647 1.0177853 0.9421773 1.0334897 0.8618106 1.0417198 1.115892 1.0592139
0.9632047 1.0233351 0.86746746 1.0551714 0.99180937 1.2083998 1.2548826 0.9999784
1.099757 0.85586 0.8563115 0.83545774 0.9469096 1.1291305 1.1116846 1.1463495
1.1327928 0.92472893 0.89051235 0.9524274 0.85863364 0.9172461 0.8291778 0.92057145
1.0913566 1.0082135 1.1426241 1.0582808 0.96921873 0.8527954 0.8422802 0.9337081
0.9220616 1.2149546 1.1855986 0.9012117 1.003946 0.8644043 0.7900244 0.8885966
0.9408478 1.0614733 1.0474112 1.134964 1.2290391 1.0319655 0.9032595 1.0566391
1.061992 0.960383 0.96453696 0.9646074 1.067191 1.1276784 1.0323232 1.020675
0.8501488 0.9082985 1.075382 1.0777991 0.9058671 1.0682365 1.2212901 0.9129212
0.91628546 0.949253 1.1610332 1.0213569 0.94673604 0.9884671 1.0464 1.2254703
1.2000965 1.210694 1.1589727 1.2702997 0.8702696 1.0301244 0.9719734 0.9311433
1.0791185 1.2143047 1.0421098 1.0601851 1.1508166 0.87402767 0.77231234 1.0088671
0.83532256 0.99278444 1.1495411 1.0206611 0.6822897 0.9986245 1.2152535 1.3240607
0.9879151 1.0665562 1.0403552 1.0519183 1.049532 1.2399541 1.1145127 0.95102596
1.0533317 0.809939 1.0284337 0.93364125 1.1464998 1.1097131 0.90252674 1.1429302
1.276124 0.9747075 1.0629866 0.953224 0.7591514 1.0885202 1.1237633 1.1654773
0.8900323 1.176109 1.0045931 1.0839026 1.0536642 0.92556065 0.9556594 1.1777985
1.0607387 1.0793281 1.0354868 0.92521167 0.96097445 0.9317795 0.9579991 0.9637009

normalize.bias f4 [784]
00000000: dc6b 69be 53ba 6c3c 7360 033d b049 cd3d
00000010: 573f a73d a167 383e b575 023e e636 293e
00000020: 2d81 dc3d 75b1 773d c834 533d bc61 4d3d
00000030: 3034 17bb a1a9 ad3b 2dc9 41bc 66c7 21bb
00000040: fc61 423d e665 f63b 3976 493d 26ef 8c3d
00000050: 96ae 623d 4092 373d 3e0b 1a3e 4590 7f3d
00000060: ce4b ab3d 1bae 773d 8272 94bc 7278 40be
00000070: b2f3 48bd dd5d 43bc 6122 e33d 50d6 8c3d
00000080: 37be 293e a303 663d e500 f43d 9b82 103e
00000090: babb dd3d 1a73 1c3d 9e52 05bb 9635 9dbc
000000a0: a633 0cbd 25ee 20bd ee03 3dbd 147a 6abd
000000b0: 573a 2abb 2d46 f9bb 95f4 293d af0b 9c3d
000000c0: ed40 db3d d283 9c3d 8959 c03c 4309 bc3d
000000d0: bdb1 9d3d 6296 923d 6552 693d 7210 033c
000000e0: 1927 4b3d 871d a53c c2bc f63d 1dd2 1c3e
000000f0: 28c0 163e 26bc 023e 79a6 d83d 69f8 f13d
00000100: 58cf 9e3d aa37 bc3d e11b 8e3d e2c7 b5bc
00000110: 9a2b 8bbc bfaf 363a 045c 583c 30a9 e0bb
00000120: f709 00bd 7f71 a1bc 9510 a53c 5bc5 6b3d
00000130: 574c b03d 41fa a73d a396 843d 79b1 8e3d
00000140: ba4d 923d a11a c63c 5abd b53d 39cc 6c3c
00000150: e689 e93c c72a 323d e8e7 a93d fe81 ae3d
00000160: 88b8 033e c1c4 ae3d 645c b43d 608c 7c3d
00000170: c646 423d a461 c93d d7af 6f3d fb9c 033d
00000180: 1c5e 41bd ba68 1cbc 1a54 a0bc fa66 83bd
00000190: 6e1c 2cbd c66b eab9 94b3 19bb 681e 653d
000001a0: 54e7 513d 2216 663d 37b3 3d3d aad6 9a3d
000001b0: 7e5e 823d 55b8 3d3d 39e6 833c 1b7f 343d
000001c0: b1fe f73c 59a3 0d3d 1a3c 163d 7f94 d53d
000001d0: ddb2 a23d a4c8 b83d 76d4 e03d 13a5 c53d
000001e0: a71d d63d be7a 6e3d e07f fe3c 533a db3b
000001f0: a205 1ebd 3fe9 d8bc 5e43 2ebc 39ef b2bc
00000200: 8484 1dbd 0b06 90bc ebdf 79ba c75a 5c3d
00000210: aa3b be3d 9112 a93d 411c 783d 56d7 183d
00000220: 3120 f63c 81f7 653d 19b8 643c 08ba 773b
00000230: 1cbd 8c3b e87e ca3d 6ee8 d33d 14a8 d33d
00000240: 32fd 6a3d 2c39 a13d f603 fd3d 61db eb3d
00000250: 4b30 263e b994 863d ce76 7abc e2e1 de3a
00000260: 9e77 ebbc 61e1 acbb 0df9 f0bc 05c8 e4bc
00000270: 895d ccbc 278e 6a3c 5a8c 6a3d 77ea 5f3c
00000280: 452c 8d3d 8db1 883d 0cec 163d f254 003d
00000290: be0f 1abb fa94 95bc 771c c83c caa4 46bb
000002a0: e226 ac3c 5d97 023e 720a b13d 8912 783d
000002b0: f598 463d 6b18 683d 2819 d63d 9be4 133e
000002c0: 361b be3d 72b5 a13d ae75 833c bb5e 843c
000002d0: d92f b73c 25be e7bb 6faa 3dbb dd06 ad3c
000002e0: a3be 233a a0f9 e03d 9752 883d e064 903d
000002f0: 4500 053e 02ae 6c3d af95 0c3d 5ca3 4e3c
00000300: 57b7 353d 31f0 b13a 2092 953c 1020 c93c
00000310: b5f4 203d 4cbd a63d c129 d43d 369f e63d
00000320: 12f9 da3c ca50 453d 1202 bd3d 49a1 133e
00000330: 827e 7a3d 5de4 8e3d 499d 2b3c c7f1 1fbd
00000340: 8adf 8c3b 5e1e 64bb e2d0 feba 5cc0 32bc
00000350: dd53 b03c 5e98 b33d 1de1 6a3d 7ee7 863d
00000360: 164c b63d 2872 583d 90be 20bb be6b acbc
00000370: df78 24bc 27a4 8ebc c0f1 a3bc 7b08 b43d
00000380: 7107 6f3c 5df3 493d ea3c da3d fd78 8b3d
00000390: 0816 283d 8ccf 943d 7777 e33d d7e0 b63d
000003a0: ab8f 5b3d 0334 263d 58f4 623a 1574 a13c
000003b0: e74d 923c 2ae6 f339 adc1 7abc 243e 6cbb
000003c0: 1aa9 953d a89b 833d 4fbe 4d3d 1874 503d
000003d0: 42cb 443d e214 d43b 085e 52bc fc53 5ebd
000003e0: 402f 37bd 8678 8abc 50b7 f23c 3d5c d03d
000003f0: 072c 033d 6891 573d 0076 cd3d 1d5a 5c3d
-0.22795051 0.01444872 0.032074403 0.100238204 0.08166378 0.18008281 0.12740214 0.16524848
0.10766826 0.06047197 0.051564008 0.050142035 -0.0023071878 0.0052997624 -0.011827749 -0.00246855
0.047456726 0.0075194715 0.04918501 0.068815514 0.05534228 0.04481721 0.15043351 0.062393446
0.08364068 0.060468774 -0.018121008 -0.18795946 -0.04906053 -0.011924234 0.11090542 0.06876814
0.16576467 0.056155812 0.11914233 0.14112322 0.108268216 0.038195707 -0.0020343433 -0.01919059
-0.034228943 -0.039289612 -0.046146326 -0.05724533 -0.0025974715 -0.0076072426 0.041493017 0.07619416
0.10705743 0.0764233 0.023480194 0.09181454 0.076999165 0.071575895 0.056963343 0.007999526
0.049597833 0.020155681 0.120477214 0.15314527 0.1472174 0.12767085 0.10578627 0.118149586
0.077543914 0.091903046 0.06938911 -0.022190038 -0.016988564 0.0006968937 0.013205532 -0.006856106
-0.031259503 -0.01970744 0.020149508 0.05756126 0.08608311 0.08202029 0.06474044 0.06967444
0.071437314 0.02418262 0.088740066 0.014452987 0.028508138 0.043497827 0.08296186 0.08520888
0.12863362 0.085336216 0.088066846 0.06165731 0.047430776 0.098330766 0.058517303 0.03213213
-0.04720889 -0.009546453 -0.019571353 -0.064161256 -0.0420193 -0.00044712255 -0.0023452984 0.0559372
0.051246002 0.05617345 0.04631349 0.07560475 0.06365679 0.04631837 0.01610099 0.04406653
0.030272814 0.03457961 0.03667841 0.10428714 0.07944272 0.09022644 0.10978024 0.09650626
0.104548745 0.058222525 0.031066835 0.0066903024 -0.03857959 -0.026478408 -0.010636179 -0.021842586
-0.038456455 -0.017581007 -0.00095319626 0.05379751 0.09288724 0.082554944 0.06057382 0.037314735
0.030044647 0.05614424 0.013959908 0.0037800092 0.0042950045 0.09887487 0.10347067 0.10334793
0.057370372 0.07872233 0.12354271 0.115164526 0.1622936 0.06571335 -0.015287114 0.0017004574
-0.028743561 -0.0052758907 -0.029415632 -0.027927408 -0.024946945 0.014316118 0.057262756 0.013666741
0.06893209 0.0667449 0.036846206 0.03133101 -0.0023507918 -0.018259514 0.024427636 -0.0030310624
0.021014635 0.12753053 0.086445704 0.06056455 0.048485715 0.05666391 0.10454017 0.14442675
0.09282534 0.07895936 0.016047325 0.016158452 0.022361683 -0.0070722275 -0.0028940698 0.021121437
0.00062463636 0.10985112 0.06656378 0.070504904 0.12988384 0.057783134 0.034322437 0.01261219
0.0443643 0.0013575611 0.018258154 0.024551421 0.03929587 0.08141574 0.103595264 0.11260836
0.026730094 0.04817275 0.092289105 0.14416994 0.061155804 0.069771506 0.010474511 -0.039048936
0.004299109 -0.003480814 -0.0019440914 -0.01091012 0.021524364 0.08769296 0.05734359 0.065871224
0.08901231 0.052843243 -0.0024527647 -0.02104747 -0.010038584 -0.017412258 -0.020012736 0.0879068
0.0145891765 0.049304355 0.1065615 0.06810186 0.041036636 0.07266149 0.111067705 0.089296035
0.05360381 0.040576946 0.0008657626 0.019708673 0.017859412 0.00046520057 -0.015304965 -0.003604778
0.07307644 0.064261734 0.05023032 0.050891966 0.048045404 0.006472216 -0.012839802 -0.054279312
-0.044722795 -0.016903173 0.029628426 0.10173843 0.03202441 0.052628905 0.10032272 0.053796876

normalize.running_mean f4 [784]
00000000: fcff 7fbf 22ff 7fbf 1cf9 7fbf 46bd 7fbf
00000010: eca0 7fbf d78c 7fbf 32df 7ebf 261e 7dbf
00000020: ae16 77bf a8fa 63bf a3e3 3fbf 746a 23bf
00000030: a121 16bf c838 1abf 9a30 1bbf e544 13bf
00000040: 0d20 15bf 7a2a 2dbf b647 4ebf 0a0d 6dbf
00000050: aa9f 78bf effd 7bbf 0a16 7ebf 3b99 7ebf
00000060: cb58 7fbf 93a0 7fbf c0f7 7fbf c4ff 7fbf
00000070: 74f4 7fbf f5f0 7fbf d3df 7fbf 8d53 7fbf
00000080: 90c0 7ebf f4b6 7cbf 5414 73bf daa9 5dbf
00000090: f756 3ebf 8138 10bf b1eb b4be 70eb 48be
000000a0: e798 d4bd e271 ffbd 8451 18be 9f5a bfbd
000000b0: ade0 e1bd 8442 80be aef7 d2be 46a3 20bf
000000c0: bcac 4abf 931e 64bf c6ba 74bf f350 79bf
000000d0: b2be 7bbf b9de 7dbf 3189 7fbf 12f4 7fbf
000000e0: 06f1 7fbf 79ec 7fbf 8e91 7fbf 2fe3 7dbf
000000f0: 30d5 7bbf 2401 6ebf 526f 50bf ce04 34bf
00000100: d516 14bf bdcc ccbe 627d 7cbe 5850 42be
00000110: 7a51 2cbe 0f74 1fbe 9960 23be e910 12be
00000120: ee7c 24be 5438 3dbe 0190 89be 5586 e7be
00000130: 29a7 1cbf b7d4 37bf 7cae 59bf 78db 6fbf
00000140: d429 77bf 0a7e 7bbf 1ca3 7dbf 4f97 7fbf
00000150: b5e7 7fbf 5bcf 7fbf db8e 7ebf 99fc 7cbf
00000160: d2be 73bf e05f 57bf c8f5 35bf 747a 14bf
00000170: ed68 e7be 0a54 9ebe a97b 4cbe 71bd 3cbe
00000180: d547 2fbe 338d 14be dc8a 19be 3c56 0fbe
00000190: 2b2b 0ebe 6011 1abe e18e 3abe 61c6 9ebe
000001a0: 9a0e ebbe 64d6 15bf ebbf 3dbf 2810 5dbf
000001b0: 01d5 6fbf 63c5 76bf 6e5a 7bbf c45c 7fbf
000001c0: b0d5 7fbf 4c45 7fbf aa0b 7dbf a342 79bf
000001d0: 236a 67bf df67 43bf 80e2 19bf 67b4 fcbe
000001e0: a0a1 cfbe 4b8b 8cbe 7dcd 3ebe d2c1 3abe
000001f0: ffae 30be 2860 13be cb02 00be 4a4d e7bd
00000200: 6583 e2bd fa83 fdbd 52a7 0abe 1313 72be
00000210: 75c3 c0be c79b e8be e261 1dbf 7504 48bf
00000220: 1532 62bf 66ce 70bf 5bfe 77bf 7230 7ebf
00000230: ae7a 7fbf 8c30 7dbf 33c7 7abf 385c 73bf
00000240: e6f3 5abf d269 31bf fbcd 0abf 83fb ebbe
00000250: bc1d c0be bbb9 79be 2708 37be f30b 39be
00000260: 368c 2cbe c770 15be 7128 d7bd 3b48 c7bd
00000270: 3acb bdbd d4a8 babd 6f66 bcbd ddb6 3dbe
00000280: fae9 a1be 26bb c8be a573 02bf 5cd1 32bf
00000290: 0e2d 50bf 1604 64bf 5544 72bf 5a54 7dbf
000002a0: 7821 7fbf d684 7bbf af8e 77bf 5fa0 6cbf
000002b0: 01fb 4fbf 9605 22bf b886 ffbe 1484 d5be
000002c0: 60c7 afbe 7639 5dbe ca50 2abe 57f6 37be
000002d0: 355f 25be 04b2 06be 5284 b2bd 80c0 83bd
000002e0: 9932 78bd ebb9 5fbd 34ba 87bd 28a0 1bbe
000002f0: 9872 84be f9da abbe 5122 e1be 197b 1fbf
00000300: 03d4 3fbf 5d13 58bf d38a 6dbf 3062 7cbf
00000310: bfb1 7ebf de70 7abf d622 75bf 76cd 66bf
00000320: db8b 46bf fe38 17bf f2e5 e9be ef3c bfbe
00000330: c250 a5be 56d5 58be 533d 25be 0292 2dbe
00000340: f147 13be 8b5a f5bd 2c1d 91bd 6ed6 dabc
00000350: 6a78 3cbc e68e bf3b 54d1 18bc a7c5 b2bd
00000360: e0fa 46be aebc 88be e235 b9be 21d8 0abf
00000370: 311f 31bf 05a0 4bbf 8338 68bf 96ca 7abf
00000380: cf10 7ebf 2520 79bf d0a2 72bf 8786 60bf
00000390: d3a1 3fbf ec3c 11bf 3a9a dfbe 9cfb b0be
000003a0: 5eef 96be 00ed 4fbe 0e01 18be 42f6 0fbe
000003b0: f4d2 dbbd fc7c 9dbd 7a7c 33bd d644 673d
000003c0: 00d9 a23d b0e6 8b3d 4995 283d fc66 15bd
000003d0: 52d5 01be 96f9 52be 1e5f 9bbe 55ab f6be
000003e0: 8e50 20bf 6f1b 3bbf 7614 5fbf ba83 79bf
000003f0: 1182 7dbf e8eb 76bf f841 6fbf 9b40 5dbf
-0.99999976 -0.99998677 -0.99989486 -0.99898183 -0.9985492 -0.9982428 -0.9955932 -0.9887413
-0.9651898 -0.89054346 -0.7495672 -0.6383431 -0.58645064 -0.6024289 -0.60621035 -0.57527
-0.5825203 -0.6764294 -0.8057817 -0.9259802 -0.9711863 -0.98434347 -0.9925238 -0.9945256
-0.9974486 -0.9985439 -0.9998741 -0.9999964 -0.9998238 -0.99977046 -0.99950904 -0.99736863
-0.9951258 -0.98716664 -0.94952893 -0.865873 -0.7435145 -0.5633622 -0.35336068 -0.19621062
-0.10380726 -0.12472893 -0.14874846 -0.093434565 -0.11029182 -0.25050747 -0.4120459 -0.62749135
-0.7916982 -0.8910915 -0.95597494 -0.97389144 -0.9833785 -0.9916797 -0.9981871 -0.99981797
-0.9997715 -0.99970204 -0.99831474 -0.9917478 -0.98372173 -0.9297049 -0.8141986 -0.7031983
-0.5784734 -0.39999953 -0.24657205 -0.18975961 -0.16827956 -0.15571617 -0.15954818 -0.14264263
-0.16063282 -0.18478519 -0.2686768 -0.45219675 -0.61192566 -0.7180895 -0.8503187 -0.9369426
-0.965482 -0.98239195 -0.9907701 -0.99840254 -0.9996293 -0.99925774 -0.9943673 -0.98822933
-0.95213044 -0.8413067 -0.7107816 -0.5799935 -0.4519724 -0.30923492 -0.19969048 -0.18431641
-0.17117245 -0.14506988 -0.14994377 -0.1399774 -0.13883655 -0.1504569 -0.18218566 -0.31010726
-0.45909578 -0.5853026 -0.7412097 -0.8635278 -0.93684393 -0.9639494 -0.9818486 -0.99750924
-0.99935436 -0.99715114 -0.9884592 -0.97367305 -0.90396327 -0.7633037 -0.60111237 -0.49356386
-0.40552998 -0.27450022 -0.18633075 -0.18237999 -0.17254256 -0.1439215 -0.12501065 -0.112940386
-0.11060218 -0.12378688 -0.1354039 -0.23640089 -0.37649122 -0.4543135 -0.6147748 -0.781318
-0.8835767 -0.9406494 -0.9687249 -0.9929267 -0.9979657 -0.989022 -0.97960204 -0.9506259
-0.8552841 -0.69302094 -0.5422055 -0.46090326 -0.37522686 -0.24387257 -0.17874204 -0.18070965
-0.16850361 -0.14593802 -0.105057605 -0.09730574 -0.09267278 -0.09114233 -0.09199225 -0.18526788
-0.31623822 -0.39205283 -0.5095771 -0.6985071 -0.8131875 -0.89068735 -0.94635516 -0.98956835
-0.99660444 -0.98249567 -0.9670209 -0.92432207 -0.81242377 -0.63289773 -0.4990747 -0.4170233
-0.343318 -0.21603951 -0.16632381 -0.17965065 -0.161496 -0.13153845 -0.08716644 -0.06433201
-0.06059513 -0.054620665 -0.06627312 -0.15197814 -0.25868678 -0.335655 -0.43971494 -0.6229721
-0.7493288 -0.84404546 -0.92789954 -0.9858732 -0.9948997 -0.9782847 -0.9575628 -0.9015726
-0.7755715 -0.5907134 -0.45683247 -0.37351176 -0.32288176 -0.21175131 -0.16136675 -0.16950229
-0.14382912 -0.1198016 -0.07085642 -0.026713576 -0.011503318 0.0058458922 -0.009327251 -0.087291054
-0.19431639 -0.2670645 -0.36173922 -0.54236037 -0.6918822 -0.79541045 -0.9071123 -0.9796537
-0.992444 -0.97314674 -0.9477968 -0.8770527 -0.748563 -0.56733584 -0.43672353 -0.34566963
-0.29479498 -0.20305252 -0.14844152 -0.14058784 -0.107335955 -0.076898545 -0.043819882 0.05646213
0.07951546 0.068311095 0.041157994 -0.036475167 -0.12679031 -0.20603022 -0.30346006 -0.4817759
-0.62622917 -0.73088735 -0.87140596 -0.97466624 -0.9902659 -0.96453714 -0.93460035 -0.86426705

normalize.running_var f4 [784]
00000000: f410 db30 91b9 5434 3168 a835 e0fc 063a
00000010: 8d85 503a 26ed 203a 6648 ca3a 5caf af3b
00000020: 3164 b83c bde7 b23d f1f7 433e c5dc 833e
00000030: 9483 8a3e eeb7 873e 86ab 873e 3f94 8e3e
00000040: d4eb 913e 515c 713e 4911 1b3e 078a 6c3d
00000050: 32ea c93c 35af 5e3c ab94 ce3b c07a 9c3b
00000060: 4d89 c83a 0645 993a 423b 8638 7035 3434
00000070: d5a2 7838 61b2 0739 c012 0039 bafa 243b
00000080: ab71 803b 5907 283c efc7 2d3d a46e 093e
00000090: 42d1 873e 3fac d83e 71b1 103f f83e 1b3f
000000a0: a002 273f ebb5 213f 995f 213f 6abe 253f
000000b0: c1ee 1e3f 4b0d 143f a262 073f 8be4 b93e
000000c0: ebad 5d3e 794a f83d 7173 453d eadb 143d
000000d0: e0e1 9d3c 9c4d 213c 2e36 a43a 4804 9b37
000000e0: 2834 4139 08df 9539 5004 613a e78d 0d3c
000000f0: 2c1a 893c 9aec 8d3d 70d1 4e3e 6cc6 a43e
00000100: a182 cb3e 63fe f33e 7135 083f 3bfd 0a3f
00000110: f980 0d3f 1b29 0f3f 77e9 113f 7995 0d3f
00000120: d26a 073f 59b2 043f 399e 013f 29a3 e03e
00000130: 546c c93e 3cb0 9b3e 4a72 2e3e ee1a 963d
00000140: 1a79 323d 4708 9a3c db52 433c 4a37 373a
00000150: 75a0 df38 7b69 6939 084b 973b d599 493c
00000160: 4cac 493d 4d09 2f3e c062 9b3e 359a c63e
00000170: 8c5f ee3e c212 003f cc18 093f d38e 063f
00000180: dae7 0b3f 18be 0d3f caaa 0d3f d309 0c3f
00000190: 529c 033f 8a8c 003f f6db 023f a615 f53e
000001a0: 4404 e83e 6204 cc3e 445e 8d3e 4056 233e
000001b0: 2937 a43d 7a69 333d 3d79 a73c 1423 c03a
000001c0: b511 8039 8f18 2c3b be3f 3e3c 5edb da3c
000001d0: 3796 d63d 247b 813e 1ad7 c53e 3f5c eb3e
000001e0: 3ebe fb3e 2e3d 033f da6f 083f f436 033f
000001f0: 3376 053f 4ef2 093f 93d1 063f 9127 053f
00000200: b1c0 fb3e 142b f83e 09cb fd3e 408a fd3e
00000210: 6ecf f53e 1f82 f53e 2ca2 b93e 71ff 753e
00000220: dea0 093e fe51 883d 9d90 223d 3dc8 a53b
00000230: a3a5 7e3a a70d 2e3c cb11 c33c 6c8a 623d
00000240: e04e 293e 58db a03e 0ad5 de3e 556a ed3e
00000250: 7db5 f73e ec47 ff3e 4eea 043f 1ace ff3e
00000260: d34e 013f 001d 003f 4946 013f a2e8 ff3e
00000270: e72f f23e 85bd ee3e 1b9e f73e 024e fa3e
00000280: a7d5 fd3e 268b 003f 9f40 e03e 379c a63e
00000290: 33aa 603e 5ce1 053e b1b3 7a3d d780 d93b
000002a0: 8735 0d3b 2465 a63c 11cf 223d 21f2 b13d
000002b0: 4c85 603e 615f be3e 5f71 e93e fbed fd3e
000002c0: b1bf ff3e e597 023f 7d3f 033f 3e69 fd3e
000002d0: c0e6 003f 6136 003f ee4a 013f 1822 fb3e
000002e0: 6039 ef3e 8c07 e73e 8ffe eb3e 7558 f43e
000002f0: a969 023f 6bc4 033f 0b05 f53e d6c3 c03e
00000300: 7913 923e 039e 3f3e 8db5 ac3d 314e 1f3c
00000310: 9f1a 533b 2e0c d73c 3017 553d 0015 f03d
00000320: 6fd0 803e 51df d03e 4692 f93e 5d91 063f
00000330: e664 033f 71ca 003f fb91 013f e384 fa3e
00000340: 6d40 fd3e 675f f93e 9a34 f23e b72e f23e
00000350: db46 de3e 627e d73e 89bb e33e 9d29 f23e
00000360: 30ce 073f 9289 093f 1c26 043f 0585 dd3e
00000370: dc6c b33e cb25 763e f664 dc3d aa73 7e3c
00000380: 1a14 ad3b 78d4 003d 74d2 813d 3d5e 133e
00000390: 9ebf 8d3e 2358 dc3e 6e27 033f 404b 0d3f
000003a0: e11b 0a3f 243c 003f 0b7f 023f de93 f83e
000003b0: 1050 f83e 98c4 f13e 634d e93e 6194 db3e
000003c0: 30af c53e 86b7 c53e 6485 d63e 7ec7 f03e
000003d0: 784a 0a3f 19e3 0c3f 6957 083f 0ebb eb3e
000003e0: c8d0 c83e 57d9 9c3e 4576 1a3e f264 a73c
000003f0: f87d f03b 63d7 353d 40f2 9e3d 8294 233e
1.5939166e-09 1.9811547e-07 1.2547299e-06 0.00051493756 0.0007954471 0.00061388535 0.0015432953 0.0053614806
0.022508712 0.08735607 0.19137551 0.2575437 0.2705351 0.26507515 0.2649805 0.27847478
0.28500235 0.23570372 0.15143313 0.05774882 0.024647806 0.013591577 0.0063043437 0.004775375
0.0015299708 0.0011693544 6.4006555e-05 1.6783247e-07 5.9279457e-05 0.00012941055 0.00012214016 0.0025173859
0.0039198003 0.010255658 0.042427 0.13421112 0.2652684 0.42318913 0.56520754 0.6064296
0.6523838 0.6316821 0.63036495 0.64743674 0.6208306 0.57832783 0.52884877 0.36307177
0.21648376 0.121235795 0.048205797 0.03634254 0.019272745 0.009845164 0.0012528354 1.8479433e-05
0.00018425344 0.00028585666 0.00085837115 0.008639789 0.016736113 0.06929894 0.20197082 0.32182634
0.397481 0.4765502 0.53206545 0.5429265 0.5527492 0.55922097 0.56996864 0.553062
0.5289737 0.51834637 0.50632054 0.4387448 0.3934046 0.30407894 0.17035785 0.07329355
0.043572523 0.018802775 0.01192161 0.00069891347 0.00010663356 0.00022259906 0.0046170987 0.012304743
0.04923658 0.17093392 0.30348778 0.38789526 0.4655727 0.5002862 0.5355346 0.5256168
0.5465065 0.55368185 0.5533873 0.5470249 0.514104 0.50214446 0.51116884 0.4786808
0.45315754 0.39847094 0.2761098 0.1595087 0.080183335 0.043801762 0.020443553 0.0014658892
0.00024427255 0.0026259755 0.011611877 0.02671593 0.1047787 0.2528926 0.38640672 0.45968816
0.4916858 0.5126523 0.5329567 0.51255727 0.5213348 0.5388535 0.52663535 0.520135
0.4917045 0.48470366 0.49568966 0.4951954 0.4800982 0.47950837 0.3625654 0.24023224
0.13440272 0.06656264 0.039688695 0.0050592707 0.0009714013 0.010623372 0.023812195 0.05530779
0.16533995 0.31417346 0.4352191 0.46370187 0.48380652 0.4985956 0.5192002 0.4996193
0.505109 0.5004425 0.5049787 0.49982172 0.47302172 0.46628967 0.48362812 0.4888764
0.49577066 0.50212324 0.43799302 0.32541057 0.21939926 0.13074249 0.061206523 0.0066376734
0.0021546797 0.0203119 0.039748255 0.086887605 0.21925849 0.37182143 0.45594308 0.49595627
0.49950936 0.5101302 0.5126875 0.49494356 0.50352097 0.50082976 0.5050496 0.4904945
0.4672346 0.45122945 0.4609265 0.47723737 0.50942475 0.51471585 0.4785541 0.3764941
0.2853048 0.1871262 0.084330656 0.009723232 0.0032211912 0.026250925 0.052024066 0.117227554
0.25159022 0.40795377 0.4874441 0.52565557 0.51325834 0.503089 0.50613374 0.4892951
0.49463215 0.487056 0.47305757 0.47301266 0.43413433 0.4208861 0.44479015 0.47297373
0.5304899 0.5372554 0.5162065 0.43265548 0.3504399 0.24037854 0.10761444 0.015530506
0.0052819373 0.031452626 0.06338969 0.14391418 0.27685255 0.43035993 0.5123204 0.5519295
0.5394879 0.5009177 0.509751 0.48550314 0.48498583 0.47220302 0.45566854 0.42886642
0.3861022 0.3861658 0.41898644 0.470272 0.5401988 0.55034024 0.5325838 0.4604115
0.39221787 0.30634567 0.15084179 0.020433877 0.0073392354 0.044394862 0.07761049 0.1597462

fc1.weight f4 [128, 784]
00000000: c4da 66bc e7ba 543d 5ea7 44bd 5c3b adbd
00000010: 4d66 29be c027 68bd 95fc 063d 8d21 2d3d
00000020: 30bf 553d 379a 50bb 45ab 313e 8e09 1e3e
00000030: 11c9 59be 90be 4abe 1e48 2cbe d455 31be
00000040: 53fb e2b9 8331 c23d 64d9 9e3c 78cf 023e
00000050: 990e 083e 9965 d7bd 5c55 87bd 8b51 4ebe
00000060: c624 81bd 3383 d1bd 37a0 b6bd 3730 12bd
00000070: 6235 a7bd 01f9 c63d bec0 c5bc b251 9c3c
00000080: 199e 74be d1cb 853d 4574 f2bc ba0d 76bc
00000090: 651b f73d f2e4 853e 15cd 703e 98ed ec3d
000000a0: f2d0 fcba d1e8 84bd be3f 7cbd eaf3 dbbc
000000b0: e4a8 89bc a3e3 a53c 6bee 5a3e 25e0 7f3e
000000c0: 5317 f33d 547c fb3d 8f78 763d 5535 c1bb
000000d0: a688 10bd 68d8 363d c77e 15be 5983 3dbd
000000e0: 957a 93bd 53ea 7d3d 72ed 403e afca b53c
000000f0: b252 24bd 0863 8d3d ec4e a73d 4e8a bd3c
00000100: 7523 0a3e 0d7a 4e3d 6225 a03d c904 5fbc
00000110: 7e43 d0bd fec3 29be e3d6 8cbe 8d35 53be
00000120: 76d0 b63c 11ce e63d bf87 183d 1642 363e
00000130: efdd 2a3e 028e 343e e642 0f3e 796f ca3d
00000140: 9f1e 57bd 55b4 e6bc 9620 1abc ff25 04be
00000150: 5bac 66bd ef9e 153e 447f 203e 5107 233e
00000160: deda fd3d 9eff bb3d 2935 26bd 0477 bfbd
00000170: 0a80 1c3d 3f38 d93c c77f 093d e1c2 0f3c
00000180: 405f 1dbd 1d6b f8bd 067f 43be 2d9b 55bd
00000190: b8e8 f2bb a6b7 0e3d c20f c43c a936 d93c
000001a0: 568f 443c 3424 a03d 2726 813d de02 0d3e
000001b0: 56fe dd3d 5a16 e0bc 7642 063d e874 8fbd
000001c0: 37dc 86bd 002e be3d da2e a5bd f707 2c3e
000001d0: af78 183e d088 0d3d dab6 52be a5ba 4ebd
000001e0: 4c16 42bd 897c d33c bf3b c9bb fc83 acbd
000001f0: bae1 d13b 21fb 1dbe 63af 2abe f38d afbc
00000200: 5bc8 12be 699b 7cbd 058f 7c3d a6b5 dcbc
00000210: 2fc8 c6ba 507a 7cbb 8954 7ebd 0bd2 f63d
00000220: beb5 5e3e e618 803c da12 1fbd 8fea 92bd
00000230: 57a0 8fbd 00fa d03d c1bf 5bbd 1194 81bc
00000240: 486d b23d 6645 c0bc 6616 d4bd 9860 3d3c
00000250: 1576 cbbc b827 8f3b 038d 53bc fcd1 983c
00000260: 2dbe a23c 9d7b 80bd cc60 0fbe 79ab 4c3d
00000270: 56e9 653d 68a7 303d 4013 1dbc ff30 e0bc
00000280: f831 193d 10be 23bd b817 01bd 3b3d bd3d
00000290: 6b46 3c3e 5a55 5f3c 5fd5 46bd 7ee4 52bd
000002a0: 0ecd abbd 33df 32bd 844f abbb 9e22 28bd
000002b0: 5b55 2f3d c90a adbd 0552 67bd d470 3abc
000002c0: 8aed cdbc 70c1 d7bd 662c 7abd a86b 6bbd
000002d0: 3de3 5b3c da60 bc3c 5433 9bbd 5023 dc3d
000002e0: 9dbd b9bc 6a19 c9bd cf01 c2bd 36a4 83bd
000002f0: 3f59 9a3d fe13 0f3d 39e1 af3d 79b9 103e
00000300: d494 863e 756f 0d3e 4384 1f3d 5ac9 2c3d
00000310: b5d1 2bbd f44d 003a 9e42 0b3d c807 1ebe
00000320: 6592 023b 4e9a d9bd f762 c5bd 9aa5 be3c
00000330: 25b9 cebd cc11 b0bd 9e00 bb3b 1b08 d3bc
00000340: 5b80 5ebc 5738 10bc f598 8a3c aec3 de3d
00000350: 6637 3d3d 73bf dbbd 373f 19bd 4a40 5abc
00000360: c1ac fc3c 1eee 0b3d 2b8e 8d3c f5c6 453d
00000370: 4af3 fa3d ad72 a1bc 321a a13d c892 63bd
00000380: 350c d1bc 3324 043d 7743 afbd a816 c5bd
00000390: 60b0 4b3c ea66 56be 57ab 2abe 6e77 7cbc
000003a0: d002 e2bd 04c0 1d3c 350c 9b3d 1d54 c0bd
000003b0: 3ed0 a03d 0866 db3d 6ba3 1e3e 2b9c 813e
000003c0: 2027 0f3e 962f c23d fd52 043d 2d55 683d
000003d0: dde5 0dbd 89b5 1dbd 3aa2 b5bd 65b4 583d
000003e0: d6ed 243c 959a 8bbd bedd 5dbd 1d5b 7c3d
000003f0: 9392 ebbc c56f dabd 3593 15be c442 16be
-0.014090244 0.051936056 -0.048011176 -0.084585875 -0.16542931 -0.056678534 0.032955725 0.042268325
0.052184284 -0.00318302 0.1735049 0.15433332 -0.21268107 -0.19799256 -0.16824386 -0.17317897
-0.0004329333 0.094821 0.01939077 0.12774456 0.13286819 -0.10517425 -0.06608078 -0.20148294
-0.06305842 -0.102301024 -0.08917277 -0.035690513 -0.08164479 0.097154625 -0.024139758 0.019081924
-0.23888434 0.065330155 -0.029596457 -0.015017921 0.12065772 0.26151234 0.23515733 0.11568755
-0.0019288345 -0.06489719 -0.061584227 -0.026849706 -0.016804166 0.020250147 0.21380012 0.24987848
0.11869683 0.12279573 0.060173567 -0.0058962503 -0.035286568 0.044639975 -0.14599143 -0.04626784
-0.07201115 0.061991047 0.18840578 0.022191374 -0.040117927 0.06903654 0.0816935 0.023137238
0.13490088 0.050409365 0.0781963 -0.013611981 -0.10169123 -0.16578671 -0.27507696 -0.20625897
0.022316199 0.11269773 0.037238833 0.17798647 0.16686223 0.17632297 0.13990363 0.09884543
-0.052519437 -0.02816216 -0.009407183 -0.1290512 -0.056316715 0.1461141 0.15673548 0.1592076
0.12395261 0.091796145 -0.04057804 -0.09348872 0.038208045 0.026516078 0.033569124 0.00877449
-0.038420916 -0.12129805 -0.19091424 -0.05214994 -0.007412996 0.03484311 0.023933295 0.026515322
0.011997065 0.07819405 0.06306105 0.13770625 0.10839526 -0.027354408 0.032778226 -0.0700472
-0.065849714 0.092861176 -0.08065577 0.16799913 0.14889787 0.034554303 -0.20577565 -0.050470967
-0.047384545 0.025816219 -0.0061411555 -0.084236115 0.0064050825 -0.1542783 -0.16668467 -0.021429991
-0.14334242 -0.06167165 0.06165983 -0.026942085 -0.001516586 -0.0038525052 -0.062092338 0.12051781
0.21749017 0.015636873 -0.038836338 -0.07173645 -0.07013004 0.10203934 -0.053649668 -0.015817674
0.0871225 -0.023470592 -0.10355835 0.011558674 -0.02483658 0.0043687485 -0.012912038 0.018654816
0.019866074 -0.06273577 -0.14001769 0.049968217 0.05613073 0.0431284 -0.009587109 -0.027367113
0.03740117 -0.03997618 -0.03151676 0.092401944 0.18386237 0.013631189 -0.04854333 -0.05148744
-0.083887205 -0.04366989 -0.005227985 -0.04104864 0.04280601 -0.08449323 -0.056474704 -0.011379439
-0.025137682 -0.10534942 -0.061077498 -0.057475716 0.013420877 0.022995401 -0.075781494 0.10748923
-0.022673422 -0.098193005 -0.09473001 -0.06427805 0.075365536 0.034931175 0.0858788 0.14133252
0.26285422 0.13812049 0.038944494 0.04218421 -0.04194804 0.00048944284 0.033999078 -0.15432656
0.0019923684 -0.106251344 -0.09638017 0.023272324 -0.10093907 -0.085971445 0.0057068607 -0.0257607
-0.013580407 -0.008802495 0.016918639 0.10877167 0.04619541 -0.107298754 -0.037413802 -0.013320992
0.030844094 0.034162633 0.017279705 0.048285443 0.12253435 -0.019708002 0.078663245 -0.055559903
-0.025518516 0.032261085 -0.0855779 -0.09623462 0.012432188 -0.20937696 -0.16666923 -0.015409334
-0.11035693 0.0096283 0.07570688 -0.09391043 0.07852219 0.1071282 0.15492027 0.2531446
0.13979769 0.094817325 0.032305706 0.056721855 -0.034643043 -0.038503204 -0.08868833 0.052906413
0.01006647 -0.068165936 -0.054166548 0.06161033 -0.028756415 -0.106658496 -0.14606936 -0.14673907

fc1.bias f4 [128]
00000000: ed83 60bd 1098 11bd 1206 d8bc 7ff5 c8bd
00000010: de68 3ebc 799f d5bd 4f90 bc3c b381 28be
00000020: fc8b bdbd 709a f5bc 32db 5ebd c77f 9cbd
00000030: 468d 37ba 191b d6bd 450f 0cbd e0b0 02bd
00000040: 1c38 01bc bc33 08bd dcce e7bd b082 f5bd
00000050: b2e5 12bc 170d e2bd 4783 f2bd 48a1 b5bb
00000060: 438e 26bd b6bf b9bd 9201 87bc 6093 97bc
00000070: 5dcb 90bd 0af4 a9bc f8c6 82bd 409e 18ba
00000080: ce08 93bc da14 b9bd 4327 ebbd fb82 63bd
00000090: 5e44 e1bd 16b6 70bd 7607 93bd 0880 93bd
000000a0: 8025 8ebd b623 59bd d04f 9ebd de5c 19be
000000b0: f12d 29be 15e5 2cbe ecca 8bbd 63db d4bd
000000c0: d992 76be c3f8 b2bd 7a68 14bd b21e a8bd
000000d0: 9ac7 90bc e815 0bbe dce6 29be 3056 d2bc
000000e0: 2694 9ebd 08dd 99bd 34a7 00bd c356 45be
000000f0: ce20 ea3b 465e 67bd 12f5 e2bd c3a9 a4bd
00000100: 71e2 de3d 7617 d23c 19df a6bd 663b 52bd
00000110: 600a e4bd c768 30be aefc 37bc 11cd 87bd
00000120: f161 eebd d810 5dbe 228e b3bd 3386 c0bd
00000130: 30bc b8bd 3686 45be 811c d4bd d4b2 26be
00000140: 33fb 30be 4b17 29be 1213 e93c a4d3 ccbd
00000150: 2b32 723b c85b 79bd 1afb 93bd 0365 fcbd
00000160: f898 a8bd b6c2 a5bd c109 14be 6b25 07bd
00000170: 6ff6 9ebd 75d6 16bc a2a5 9cbd d404 41bd
00000180: efef 68bd 2486 09be bffe f7bc 4510 03be
00000190: 4c36 ed3a ffbf a8bd d99a f7bd 945a 133b
000001a0: 5419 debd 8b32 3fbc 95c9 22bd 6a55 12bd
000001b0: 4851 c4bd 71b5 85bc 8ca8 88bd d5fb e8bd
000001c0: 0a89 d03c b634 24be 7f9a 11be 12db 02ba
000001d0: 833b 7fbd 58b8 9cbd b4d2 08be 6ebd 4dbd
000001e0: 5bf1 82bd b485 acbd 23c7 2dbe fe32 57bd
000001f0: f2f0 b4bd 2e79 b8bd c469 87bc ab8a 19be
-0.054813314 -0.03554541 -0.026370082 -0.0981245 -0.011621682 -0.104308076 0.02301803 -0.16455726
-0.092552155 -0.029980868 -0.05440826 -0.07641559 -0.00070019474 -0.10454387 -0.03419425 -0.031906962
-0.007886913 -0.033252463 -0.11318752 -0.11987817 -0.008965896 -0.11037653 -0.118414454 -0.005542908
-0.040663015 -0.09069769 -0.016480241 -0.018502891 -0.070700385 -0.02074625 -0.063856065 -0.0005821921
-0.017948534 -0.0903718 -0.11482098 -0.055544835 -0.10999368 -0.0587674 -0.071791574 -0.072021544
-0.06940746 -0.053012572 -0.07730067 -0.14976832 -0.16521432 -0.16884263 -0.06825814 -0.10393407
-0.24079455 -0.08738854 -0.03623245 -0.0820898 -0.017673302 -0.13582575 -0.16591972 -0.025675863
-0.07743101 -0.075128615 -0.031409457 -0.19271378 0.007145024 -0.05648639 -0.110819 -0.08040192
0.10883034 0.025645953 -0.08148021 -0.051326178 -0.111347914 -0.1722747 -0.011229677 -0.0663091
-0.116397746 -0.21588457 -0.08767344 -0.094005965 -0.09020269 -0.19289479 -0.10356999 -0.16279155
-0.17283325 -0.16512792 0.028451476 -0.10001305 0.0036956172 -0.060878545 -0.07225628 -0.12323954
-0.082323015 -0.08093779 -0.14456846 -0.03299467 -0.07761847 -0.009206404 -0.076487795 -0.047123745
-0.056869444 -0.13430077 -0.03027284 -0.12799175 0.0018097847 -0.08239745 -0.12090082 0.0022484409
-0.10844675 -0.011669765 -0.039743025 -0.03572599 -0.09585816 -0.01632187 -0.06672773 -0.11376158
0.02545597 -0.16035733 -0.14219092 -0.00049917505 -0.062312614 -0.07652348 -0.13361627 -0.050229482
-0.06393691 -0.08423939 -0.16970496 -0.052538864 -0.08835019 -0.09007488 -0.016529925 -0.14994304

fc2.weight f4 [64, 128]
00000000: 11a1 493c f80f a33d c1d8 2f3e 9f6e 013e
00000010: 0e84 e7bd 561a 62bd ca79 1a3e 2f93 843d
00000020: edb9 75bd 7708 063e 5b15 f93c 75b3 03be
00000030: 3a4b df3d 17eb a23d 2f35 0f3e 2cfc c2bb
00000040: ab99 803d cdc5 99bd b190 353e 43f6 3b3e
00000050: eabb 44be 7c7c afbd 82a1 073e c039 973e
00000060: 1d7f 9a3d 6376 9f3b 1a8c 2c3d e976 96bd
00000070: 64a0 b93d cd02 30bd 33a5 d23d 0f8c 4cbe
00000080: b2a0 62bd 0041 d93d 5733 80be e41d a0be
00000090: da56 04bd 92c2 54bd 3852 07be eda5 09be
000000a0: aaee 8cbe 8c7f 04bd 2498 9dbd 0c82 afbd
000000b0: 4110 65be c65a 3ebe 531e aa3d 1d65 71be
000000c0: 8b5e 73be b0d0 bfbb da42 d93d 5f6b 9bbc
000000d0: d293 533c 4bc7 0dbe 6f35 b73e 380e 463e
000000e0: 219e 16be 5ad5 e43d 138e 353d 4f8a 40bc
000000f0: 7ef6 85be c488 f4bd 0203 ef3e 7302 05be
00000100: 4106 eebd c7e3 6abc c7bf 5b3c f01c 51be
00000110: 4f6a efbc aab8 12be 88b9 a43d 266b 583e
00000120: 7050 c1bd d972 c33c a02d 943d ff8e 75bd
00000130: d34f 1abe 2cc9 d9bd 4486 1bbe 8dec 6c3d
00000140: dc01 1bbe 22fc 5bbb 0e47 f13d f8e1 ab3d
00000150: 7f21 c83d 9706 883d 4f69 61be 02da e43c
00000160: 13c2 6f3d abb8 44be a1f8 32be 6c47 6abd
00000170: 1bbf 10be 6112 503d c808 7a3c 7d43 a03d
00000180: a2b4 a2be f19a 993d 229d 74bc 3539 2abe
00000190: ee12 463d ca50 7bbe 231b 86be c0ae c23d
000001a0: ad68 80bd 83a9 14bd 7fec 82bd 1333 373e
000001b0: 3966 793c ed45 b7be 958e 6b3d c2e7 ebbd
000001c0: 3a84 babd adb2 8fbe 1fa3 783d 8914 8b3d
000001d0: aa0a 88bd 008d 8a3d 50e9 f3bd 7db4 5fbd
000001e0: 02d8 f93d 6cbe d8bd c60d d83d c295 00bd
000001f0: b1ae 653d 9124 edbc 78e2 213d de7d a2bd
00000200: a009 3ebd 89d3 c13d ad3d b0bd 8987 98bc
00000210: 3d9f 47be 5a17 573d 3cd1 fd3d 10c5 1d3e
00000220: 2420 92be adb4 043e e923 7d3d c07d 46bd
00000230: 83b0 40bd 6246 f3bd e834 1f3d ab98 a5bd
00000240: a97a d5bc 28a0 0dbd 3544 d2bd 3d92 143e
00000250: c811 87be cfc8 603d 69cf 433e e1a0 a8bd
00000260: 6277 463d 46a6 83bd 1f9d c2bd 273b b6bc
00000270: f52a 693c 3a07 08be ed45 b43d c156 e4bc
00000280: 0bb5 22bb f18f 0d3d 4686 e1bc d4e8 593d
00000290: 56b1 debd 60d2 c23d 26a7 a63d 3af9 52be
000002a0: 8887 1dbe e3a4 f33c cf37 f2bc a9fc 943d
000002b0: ffce 97bc 27b0 46bd fbcb f23d f124 83be
000002c0: 36be e83b 87ae b5bb 8e92 833a ee0e 06be
000002d0: 7fc8 d73d b237 b5bd d992 773d 7b5a 463d
000002e0: 7bb9 993c 63bb eb3d 6d48 a8bd e934 f2bd
000002f0: 20c9 63be 2f63 7dbc d40a a13d 8d6e 043e
00000300: 4664 84bd c154 133e b0ca 02be c451 fabc
00000310: 8c5d 51be d008 903c 0920 103c 0102 093e
00000320: 154d bcbc 415d a7bd 4e3f 413e 24de c23d
00000330: 3d7a 39be c982 0f3d 6cb0 cdbc dc92 283e
00000340: 0f3e 853c d683 eebd 7250 3c3e afcd 3d3d
00000350: d2c5 ad3c 2116 dabd a495 f1bc 4bc6 013d
00000360: 4470 e03d 24c5 4ebd eb44 abbd ce44 f9bd
00000370: d3fe 7dbe a7e1 bd3d d60a 963c b581 b7bd
00000380: 166b 6abe d1cd 073e 5097 f1bc c1de 0fbe
00000390: bed3 703d d801 3cbe dd51 29be f6a0 dbbd
000003a0: 7e15 42bc 7cc9 c9bc 69b6 a2bd 6774 f03d
000003b0: bb18 373d 33b4 54be 69c5 233d 9ed7 a8bd
000003c0: 7ba6 833c 7adc 813d ae3b 243e b70b 5abc
000003d0: bc5a 5b3c c883 54bd 6e06 c93c e8a2 1fbd
000003e0: ecd2 ce3c ca31 60be 7e89 813d 8072 223d
000003f0: 2dae 113d 5d34 d4bc ea94 1d3d fc9b 88bc
0.012306468 0.0796203 0.17172529 0.12639855 -0.11304484 -0.055200897 0.15085521 0.064733855
-0.059991766 0.13089167 0.03040569 -0.12861426 0.1090302 0.07954996 0.13985132 -0.0059504714
0.0627931 -0.07508431 0.17730977 0.1835566 -0.19212309 -0.085686654 0.13245204 0.29536247
0.07543776 0.0048664077 0.0421258 -0.07346899 0.09063795 -0.04297142 0.102854155 -0.19975303
-0.055329032 0.10608101 -0.2503917 -0.31272805 -0.03230939 -0.05194337 -0.13214958 -0.13442202
-0.27525836 -0.0323482 -0.07695034 -0.08569726 -0.22369482 -0.18589315 0.08306565 -0.23573728
-0.23766534 -0.005853735 0.10608454 -0.018972097 0.012913661 -0.13845555 0.35782954 0.19341362
-0.14708759 0.11173506 0.044324946 -0.011751725 -0.2616462 -0.119401485 0.46681982 -0.12989216
-0.116222866 -0.014336533 0.0134124225 -0.20421195 -0.029225497 -0.14328256 0.080432 0.21134624
-0.0943917 0.023858475 0.07235265 -0.059950825 -0.15069513 -0.106340736 -0.15187937 0.05784278
-0.15137428 -0.003356703 0.11781131 0.083927095 0.09772014 0.06641882 -0.22012828 0.027935985
0.058534693 -0.1921107 -0.17477657 -0.05719702 -0.14135401 0.050798777 0.015260883 0.07825372
-0.31778437 0.07500256 -0.0149300415 -0.16623385 0.048357897 -0.24542537 -0.2619258 0.09505987
-0.06269965 -0.03629447 -0.06392764 0.17890577 0.015222126 -0.35795537 0.057509024 -0.11518814
-0.091072515 -0.28066006 0.06070244 0.06791026 -0.06642659 0.06765175 -0.11909735 -0.054615486
0.12199403 -0.10583195 0.10549502 -0.03139282 0.0560748 -0.0289481 0.039522618 -0.079341635
-0.046395898 0.09464175 -0.08605514 -0.018619316 -0.19494338 0.052512504 0.12393424 0.15407205
-0.28540146 0.12959547 0.061801825 -0.04845977 -0.047043335 -0.11878659 0.038868815 -0.0808576
-0.026059465 -0.034576565 -0.10266916 0.1450891 -0.26380754 0.054879006 0.1912209 -0.0823381
0.048453696 -0.064281985 -0.09502625 -0.022245003 0.014231433 -0.13284007 0.088024 -0.027873399
-0.0024827148 0.0345611 -0.027529847 0.053200558 -0.10873668 0.09512782 0.0813735 -0.20602885
-0.15383732 0.02974171 -0.029567627 0.072747536 -0.01853132 -0.048507836 0.118553124 -0.25614122
0.007102753 -0.005544487 0.0010038184 -0.13091633 0.105362885 -0.08848514 0.06044278 0.048426133
0.018765202 0.115103506 -0.08216939 -0.11826498 -0.22244692 -0.015465542 0.078633934 0.12932797
-0.06464438 0.143878 -0.12772632 -0.030556567 -0.20445842 0.017582327 0.0087967 0.1337967
-0.022985974 -0.08172084 0.18871805 0.09515026 -0.18113036 0.035036836 -0.025108539 0.16462272
0.016264943 -0.116462395 0.18390062 0.046338733 0.021212492 -0.10648752 -0.0294903 0.031683248
0.10958913 -0.050480977 -0.083627544 -0.121713266 -0.24804239 0.092715554 0.018315714 -0.089602865
-0.22892413 0.13262106 -0.029491097 -0.14049818 0.058795683 -0.18360078 -0.16535135 -0.1072406
-0.011845944 -0.024632208 -0.07944948 0.11740952 0.04470132 -0.20771866 0.039983187 -0.08244251
0.016070595 0.06340881 0.16038391 -0.013308457 0.013388332 -0.05188349 0.024539199 -0.03897372
0.02524706 -0.21893993 0.06325053 0.039659977 0.035566498 -0.025903875 0.038472094 -0.016675942

fc2.bias f4 [64]
00000000: ca8e a23d 4c07 b43d 65f8 1b3d 15c1 b63c
00000010: 904f af3d 0961 8fbd 0182 28bd 472e bd3c
00000020: f29f 1d3d fdd2 d13c 4957 803c 9cdc f9bc
00000030: 68a8 c23d 6344 34bd 25c3 b63d bc78 73bd
00000040: d7a0 083d d0ee c73d dc34 bdbd ca6b 24be
00000050: ff34 d23d 575a 16bc bcf1 9e3c 9ce6 0bbe
00000060: c325 e4bb ad86 be3d 50a4 adbc e400 183e
00000070: 99c1 db3d e392 e13d 1b8c 2d3c 9e0b af3d
00000080: 8f5e 98bd 8d87 903c 3b76 183c 9b9f 9cbc
00000090: 3904 9fbd 0945 813d 3872 8b3d f5b3 833c
000000a0: e8c1 b53d ad2a a3bd cbe7 83bb 6c29 523d
000000b0: 659d c0bd 2393 033e 5af2 f1bd 72f1 c53c
000000c0: c0b3 d1bc 3006 183e 0561 b83d 4dad a33c
000000d0: 1453 fbbc 93d4 6abb fa80 78bd e363 263c
000000e0: 8f51 c13c 10bb 373d 7b8b dd3d 3271 a9bc
000000f0: b3f3 abbc 635d f93d 7717 9b3c 422e 58bb
0.07937391 0.08790454 0.038078684 0.022308866 0.08560097 -0.0700093 -0.041139606 0.023093356
0.038482614 0.025613302 0.01566662 -0.030500703 0.09504777 -0.04401053 0.089239396 -0.059441313
0.033356514 0.09762347 -0.09238598 -0.16056743 0.102640145 -0.009176812 0.019402377 -0.13662189
-0.0069625094 0.09303031 -0.021196514 0.1484409 0.10730285 0.110143445 0.010592486 0.08547138
-0.074399106 0.01764276 0.009305532 -0.019119075 -0.07764477 0.063119955 0.06808895 0.016077021
0.08874875 -0.07967124 -0.0040254346 0.051309034 -0.094050206 0.12849097 -0.11813803 0.024162982
-0.025598407 0.1484611 0.0900288 0.019980097 -0.030679263 -0.003583227 -0.060669877 0.010155651
0.02359846 0.04485613 0.108176194 -0.020683859 -0.020990228 0.12176015 0.018932087 -0.0032986556

output_layer.weight f4 [10, 64]
00000000: c79a c9bd 44ca 0fbe 85c8 52be 3894 85bd
00000010: 87be 39bc 93dc abbd 4531 9bbe 5f3c c73c
00000020: b6a4 dd3c 232b 33be a08d 653d c465 fabd
00000030: dcf0 6cbd e3e3 fa3c 1c36 f3bd 19e2 a53d
00000040: d20c 8cbe fa23 e2bc 6d8b 99bd 2e40 da3c
00000050: e64e 78be 0385 81bd 0651 18be 9964 05be
00000060: d399 323e 411d 58bc 1667 57be 691c c03d
00000070: 48b2 5dbe 0fad 00be 8b8b 473d 06eb d43d
00000080: 755a 24be edbd 3c3e 04e4 1bbe 0806 383e
00000090: e4b9 b93d 95cc 01be fbcd 433e c5e1 e23d
000000a0: 5bb3 4d3e e7eb 81bc 81e8 203e c45a d23d
000000b0: 8121 153d c600 06be 03b0 773c 8fa3 1c3c
000000c0: 96d1 3ebe fbdf 1ebe 03e2 09be 9fa9 613e
000000d0: fd7a 37bd 6be9 38be e94e 583d ef8c d53d
000000e0: f3be 37be d3de 083e 3c7b 503d 832b 98be
000000f0: 72e0 493d 64fc 5bbe e5d8 8fbe 8636 ff3d
00000100: 6634 6abd 5126 d1bc 0bfc babd f350 c93d
00000110: 09c1 80be f79a b4bd c5e1 37be a952 80be
00000120: b9b7 0b3e 468e 46be cbb4 b43d 8dc6 6a3e
00000130: 6ca2 5abe 2ac0 23bd 55d2 9e3c d330 293e
00000140: 97bc a6bd 211e 713d 712f 283e 6c4d 8ebc
00000150: ff67 29bd 6bef ae3d 19dd f1bc 4249 87be
00000160: 800b 273e f9ad 21bd 08da 043e e95f bf3c
00000170: 9bf7 ff3c f1de 223c 96b3 473e dcae bbbe
00000180: 7bd5 863e 38d3 b53c c4f6 023e b390 58be
00000190: 32af bb3c 44c8 e03c 6ede a2be b0fb 4dbe
000001a0: c5e5 3dbd 5f77 43be 60c8 babe 91d9 87be
000001b0: ea75 7bbd bc9d 88bd 41cd 5fbd 8487 91be
000001c0: 716d 2abe abd6 083d b919 78bb 29ee 383e
000001d0: 7ef8 96bc 9502 e03d 47ff 8abe 345e e23d
000001e0: d0b4 c7be 4512 5e3d e6bb 1bbe 7cb3 3b3e
000001f0: e17e cdbe 8f5a 63be 0c60 873b 07d1 bf3d
00000200: 0f7e 8cbd e1d5 e23c 0322 92be a44d 83be
00000210: ccf5 0d3d 2928 eabd c8f9 b53d 10c3 06be
00000220: f09e 5a3d 532e debd 0630 81be 2eaa 903c
00000230: 4483 243e 685d b53d 95a7 af3d c288 07be
00000240: 71d7 243d 8148 7cbe 3733 a93d e163 ffbd
00000250: 7d2e 823d 79b0 33be c61d 8ebe 9484 85be
00000260: e6b5 80be 5bdc 363e 182f 9dbe 27e3 163e
00000270: cac8 86be 45d6 243e 7b1d 3fbe 31e4 aabb
00000280: b5d0 99be 6d1f 2b3e 31db 4abd b913 0bbe
00000290: 0775 3bbe 4bbf 3e3e c881 1b3e fe5d 64be
000002a0: 5ea4 fdbd 89a4 56be 3f4e fd3d cd05 acbd
000002b0: d91a 68bd a6c2 05be fb6c c8bd 0d62 94be
000002c0: ea8a dbbd 6223 ffba dda7 513e ce16 fc39
000002d0: 69eb c6bd db4a bd3d f646 653d 48eb 3fbe
000002e0: f762 b03d 8975 163d 6d16 47bd c25e 493e
000002f0: 2250 36be 1761 26be 867f f83a 1523 413e
00000300: 8250 893e d69d 523e ff8d c93d 71d7 423e
00000310: 1318 3ebe c7d3 acbe 2e43 50bd 14fe c6bd
00000320: bac4 b03d e27a 823d acdb 33be 001e 42be
00000330: 7cea e5bd bdbb f23d 7a84 67be adfc f43d
00000340: 831b 14be b727 0e3e 3a34 55be 7f39 a93c
00000350: b9e2 203d 2109 1dbe a6e7 cd3d bee8 483d
00000360: cc3f 56be 919c abbe 7622 b1bd f4f5 2cbe
00000370: 16a2 0b3e 808a 1dbe 7103 203d 1567 a93c
00000380: 3e08 82bd 202d 68bc 6c24 b83d 1b58 c6bd
00000390: 004d ca3d 95e4 543e 21c0 04be 0958 1dbe
000003a0: 5ca9 903d e629 6cbe 417d 9abd 0d66 8e3d
000003b0: d43a f73d 5a81 b2be d7f7 443d ad36 0c3e
000003c0: 095d 76be 0e38 083e 0683 83be aa79 16be
000003d0: 382f 85bd 8e1f bc3b 7b61 bbbd db36 51be
000003e0: 07e2 f0bd 662d 943d e8cd a93d 0570 3c3e
000003f0: 4445 2f3b dc33 d6bd 2391 bebd f0e6 8abe
-0.098439746 -0.14042002 -0.20584305 -0.06522411 -0.011336929 -0.083916806 -0.30311027 0.02432078
0.02705608 -0.17496924 0.056043267 -0.122264415 -0.05784689 0.030626243 -0.11875555 0.08099765
-0.2735353 -0.027605046 -0.074972965 0.026641931 -0.24248847 -0.06324198 -0.14874658 -0.13026656
0.17441492 -0.013190568 -0.21035418 0.09380419 -0.2165004 -0.12566017 0.048717063 0.1039639
-0.16050132 0.18431826 -0.152237 0.1797105 0.09068659 -0.12675698 0.19121544 0.11078218
0.2008795 -0.015859557 0.15713693 0.102712184 0.036408905 -0.13086233 0.015117648 0.00956048
-0.18634638 -0.1551513 -0.13465123 0.22037362 -0.044795025 -0.18057792 0.05280963 0.104272716
-0.17943935 0.1336625 0.050898775 -0.29720697 0.049286313 -0.21482998 -0.28095165 0.124615714
-0.057178877 -0.025530966 -0.09130105 0.09829893 -0.25147274 -0.0881862 -0.17957218 -0.25063065
0.13644303 -0.1939021 0.08823546 0.22927304 -0.21351022 -0.039978184 0.019387404 0.16522531
-0.081414394 0.058866624 0.16424347 -0.017370902 -0.041358944 0.08541759 -0.029524373 -0.2642308
0.1631298 -0.039472554 0.12973797 0.023361163 0.031245997 0.009940849 0.195021 -0.36656845
0.26334748 0.022195444 0.12789446 -0.21148948 0.022910688 0.027439244 -0.31810325 -0.20115542
-0.046361703 -0.19088505 -0.36481 -0.26533177 -0.06139175 -0.066707104 -0.054639105 -0.28423703
-0.16643311 0.03340785 -0.0037857129 0.18059601 -0.018429037 0.109379925 -0.27147886 0.11053124
-0.39005136 0.054216642 -0.15208396 0.18330187 -0.40135863 -0.22202514 0.0041313227 0.09366041
-0.06859981 0.027689876 -0.28541574 -0.25645173 0.03465824 -0.11433441 0.088855326 -0.13160348
0.05337423 -0.108486794 -0.2523195 0.017659273 0.16065699 0.088557065 0.085768856 -0.13235763
0.040244523 -0.24637033 0.082617216 -0.12470222 0.06356523 -0.17547788 -0.2775709 -0.26077712
-0.25138777 0.17857496 -0.30699992 0.14735089 -0.26325065 0.16097362 -0.1866359 -0.005215191
-0.30042043 0.16711207 -0.049525443 -0.13581742 -0.18306361 0.1862766 0.15186226 -0.2230148
-0.12384866 -0.20961203 0.1236844 -0.08399544 -0.05666623 -0.13062534 -0.097864114 -0.28981057
-0.10719855 -0.0019465501 0.20474191 0.00048082176 -0.0971287 0.09242793 0.055975877 -0.18742096
0.08612626 0.036733184 -0.04860537 0.19665053 -0.17804006 -0.16247974 0.0018958903 0.18861039
0.26819235 0.20568022 0.09841537 0.19027497 -0.18563871 -0.33755323 -0.050845318 -0.0971643
0.086312726 0.06371094 -0.17564267 -0.18956757 -0.11226365 0.118522145 -0.2260913 0.119622566
-0.1446362 0.13882338 -0.20820704 0.0206573 0.03927872 -0.15335514 0.10053949 0.049050085
-0.20922774 -0.33517888 -0.08649151 -0.16890699 0.1363605 -0.15384865 0.039065782 0.020679036
-0.06349228 -0.014170915 0.08991322 -0.096847735 0.09877968 0.20790322 -0.12963916 -0.15365614
0.07063553 -0.23062858 -0.075434215 0.069530584 0.120717674 -0.34864312 0.04808792 0.13692732
-0.24058928 0.13302633 -0.256859 -0.14694849 -0.06503147 0.0057410663 -0.09149452 -0.20431082
-0.11761861 0.072352216 0.082912266 0.18402107 0.0026744166 -0.1045911 -0.093050264 -0.27129316

output_layer.bias f4 [10]
00000000: 3350 f5bb cd8d 44bc 974b cc3c e186 953d
00000010: f433 213c 9145 c3bd 6c4a 983d ffb6 b23d
00000020: d65b ddbc b02c 143d
-0.007486367 -0.011996699 0.024938388 0.07301117 0.009839047 -0.09534753 0.0743607 0.0872631
-0.02702133 0.03617543
